pths/net.pth (torch_old, 34322 bytes, 28 tensors)

AbundanceEstNet.Encoder_0.layers.0.0.conv2d.weight f4 [4, 3, 1, 1]
-0.45848072 -0.3119055 -0.6525367 0.83898306 0.12968165 0.661015 -0.68950665 -0.82582146
-0.706071 0.63091767 0.21963543 0.5458329
00000000: fcbd eabe 14b2 9fbe a50c 27bf 98c7 563f
00000010: 44cb 043e 4738 293f 8283 30bf 0969 53bf
00000020: 12c1 34bf d283 213f 1ce8 603e b4bb 0b3f

AbundanceEstNet.Encoder_0.layers.0.0.conv2d.bias f4 [4]
-0.5535559 -0.26711756 -0.20997003 0.031075962
00000000: d7b5 0dbf a2c3 88be 6202 57be 0493 fe3c

AbundanceEstNet.Encoder_1.layers.0.0.conv2d.weight f4 [8, 7, 1, 1]
-0.5368923 0.5641516 -0.40113264 0.45641178 0.592361 0.45776892 0.45029357 0.40821096
-0.61593044 0.28696403 -0.4604034 0.012190588 -0.01857717 -0.59536237 0.28244624 -0.1767368
0.16830142 -0.015541635 0.64903057 -0.031175954 -0.77175355 -0.063052244 -0.5844018 0.18732123
-0.39100525 -0.4752684 -0.38984782 0.055835243 -0.056346945 0.43338823 -0.21171355 0.3564335
0.5376513 0.5333059 0.44226083 -0.024868846 0.6501063 -0.18685104 0.49594983 0.29474738
0.40179855 0.5890898 0.09079268 -0.5460706 0.13017759 0.32646677 -0.47906423 -0.37799403
-0.11838468 0.019794794 0.40394953 -0.16979279 -0.009214146 0.42460802 0.6456394 0.47805396
00000000: c671 09bf 3d6c 103f 4261 cdbe ceae e93e
00000010: f8a4 173f b060 ea3e e18c e63e 0701 d13e
00000020: 9ead 1dbf f3ec 923e ffb9 ebbe 08bb 473c
00000030: 262f 98bc ab69 18bf cb9c 903e 7efa 34be
00000040: 3557 2c3e 58a2 7ebc de26 263f b764 ffbc
00000050: a491 45bf 8921 81bd 5b9b 15bf 23d1 3f3e
00000060: d731 c8be 6156 f3be 229a c7be 7fb3 643d
00000070: 0ecc 66bd 10e5 dd3e 70cb 58be 747e b63e
00000080: 84a3 093f bc86 083f 0370 e23e c0b9 cbbc
00000090: 5e6d 263f e155 3fbe 23ed fd3e 21e9 963e
000000a0: 8ab8 cd3e 97ce 163f 83f1 b93d 48cb 0bbf
000000b0: 464d 053e a726 a73e e847 f5be 6f88 c1be
000000c0: ab73 f2bd b128 a23c 79d2 ce3e 29de 2dbe
000000d0: eef6 16bc 3966 d93e a048 253f 7dc3 f43e

AbundanceEstNet.Encoder_1.layers.0.0.conv2d.bias f4 [8]
-0.07536176 -0.2745762 0.22653551 0.02145989 0.11656139 -0.40960732 -0.05966611 0.187463
00000000: 4457 9abd 4095 8cbe edf8 673e a7cc af3c
00000010: bdb7 ee3d 0db8 d1be 7364 74bd 4df6 3f3e

AbundanceEstNet.Encoder_2.layers.0.0.conv2d.weight f4 [16, 11, 1, 1]
-0.0009891208 0.012337071 0.43878233 -0.21835378 -0.17185725 -0.39085954 -0.28457052 0.25206414
0.41380093 0.08623573 -0.64933264 0.03042889 0.21630932 0.4921096 -0.04979979 -0.107667334
0.060427014 0.30105603 0.08846995 -0.18229342 0.040001225 -0.4213626 0.45286375 -0.21625967
-0.48627582 -0.3062698 0.20526892 0.6426718 -0.015592551 0.14175428 0.46526527 0.1661824
0.45076272 0.21989803 -0.10210071 -0.30565074 -0.39266208 0.17840013 0.4634256 0.12503657
0.018656017 0.2981829 0.5298498 0.038166836 0.6401204 -0.1613139 -1.0032012 -0.24480246
0.2397999 0.7618121 -0.3382216 0.19240564 0.31505737 0.10671668 0.07280669 0.21861513
0.040649865 -0.3476253 -0.30782852 0.095533006 0.35090178 -0.25394824 0.2411158 0.50958097
0.32341802 0.11676492 -0.44853723 0.11260125 0.045063153 -0.09335843 -0.36593163 -0.42104292
0.15643491 0.06412299 -0.07045989 -0.023637716 -0.41392133 0.3765809 -0.3452705 -0.124901794
-0.11779173 0.47791588 0.08332725 0.10509579 0.40470767 0.46780086 0.34573972 0.57567364
0.37786016 0.12097905 -0.18352695 -0.34561378 0.14137118 0.33764735 -0.3152004 -0.039531495
-0.18781346 0.06730319 0.4575836 -0.12094715 -0.09070842 0.44745064 -0.0094446875 -0.2092371
-0.4680771 -0.2245126 -0.10742381 0.40623283 0.22301719 -0.6271081 -0.53076893 -0.22114904
0.25856012 0.40308592 -0.34580374 -0.33949175 0.14100893 -0.29109973 0.1670435 -0.12356693
-0.32968843 0.46609896 -0.050819423 -0.49580222 -0.5144051 0.27173907 0.27691975 -0.24384993
0.18776347 0.51978016 0.29923698 0.31822094 0.0384196 -0.20867172 0.29772028 -0.12903823
0.11554164 -0.21642184 -0.029116284 0.01237851 -0.22003488 -0.35169432 -0.030467829 -0.3509656
0.34059042 -0.05553042 0.0019219588 -0.48418367 -0.14889313 0.15149947 -0.2665467 -0.27756697
-0.5326412 -0.19199803 0.34471932 -0.3773663 -0.1929938 -0.21105143 -0.024840988 0.46011338
-0.096017726 0.18228042 0.10262685 0.3632501 0.51391286 0.52315414 -0.29294407 -0.41854703
0.073900096 0.29817256 0.52442014 -0.24455431 0.37902033 -0.07146244 0.23537916 0.24837363
00000000: 63a5 81ba 6d21 4a3c 14a8 e03e 2298 5fbe
00000010: 59fb 2fbe be1e c8be 3ab3 91be 8d0e 813e
00000020: b7dd d33e 5c9c b03d aa3a 26bf 0246 f93c
00000030: 3180 5d3e caf5 fb3e ddfa 4bbd b180 dcbd
00000040: 5182 773d 0424 9a3e bc2f b53d 20ab 3abe
00000050: 53d8 233d d7bc d7be c2dd e73e 2d73 5dbe
00000060: 25f9 f8be 65cf 9cbe 0432 523e 2486 243f
00000070: e677 7fbc 0928 113e 4037 ee3e b82b 2a3e
00000080: 5fca e63e f32c 613e 2d1a d1bd 417e 9cbe
00000090: 010b c9be 86ae 363e 1f46 ed3e 9609 003e
000000a0: 81d4 983c 6eab 983e 3da4 073f d454 1c3d
000000b0: eede 233f 792f 25be e668 80bf 7fad 7abe
000000c0: 1b8e 753e 1e06 433f 622b adbe fc05 453e
000000d0: 334f a13e 468e da3d ad1b 953d a5dc 5f3e
000000e0: 7980 263d f1fb b1be b39b 9dbe cfa6 c33d
000000f0: 66a9 b33e 8105 82be 0fe7 763e e673 023f
00000100: 0c97 a53e 7222 ef3d aca6 e5be 7c9b e63d
00000110: 2494 383d b432 bfbd 645b bbbe f092 d7be
00000120: 7930 203e ea52 833d 464d 90bd e2a3 c1bc
00000130: 7fed d3be 36cf c03e 4cc7 b0be 83cc ffbd
00000140: ca3c f1bd 64b1 f43e 7aa7 aa3d 763c d73d
00000150: d835 cf3e 9883 ef3e cc04 b13e 595f 133f
00000160: e376 c13e ddc3 f73d 7dee 3bbe 4af4 b0be
00000170: 9bc3 103e 1de0 ac3e f261 a1be c7eb 21bd
00000180: 2c52 40be 41d6 893d 6648 ea3e 24b3 f7bd
00000190: 56c5 b9bd 4018 e53e e4bd 1abc 4042 56be
000001a0: cda7 efbe a2e6 65be 0401 dcbd c0fd cf3e
000001b0: 9e5e 643e 288a 20bf 79e0 07bf e574 62be
000001c0: fe61 843e 4761 ce3e 300d b1be ddd1 adbe
000001d0: a564 103e 060b 95be 740d 2b3e a910 fdbd
000001e0: eccc a8be 86a4 ee3e 0728 50bd cad9 fdbe
000001f0: 0db0 03bf 6221 8b3e 6dc8 8d3e ccb3 79be
00000200: 1145 403e 5010 053f 9735 993e dbed a23e
00000210: df5d 1d3d 0aae 55be cb6e 983e 9922 04be
00000220: 18a1 ec3d b09d 5dbe 4685 eebc 3ccf 4a3c
00000230: d350 61be 4711 b4be ab97 f9bc c3b1 b3be
00000240: de61 ae3e de73 63bd 3cea fb3a ece6 f7be
00000250: 7177 18be ad22 1b3e cf78 88be 421d 8ebe
00000260: 2c5b 08bf 229b 44be 0d7f b03e 2836 c1be
00000270: 2ba0 45be de1d 58be 547f cbbc fb93 eb3e
00000280: f1a4 c4bd b8a7 3a3e 072e d23d ebfb b93e
00000290: cb8f 033f 6eed 053f c4fc 95be cc4b d6be
000002a0: ef58 973d 13aa 983e 6640 063f 726c 7abe
000002b0: f40e c23e e65a 92bd 3c07 713e a855 7e3e

AbundanceEstNet.Encoder_2.layers.0.0.conv2d.bias f4 [16]
0.103947856 -0.27995047 0.24963847 0.2797625 -0.30543745 0.036339413 -0.18638678 0.30034682
0.22518726 0.29247433 0.07725555 0.04492477 0.19791986 -0.08628583 0.012951589 0.1539573
00000000: 9de2 d43d ab55 8fbe 3aa1 7f3e 083d 8f3e
00000010: 4c62 9cbe a3d8 143d 2ddc 3ebe 0fc7 993e
00000020: 7d97 663e 32bf 953e 2838 9e3d 0903 383d
00000030: 81ab 4a3e a0b6 b0bd e732 543c fca6 1d3e

AbundanceEstNet.Encoder_3.layers.0.0.conv2d.weight f4 [24, 19, 1, 1]
0.19626619 -0.10126784 -0.058168862 -0.19113365 -0.28073934 -0.11369528 -0.14026944 -0.19031069
0.20147032 -0.14122596 0.29323158 -0.14082566 0.025351815 0.17580582 -0.021543073 -0.063319236
-0.1925492 -0.11271507 0.1874488 -0.46495128 0.12235115 0.17290904 0.1296839 0.37442324
0.30421665 -0.14448103 0.34514025 0.22088276 -0.2139867 -0.28349075 0.56427217 0.01629191
-0.26206046 0.29392025 0.16231146 0.08952958 0.22855893 0.39244923 0.0721972 0.10402156
-0.23109628 0.16469425 -0.25801998 -0.18640473 -0.04983458 -0.17742515 0.02797171 -0.029216385
-0.053275604 -0.33498582 0.15297125 0.2076448 -0.065236665 -0.26954255 0.018924106 -0.06991236
-0.30964243 0.1559576 -0.00013248756 -0.19598442 -0.1082093 -0.12479826 -0.30987367 0.004151337
-0.18619716 -0.16359985 0.3431592 0.27598312 -0.32927904 0.21547623 -0.061485793 -0.4787751
-0.27813128 -0.08742162 -0.32714793 -0.088821724 -0.17457198 0.045712613 0.3533291 0.04216657
0.504091 0.14711155 -0.12601195 0.27765122 -0.017581541 -0.0847738 -0.33116218 0.32404202
0.10886337 0.028136311 0.13168308 0.16425443 0.21631956 0.42806438 0.3510046 0.45598927
0.14339575 -0.30192107 0.10777919 -0.3748894 -0.00527738 0.2028851 -0.19872011 -0.088438496
0.18929897 0.29127133 -0.42158455 0.06571273 0.19756918 -0.10634711 0.018506236 -0.03962551
-0.35437912 0.009056733 -0.43060434 -0.21157266 0.22567737 0.22488673 0.41266066 0.3296453
-0.26909563 0.1629843 0.2344572 -0.25640303 -0.41482845 0.45041105 -0.16192143 -0.3268842
0.41703478 0.044818733 0.04725687 0.4656701 0.17019366 -0.5853719 0.2703221 -0.020432504
0.26147872 0.41279668 0.28711924 0.011665508 -0.07083012 0.17774904 -0.4042249 -0.26035208
-0.006778495 -0.10762266 -0.028230581 0.27270147 0.21621011 0.11353193 0.23579119 -0.14125477
-0.577901 -0.064292684 0.15723498 0.23757571 0.1490129 0.23522983 -0.15963387 0.008687589
-0.028997015 -0.23691726 -0.2674312 0.20242848 -0.3168593 -0.09194976 0.22272591 -0.14814095
0.29756203 0.34074473 -0.15454045 -0.34480262 -0.085609786 0.048167787 0.25935662 0.049784563
0.08022439 -0.12671301 0.10897827 -0.02026922 0.08712058 -0.013803426 0.23703657 0.2140972
-0.27748692 0.36296377 0.03280552 0.3292651 0.34234288 -0.04829156 -0.29784712 -0.17619814
0.41139597 0.10327458 0.47262126 0.47492385 -0.29722363 0.2769106 -0.072186254 -0.21326831
-0.3379807 0.12981896 -0.2505135 -0.36819604 0.09997818 0.035936248 0.09346957 0.36614582
0.19849166 -0.4407433 -0.26007515 0.3781883 -0.07419754 0.118104726 0.08463082 -0.037679896
0.32032594 0.18419598 -0.17619944 -0.16374673 0.26354071 0.1106404 -0.17114428 0.0757595
0.20064418 0.1434177 0.19788058 0.3027307 -0.08763623 -0.14364342 0.2421262 0.2958079
0.09356604 0.106283054 -0.4002485 0.29662824 0.4108964 0.2603553 0.019541329 0.18492946
0.16652793 -0.43748552 0.24127966 0.15063602 0.112960465 0.30723414 0.13496098 -0.21797395
0.2590594 -0.3473554 -0.35102043 -0.17113559 -0.35988802 0.48337653 -0.2198868 -0.41653547
00000000: 01fa 483e 8365 cfbd 7942 6ebd 8ab8 43be
00000010: 11bd 8fbe 12d9 e8bd cba2 0fbe cee0 42be
00000020: 3c4e 4e3e 8a9d 10be 7322 963e 9a34 10be
00000030: 9cae cf3c 7106 343e 197b b0bc 84ad 81bd
00000040: 9e2b 45be 29d7 e6bd 94f2 3f3e 180e eebe
00000050: 3d93 fa3d 110f 313e dbcb 043e 67b4 bf3e
00000060: 49c2 9b3e d6f2 13be 39b6 b03e 172f 623e
00000070: 541f 5bbe b325 91be 2474 103f 9d76 853c
00000080: ca2c 86be b77c 963e fa34 263e 495b b73d
00000090: 5a0b 6a3e 1bef c83e 20dc 933d 4109 d53d
000000a0: 81a4 6cbe 9ca5 283e 321b 84be e2e0 3ebe
000000b0: 581f 4cbd f0ae 35be ed24 e53c 3357 efbc
000000c0: 8537 5abd 4383 abbe 7fa4 1c3e d7a0 543e
000000d0: cd9a 85bd 7b01 8abe ba06 9b3c 362e 8fbd
000000e0: 7489 9ebe 59b3 1f3e 5cec 0ab9 24b0 48be
000000f0: d69c ddbd 3b96 ffbd c3a7 9ebe f007 883b
00000100: 78aa 3ebe b886 27be 90b2 af3e a94d 8d3e
00000110: 4397 a8be cda5 5c3e 87d8 7bbd 0322 f5be
00000120: 3967 8ebe 1b0a b3bd ef7f a7be 2ae8 b5bd
00000130: ffc2 32be 263d 3b3d 8de7 b43e dab6 2c3d
00000140: 1c0c 013f 69a4 163e 4709 01be 4d28 8e3e
00000150: 2a07 90bc e39d adbd 178e a9be d6e8 a53e
00000160: c2f3 de3d 1f7e e63c eed7 063e 5032 283e
00000170: e082 5d3e 412b db3e e0b6 b33e 6d77 e93e
00000180: 56d6 123e 6695 9abe 56bb dc3d 81f1 bfbe
00000190: dfed acbb 1dc1 4f3e 497d 4bbe 3e1f b5bd
000001a0: 97d7 413e 8421 953e eed9 d7be 6594 863d
000001b0: 934f 4a3e 83cc d9bd 649a 973c 5c4e 22bd
000001c0: 2e71 b5be b162 143c 2c78 dcbe 81a6 58be
000001d0: f817 673e b548 663e 4248 d33e 45c7 a83e
000001e0: e7c6 89be 5be5 263e 8c15 703e 4247 83be
000001f0: 6564 d4be 479c e63e bbce 25be 5e5d a7be
00000200: 9585 d53e d993 373d 6b90 413d 506c ee3e
00000210: 3f47 2e3e efda 15bf a967 8a3e 1162 a7bc
00000220: 8ae0 853e 165a d33e 4b01 933e b020 3f3c
00000230: 620f 91bd d803 363e 91f6 cebe de4c 85be
00000240: 231e debb 4569 dcbd d243 e7bc 879f 8b3e
00000250: 2f66 5d3e 6e83 e83d 3f73 713e 17a5 10be
00000260: 52f1 13bf e2ab 83bd 3502 213e 0c47 733e
00000270: d696 183e 17e0 703e 1077 23be 6456 0e3c
00000280: 268b edbc 709a 72be beec 88be 6949 4f3e
00000290: 623b a2be 2850 bcbd 4312 643e 43b2 17be
000002a0: 0d5a 983e 1876 ae3e da3f 1ebe f889 b0be
000002b0: 2f54 afbd 964b 453d 64ca 843e e6ea 4b3d
000002c0: af4c a43d 0ec1 01be 0030 df3d a30b a6bc
000002d0: 466c b23d c427 62bc b7b9 723e 4c3c 5b3e
000002e0: c412 8ebe 63d6 b93e 155f 063d 6f95 a83e
000002f0: 9147 af3e 5fcd 45bd 6b7f 98be 496d 34be
00000300: 7ea2 d23e 9f81 d33d 6afb f13e 3829 f33e
00000310: b22d 98be 3ac7 8d3e 63d6 93bd 0263 5abe
00000320: ce0b adbe 43ef 043e 4e43 80be 3184 bcbe
00000330: 5cc1 cc3d e331 133d f96c bf3d 7777 bb3e
00000340: 6641 4b3e 1ba9 e1be 9228 85be e6a1 c13e
00000350: e1f4 97bd e4e0 f13d ec52 ad3d 3c56 1abd
00000360: c301 a43e df9d 3c3e a06d 34be 39ad 27be
00000370: cfee 863e 6f97 e23d 7240 2fbe cc27 9b3d
00000380: ab75 4d3e 17dc 123e 35a1 4a3e 85ff 9a3e
00000390: a07a b3bd 4317 13be eeef 773e 2274 973e
000003a0: 8d9f bf3d eeaa d93d 5fed ccbe a8df 973e
000003b0: 0361 d23e 4a4d 853e 2315 a03c 265e 3d3e
000003c0: 4c86 2a3e 1afe dfbe 0412 773e 5440 1a3e
000003d0: d157 e73d cb4d 9d3e 3633 0a3e 9034 5fbe
000003e0: 6fa3 843e 91d8 b1be f3b8 b3be 2b3e 2fbe
000003f0: 3e43 b8be 217d f73e 012a 61be 2344 d5be

AbundanceEstNet.Encoder_3.layers.0.0.conv2d.bias f4 [24]
-0.10681471 -0.07666746 0.1618275 0.112083845 -0.0742594 -0.21874681 0.16965652 -0.20811878
-0.3386094 -0.11982645 0.11213874 0.1298313 0.14043814 -0.43714017 0.08561703 -0.21023127
0.09694616 -0.063608035 -0.18860723 -0.08784639 -0.22084369 0.21733615 -0.15178515 0.12126225
00000000: acc1 dabd d403 9dbd 1cb6 253e 378c e53d
00000010: 5015 98bd 2aff 5fbe 70ba 2d3e 171d 55be
00000020: 365e adbe 9267 f5bd ffa8 e53d 7ff2 043e
00000030: 04cf 0f3e d6d0 dfbe fb57 af3d de46 57be
00000040: b58b c63d ee44 82bd 4122 41be cfe8 b3bd
00000050: d924 62be 5e8d 5e3e 916d 1bbe 5858 f83d

AbundanceEstNet.Encoder_4.layers.0.0.conv2d.weight f4 [16, 27, 1, 1]
-0.16226888 0.103472166 -0.26770732 -0.04470827 0.061791304 -0.013549272 0.124023005 0.36187533
0.056375735 0.21212126 -0.124205135 -0.13549949 -0.07411628 0.21040243 0.14744677 0.036738917
-0.17494634 -0.07463014 0.0006675088 0.068964414 0.16497831 -0.08979914 -0.15100922 -0.041229304
0.17128359 0.15632354 -0.00027121385 0.19475979 0.009843801 0.12554246 0.09767462 0.18828712
0.095719405 -0.14730765 0.114605635 -0.12456719 -0.09512814 -0.11986741 -0.091096945 -0.18457091
0.17295296 -0.043460615 0.13398011 0.17574951 0.10309904 0.17532404 -0.010591749 -0.16893008
0.09690085 -0.16627957 0.03789383 -0.08444452 0.12487156 0.12511958 -0.0064124963 -0.066807196
0.1432877 -0.05911595 -0.15302227 -0.12274331 -0.18452494 0.14469025 0.14006893 -0.047214504
0.08509871 0.10232841 -0.085008964 0.036267772 -0.038301818 -0.08946854 -0.11924718 -0.09691414
-0.012601234 -0.026904704 -0.14416204 -0.17332774 -0.02433099 0.07645714 0.054128155 -0.13961348
0.09540488 -0.048368484 0.011406592 0.06137557 0.11072112 0.03869802 -0.10927274 -0.2635929
0.04638748 0.2199918 -0.11117823 0.05357247 -0.1738234 -0.23933227 0.25259635 -0.2166302
0.15667006 0.007708969 0.069193445 -0.082761824 0.11036841 0.20958203 0.029306363 0.25031906
0.14944665 0.07319679 0.10504793 0.13117774 0.16179371 0.0771333 -0.16346009 0.07516995
-0.011493494 0.081798084 0.020964727 0.12183299 -0.16538951 -0.14857423 -0.010374381 0.14348789
-0.15598302 0.02361852 -0.02410538 -0.16137488 -0.1768946 -0.17025517 -0.16287528 -0.16197492
-0.02433668 0.12016468 -0.09697562 -0.10413214 -0.06977486 0.07465419 0.1496395 -0.08814947
-0.08949072 0.063002445 -0.17981164 0.11409483 -0.074305125 0.08664201 0.14890182 0.042927187
-0.18751857 -0.05643013 0.16418974 -0.17755006 0.16062978 -0.14637354 -0.041829187 0.13446943
-0.18166403 -0.17758204 -0.038707722 -0.1426336 -0.015648352 0.12565278 0.097545944 -0.17516299
-0.05045397 -0.1458704 -0.061980586 0.07638555 0.01309436 0.24098364 0.00459139 -0.07341148
0.00044952353 -0.11409958 -0.16486229 -0.16234712 0.10896009 -0.16066958 0.08190916 -0.061033066
0.10694807 -0.05912856 0.07537876 -0.14488982 -0.083742954 -0.0112452125 0.005854827 -0.02378573
0.025732158 0.015212282 0.07797634 -0.24018075 -0.18879907 0.10801198 -0.06394196 -0.08116823
0.043523032 0.121816926 -0.12706734 0.049344484 0.09920154 -0.08860913 -0.022516996 -0.14260706
-0.11901457 -0.16597742 0.20657216 0.1287204 0.07981198 0.14262693 0.12567139 0.09583042
0.25234747 0.10896999 -0.16759646 0.24815212 0.03821689 -0.09825422 0.020149851 -0.13445598
-0.01598543 0.023423625 -0.11701192 -0.062797286 -0.009364701 0.2604431 -0.12399605 0.07172156
0.087403335 -0.063060425 0.005389108 -0.21951161 -0.005147569 0.275621 0.115527205 0.025219379
-0.11294193 0.052456766 0.18100895 0.13071312 -0.10703427 0.15548111 -0.10395273 0.056971744
0.20202582 -0.08564139 -0.04165797 0.09249353 -0.008528927 0.040509287 0.10720598 -0.06603705
0.04053992 -0.12914276 0.029452192 -0.15956782 0.24191415 -0.051172663 0.0050650095 0.013234873
00000000: d029 26be 37e9 d33d ef10 89be 0520 37bd
00000010: e118 7d3d c4fd 5dbc c6ff fd3d b947 b93e
00000020: 3eea 663d 5136 593e 435f febd 61c0 0abe
00000030: 47ca 97bd bc73 573e 49fc 163e 8c7b 163d
00000040: 2225 33be b0d7 98bd c2fb 2e3a 373d 8d3d
00000050: 13f0 283e 9de8 b7bd 29a2 1abe 0fe0 28bd
00000060: f764 2f3e 4713 203e b531 8eb9 1c6f 473e
00000070: e547 213c 348e 003e a209 c83d 57ce 403e
00000080: 8908 c43d d1d7 16be 5cb6 ea3d 151d ffbd
00000090: 8bd2 c2bd 0b7d f5bd 0991 babd 2800 3dbe
000000a0: 951a 313e c203 32bd 1532 093e aef7 333e
000000b0: 9725 d33d 2588 333e 0489 2dbc 02fc 2cbe
000000c0: f473 c63d 3145 2abe 9036 1b3d 40f1 acbd
000000d0: a9bc ff3d 591f 003e eb1f d2bb 36d2 88bd
000000e0: 03ba 123e 9123 72bd dfb1 1cbe d860 fbbd
000000f0: 1bf4 3cbe ae29 143e 3b6e 0f3e ff63 41bd
00000100: 3c48 ae3d 8f91 d13d 2e19 aebd 848d 143d
00000110: 5ee2 1cbd 483b b7bd de37 f4bd ec7a c6bd
00000120: 6875 4ebc 4167 dcbc 379f 13be d47c 31be
00000130: c951 c7bc 9095 9c3d 7cb5 5d3d d6f6 0ebe
00000140: a263 c33d 081e 46bd b7e2 3a3c f364 7b3d
00000150: c1c1 e23d d181 1e3d 63ca dfbd a6f5 86be
00000160: cc00 3e3d 8845 613e 69b1 e3bd ce6e 5b3d
00000170: c3fe 31be 8513 75be 4f54 813e 4fd4 5dbe
00000180: 1e6e 203e 859b fc3b 4bb5 8d3d 087f a9bd
00000190: d508 e23d ac9c 563e e613 f03c d229 803e
000001a0: 8b08 193e 33e8 953d 5e23 d73d 7553 063e
000001b0: 40ad 253e 10f8 9d3d 1562 27be b4f2 993d
000001c0: 354f 3cbc c185 a73d 38be ab3c 9383 f93d
000001d0: de5b 29be d823 18be 4ff9 29bc 7dee 123e
000001e0: 03ba 1fbe a07b c13c a578 c5bc 753f 25be
000001f0: dc23 35be 5f57 2ebe c7c8 26be c1dc 25be
00000200: b85d c7bc e618 f63d 279b c6bd 3b43 d5bd
00000210: 1fe6 8ebd 4ce4 983d 193b 193e b687 b4bd
00000220: e946 b7bd 6d07 813d 8b20 38be 8daa e93d
00000230: 492d 98bd 5e71 b13d b879 183e 6bd4 2f3d
00000240: de04 40be 4823 67bd 5b21 283e afcf 35be
00000250: 227c 243e f2e2 15be 1555 2bbd 5bb2 093e
00000260: 2306 3abe 11d8 35be fd8b 1ebd 8b0e 12be
00000270: f930 80bc 1fab 003e 2bc6 c73d ed5d 33be
00000280: d2a8 4ebd 0d5f 15be 5bdf 7dbd 0770 9c3d
00000290: ba89 563c 6ac4 763e 5f73 963b c258 96bd
000002a0: 07ae eb39 0aad e9bd a9d1 28be 533e 26be
000002b0: 7826 df3d 9186 24be fdbf a73d cffd 79bd
000002c0: 9707 db3d ca30 72bd 2e60 9a3d ff5d 14be
000002d0: 6d81 abbd d73d 38bc d9d9 bf3b 4bda c2bc
000002e0: 3fcc d23c ef3c 793c 0fb2 9f3d f1f1 75be
000002f0: 8b54 41be 6335 dd3d 01f4 82bd 873b a6bd
00000300: 3545 323d 277b f93d f11d 02be 711d 4a3d
00000310: 2d2a cb3d b478 b5bd 9075 b8bc 9607 12be
00000320: e9bd f3bd fcf5 29be a787 533e 48cf 033e
00000330: 7774 a33d cb0c 123e 00b0 003e bd42 c43d
00000340: b033 813e a82b df3d 689e 2bbe 971b 7e3e
00000350: 5089 1c3d 8239 c9bd 4d11 a53c d4ae 09be
00000360: e0f3 82bc e7e2 bf3c f2a3 efbd dd9b 80bd
00000370: 676e 19bc cc58 853e a4f1 fdbd c1e2 923d
00000380: 8500 b33d d325 81bd 1d97 b03b a7c7 60be
00000390: f0ac a8bb 321e 8d3e 8799 ec3d df98 ce3c
000003a0: 194e e7bd e8dc 563d 695a 393e a9d9 053e
000003b0: c934 dbbd 7136 1f3e 2be5 d4bd 345b 693d
000003c0: dbdf 4e3e c164 afbd 8ca1 2abd 3f6d bd3d
000003d0: eabc 0bbc 11ed 253d cf8e db3d 6f3e 87bd
000003e0: 300d 263d 003e 04be b945 f13c bf65 23be
000003f0: 58b8 773e 6d9a 51bd 61f8 a53b 15d7 583c

AbundanceEstNet.Encoder_4.layers.0.0.conv2d.bias f4 [16]
-0.21434195 0.022149025 -0.13004123 0.0877003 0.016104266 -0.1615363 -0.15928964 0.08802856
0.04509419 -0.13349843 0.11231264 0.031922974 -0.13575715 0.029084975 -0.11900611 -0.101611055
00000000: 757c 5bbe df71 b53c 8729 05be 379c b33d
00000010: 18ed 833c c669 25be d31c 23be 5148 b43d
00000020: afb4 383d d0b3 08be 2b04 e63d aac1 023d
00000030: ec03 0bbe 9d43 ee3c 7ab9 f3bd 7519 d0bd

SpectralMeanEstNet.SpectralGenMean.layers.0.0.weight f4 [18, 16]
0.059515253 0.18379067 -0.19696555 0.14253253 0.18557283 0.18694519 -0.0738997 -0.0029525482
0.20595321 -0.18090339 -0.20171085 -0.2397374 -0.06209096 -0.05782376 -0.4143066 -0.22803207
0.04882182 0.29211578 -0.06589345 -0.3046432 0.07476131 0.19225284 -0.35455853 0.037495263
0.051781867 0.06898117 0.089143984 -0.09297071 0.055361036 -0.17713994 0.15611766 -0.019909205
0.034822237 -0.25436002 -0.24553116 0.026480623 0.15408216 0.055075835 -0.11317329 0.14096318
-0.26060018 -0.24518582 -0.22111486 0.25568652 -0.104522616 -0.02960912 -0.008686253 -0.24339432
0.07251104 -0.263417 -0.15874097 0.23589793 -0.20409612 -0.12341395 0.06988491 -0.24730352
0.14192012 0.014811833 0.29832816 0.27834496 0.20649818 -0.14888303 -0.19630304 0.08494857
0.3025717 -0.03715093 -0.16426204 0.12642112 -0.26897794 -0.34638432 -0.10615202 -0.03769899
-0.46815458 0.16639844 0.23854773 -0.08191329 0.10558453 0.29957092 -0.18690015 0.06405993
-0.25526118 -0.12900434 0.2530844 -0.061994854 0.24461617 0.15786152 -0.297411 -0.0591074
-0.18625344 -0.35741088 0.2921137 0.005992381 -0.3512971 0.1302746 -0.21082026 0.35517782
-0.030737089 0.28488788 0.0687241 -0.29642048 -0.19310775 -0.0037658676 0.3469206 0.20709129
-0.037969142 0.19389619 0.09787752 0.25240478 -0.20727068 -0.05745041 -0.32118234 -0.14330532
-0.17097914 -0.37171426 0.1062769 -0.07599076 0.30222246 -0.3503525 0.043736715 0.25427356
0.10564083 0.26056755 0.2799589 -0.39331385 0.04726967 -0.24465263 0.13565283 -0.15874247
0.04382549 0.073133096 0.08581214 0.20364946 -0.059813216 -0.34255967 0.15694073 -0.24250256
0.13202177 -0.24873137 0.0927069 -0.3245695 -0.046064403 -0.20353305 -0.02655698 -0.12852737
0.3091091 0.08697626 0.13323842 0.3073064 -0.27307913 0.12512131 -0.25897768 0.27488926
0.12991042 0.08355544 0.12569475 -0.09218488 -0.10234015 0.042118706 0.1194748 0.096796624
-0.22289385 -0.023789398 -0.03730523 -0.16394153 -0.20016901 -0.31910023 -0.13502339 -0.30924386
0.15376312 -0.048063174 -0.1784378 0.02917652 0.25093892 0.14175071 -0.07283129 0.20771526
0.30140823 -0.083640344 0.30423656 -0.25005686 0.056545902 0.11710881 0.30101842 0.18914373
0.018006543 -0.18333377 -0.24753417 -0.0056043505 0.3728549 0.07976182 0.07406481 0.18496153
0.16334936 -0.06319905 -0.05289247 0.15238497 -0.002285409 0.30306813 0.23909229 -0.2465175
0.4707628 -0.067850515 -0.14270586 0.3122606 -0.28954902 0.021714933 0.22421207 0.25898314
-0.18621485 -0.13986509 -0.1508908 -0.19230004 0.024050664 0.12941872 0.057658065 0.15865532
-0.18932444 -0.017427532 0.1573574 -0.21265411 -0.12841098 -0.057973806 0.08148381 -0.15275879
-0.23597735 -0.025106119 -0.2111716 -0.10795158 -0.24834694 0.23011659 0.2684778 -0.26876944
-0.2541015 0.05752822 -0.26382035 -0.27838394 -0.19257179 -0.088038914 0.26796454 0.16568863
-0.23726524 -0.29166695 -0.15451041 0.24673402 -0.113440745 0.27703968 -0.03188866 0.17456959
0.13732173 0.21821187 0.13635828 0.2750153 0.097744554 -0.12043315 0.03687614 0.17476907
00000000: 44c6 733d 9f33 3c3e 56b1 49be 0cf4 113e
00000010: ce06 3e3e 8f6e 3f3e ba58 97bd 8a7f 41bb
00000020: 66e5 523e bd3e 39be 4a8d 4ebe b97d 75be
00000030: 1753 7ebd 9bd8 6cbd ff1f d4be 3d81 69be
00000040: 64f9 473d 3390 953e 25f3 86bd 32fa 9bbe
00000050: 751c 993d eedd 443e b288 b5be a294 193d
00000060: 3919 543d 0046 8d3d 1f91 b63d 6d67 bebd
00000070: 41c2 623d 2c64 35be 4fdd 1f3e a118 a3bc
00000080: c3a1 0e3d 7a3b 82be 856c 7bbe e4ed d83c
00000090: b7c7 1d3e 3397 613d 66c7 e7bd a758 103e
000000a0: 636d 85be fe11 7bbe ef6b 62be 58e9 823e
000000b0: f40f d6bd d38e f2bc c950 0ebc 5c3c 79be
000000c0: ab80 943d 98de 86be fe8c 22be 3a8f 713e
000000d0: 93fe 50be 74c0 fcbd d21f 8f3d 223d 7dbe
000000e0: 8253 113e 55ad 723c 78be 983e 3b83 8e3e
000000f0: 4274 533e cb74 18be aa03 49be 84f9 ad3d
00000100: aeea 9a3e 932b 18bd 4f34 28be 8a74 013e
00000110: 7ab7 89be 4959 b1be 3b66 d9bd 426a 1abd
00000120: f5b1 efbe 5a64 2a3e db45 743e 28c2 a7bd
00000130: b43c d83d 5c61 993e c162 3fbe da31 833d
00000140: 98b1 82be b719 04be 4794 813e 51ee 7dbd
00000150: a97c 7a3e 73a6 213e 4146 98be 9a1a 72bd
00000160: 39b9 3ebe 8ffe b6be ed8f 953e bc5b c43b
00000170: 37dd b3be b466 053e 44e1 57be ded9 b53e
00000180: 59cc fbbc d3dc 913e 39bf 8c3d 6dc4 97be
00000190: 0abe 45be c6cc 76bb 949f b13e bd0f 543e
000001a0: 8885 1bbd b98c 463e 0274 c83d 333b 813e
000001b0: c43e 54be 1f51 6bbd 0372 a4be a1be 12be
000001c0: 2815 2fbe 5551 bebe b4a7 d93d 0ba1 9bbd
000001d0: e7bc 9a3e 6761 b3be 4525 333d 2530 823e
000001e0: 385a d83d 1c69 853e c656 8f3e 6f60 c9be
000001f0: d79d 413d 3886 7abe 93e8 0a3e 638d 22be
00000200: 5b82 333d cec6 953d 46be af3d 7c89 503e
00000210: b4fe 74bd fb63 afbe 12b5 203e 9752 78be
00000220: b730 073e 70b3 7ebe 1ddd bd3d f92d a6be
00000230: 07ae 3cbd f86a 50be 068e d9bc ae9c 03be
00000240: 8c43 9e3e 9c20 b23d a76f 083e 4457 9d3e
00000250: 07d1 8bbe cd1f 003e b998 84be 49be 8c3e
00000260: 3d07 053e 1d1f ab3d 20b6 003e 6dcb bcbd
00000270: b697 d1bd aa84 2c3d 34af f43d 4f3d c63d
00000280: 493e 64be fce1 c2bc 5ecd 18bd 4ae0 27be
00000290: 1bf9 4cbe 1b61 a3be 9243 0abe 3655 9ebe
000002a0: 1474 1d3e e4dd 44bd 66b8 36be 9903 ef3c
000002b0: 117b 803e 1927 113e 9228 95bd 4fb3 543e
000002c0: 2e52 9a3e a14b abbd e5c4 9b3e 7407 80be
000002d0: ad9c 673d bed6 ef3d 161f 9a3e e5ae 413e
000002e0: 7582 933c d9bb 3bbe 9979 7dbe b3a4 b7bb
000002f0: d6e6 be3e 2a5a a33d 4baf 973d 8e66 3d3e
00000300: 0e45 273e 816e 81bd c6a5 58bd ce0a 1c3e
00000310: cdc6 15bb bf2b 9b3e 9cd4 743e 156f 7cbe
00000320: d207 f13e 36f5 8abd 7c21 12be 9fe0 9f3e
00000330: c53f 94be 84e3 b13c d997 653e 7099 843e
00000340: 1baf 3ebe cb38 0fbe 1e83 1abe 4dea 44be
00000350: e605 c53c 5786 043e dd2a 6c3d 8a76 223e
00000360: 44de 41be 2fc4 8ebc 4c22 213e 00c2 59be
00000370: 2b7e 03be f175 6dbd fce0 a63d cd6c 1cbe
00000380: 0ca4 71be 59ab cdbc 5e3d 58be b815 ddbd
00000390: a94e 7ebe afa3 6b3e ec75 893e 269c 89be
000003a0: 9819 82be b6a2 6b3d 7613 87be 5788 8ebe
000003b0: 8a31 45be bf4d b4bd a632 893e 48aa 293e
000003c0: a9f5 72be 5f55 95be fa37 1ebe d8a7 7c3e
000003d0: 9f53 e8bd 25d8 8d3e af9d 02bd 5fc2 323e
000003e0: 119e 0c3e ef72 5f3e 81a1 0b3e cece 8c3e
000003f0: 4c2e c83d a8a5 f6bd 6f0b 173d aaf6 323e

SpectralMeanEstNet.SpectralGenMean.layers.0.0.bias f4 [18]
-0.010037314 -0.0367024 -0.01498107 -0.024172684 0.17598924 -0.056910444 -0.047082093 -0.05784872
-0.039741185 -0.019240415 -0.051554605 -0.026299218 -0.19706734 0.094448954 -0.013429622 -0.047485687
-0.026462682 -0.010590948
00000000: 8c73 24bc 4155 16bd 2973 75bc cb05 c6bc
00000010: 8636 343e ed1a 69bd 27d9 40bd c8f2 6cbd
00000020: a7c7 22bd 139e 9dbc ec2a 53bd 7571 d7bc
00000030: 05cc 49be 746e c13d eb07 5cbc 5a80 42bd
00000040: 44c8 d8bc a885 2dbc

SpectralMeanEstNet.SpectralGenMean.layers.1.0.weight f4 [22, 18]
-0.19958021 -0.023356592 -0.3173369 -0.20074834 -0.1494582 -0.11994103 -0.27622342 -0.14772776
-0.20054874 -0.24970618 0.07139468 -0.17561169 0.042593975 0.19449112 -0.1823348 -0.10773866
0.090282865 -0.08010452 0.32536492 0.19765185 0.22192301 -0.1412838 0.012790455 0.33112216
0.11171311 -0.2060959 0.1715191 0.15174308 0.01123775 0.22313474 0.2003865 -0.11216486
0.039706264 -0.07669902 0.2465632 0.010405642 -0.0032049268 0.13301088 0.26720873 0.22973578
-0.2500138 -0.10807548 0.3281651 -0.07593669 -0.025881335 -0.00664846 0.3165169 0.094783254
0.2739067 -0.30636683 0.21878865 0.2442217 0.28131998 0.20204204 -0.014306518 -0.15839979
0.10536037 0.22524068 0.003605286 0.17636497 0.075302 -0.028948367 0.14007358 0.23037808
0.1313965 0.08867601 0.12186517 0.005714106 -0.09470517 0.041589603 0.13991702 -0.07886572
-0.11440975 -0.3031253 -0.26045784 -0.079157956 -0.06217428 -0.024580574 -0.18713334 -0.13793291
-0.13432577 -0.13551249 -0.24732135 -0.04218885 0.020396596 -0.062916964 -0.14242135 0.03914138
-0.01866271 -0.13106823 -0.07470101 -0.037042562 0.0987536 -0.19890805 -0.18675084 0.07600563
0.019339854 0.054867033 0.19259724 0.21963693 0.33054277 -0.051124338 -0.15292025 0.17282292
0.2750235 0.31031254 0.16736962 0.28119668 -0.027151255 -0.122249864 -0.24137866 -0.24894847
-0.1172948 -0.06868771 0.020394295 0.024165053 -0.11606085 -0.022202086 0.046288405 0.019351952
-0.059333716 -0.0018879751 -0.016712263 -0.024262344 -0.18624783 0.024765028 0.1164671 -0.08387299
-0.015001953 -0.01741418 -0.1785844 -0.06628302 -0.24250646 0.16335355 0.025118321 0.10134914
-0.16418517 0.003994852 -0.12283567 0.08781673 -0.12263953 -0.15247862 0.20671456 -0.16300748
0.3416983 0.23114412 0.25876683 0.28279153 -0.013758854 0.052006487 0.1965367 0.26048055
-0.055185206 -0.062302273 0.13268659 0.2048905 -0.25924325 0.32918212 0.26416215 0.30834702
-0.005568307 -0.057328433 0.18523341 0.29977176 0.33511192 -0.036348492 0.31154972 -0.0031361752
-0.029044077 0.22156717 0.27759084 0.14926419 -0.057479225 0.36738676 -0.109987184 0.07848633
0.0008246504 -0.13426422 0.04932574 0.2185732 0.1587241 0.05491109 0.2869835 0.05866591
-0.105022594 0.056214634 0.08459856 0.24201193 0.34876758 0.1467691 0.33117074 0.32862765
0.14083882 0.16697836 0.15778354 0.13047527 0.3473231 0.07138944 -0.3205334 -0.29662973
0.035933826 -0.2561393 -0.021286456 -0.114169694 -0.32617015 -0.14176498 -0.0737654 -0.07466448
-0.0011773385 -0.18862459 -0.14021032 -0.038144648 -0.24152058 -0.11248468 -0.12967505 -0.059700295
-0.14372018 0.02128524 -0.03182301 -0.08636529 -0.110156775 0.028939925 -0.04912803 -0.22221832
-0.24202703 -0.072574794 -0.07025465 -0.18563561 -0.22800381 0.07825584 -0.01769549 -0.14246063
-0.20480622 0.09451915 -0.118460275 0.29253525 -0.05332499 0.17636988 0.11298156 0.18220297
0.24442145 -0.014208814 -0.13225903 0.06264319 0.12647724 0.020756513 0.12158684 0.28013116
-0.022987554 0.15529467 0.17810327 0.2461084 -0.06858321 -0.26402387 -0.14534017 -0.049049906
00000000: c15e 4cbe 5356 bfbc fb79 a2be f990 4dbe
00000010: 920b 19be a5a3 f5bd 286d 8dbe f245 17be
00000020: a65c 4dbe fab2 7fbe 6037 923d 8dd3 33be
00000030: 0577 2e3d ae28 473e f9b5 3abe 16a6 dcbd
00000040: 39e6 b83d d70d a4bd 3b96 a63e 3f65 4a3e
00000050: c93f 633e b3ac 10be 0e8f 513c d888 a93e
00000060: d8c9 e43d ce0a 53be b4a2 2f3e 8a62 1b3e
00000070: 8a1e 383c 6f7d 643e 1e32 4d3e b1b6 e5bd
00000080: 09a3 223d 6014 9dbd 107b 7c3e 6d7c 2a3c
00000090: c009 52bb 0134 083e 95cf 883e db3f 6b3e
000000a0: cf01 80be ad56 ddbd 4205 a83e b284 9bbd
000000b0: 1805 d4bc 53db d9bb 810e a23e b91d c23d
000000c0: 803d 8c3e 1ddc 9cbe 220a 603e 4115 7a3e
000000d0: 2c09 903e 1ce4 4e3e e365 6abc 8e33 22be
000000e0: 2dc7 d73d 7ea5 663e a946 6c3b 0599 343e
000000f0: ef37 9a3d 2025 edbc 736f 0f3e 3be8 6b3e
00000100: ce8c 063e c59b b53d 7294 f93d 653d bb3b
00000110: c9f4 c1bd dc59 2a3d 6846 0f3e 5a84 a1bd
00000120: a94f eabd 3d33 9bbe bb5a 85be 911d a2bd
00000130: 75aa 7ebd 335d c9bc e29f 3fbe 493e 0dbe
00000140: b28c 09be c9c3 0abe cf41 7dbe 37ce 2cbd
00000150: c316 a73c 9cda 80bd e7d6 11be b652 203d
00000160: 8ae2 98bc c036 06be d8fc 98bd f1b9 17bd
00000170: 543f ca3d 8dae 4bbe 9d3b 3fbe d7a8 9b3d
00000180: 9d6e 9e3c 41bc 603d 3638 453e 81e8 603e
00000190: e73c a93e c167 51bd 2097 1cbe 7ef8 303e
000001a0: e1cf 8c3e 49e1 9e3e f162 2b3e 03f9 8f3e
000001b0: 4f6c debc 235e fabd f82b 77be 59ec 7ebe
000001c0: 4238 f0bd 24ac 8cbd f011 a73c caf5 c53c
000001d0: 50b1 edbd 26e1 b5bc e998 3d3d fc87 9e3c
000001e0: e907 73bd ef75 f7ba 28e8 88bc d3c1 c6bc
000001f0: c0b7 3ebe 07e0 ca3c 4e86 ee3d 9ac5 abbd
00000200: c0ca 75bc 2fa8 8ebc d4de 36be 64bf 87bd
00000210: 9d53 78be 2746 273e f0c4 cd3c 2390 cf3d
00000220: 2820 28be 3fe7 823b 4591 fbbd 42d9 b33d
00000230: 6f2a fbbd 5b23 1cbe fbac 533e 6feb 26be
00000240: 14f3 ae3e 0bb1 6c3e 167d 843e 0dca 903e
00000250: d16c 61bc c104 553d eb40 493e b55d 853e
00000260: e209 62bd ab30 7fbd fede 073e d1ce 513e
00000270: 88bb 84be 8f8a a83e 4340 873e a9df 9d3e
00000280: 5876 b6bb 38d1 6abd d4ad 3d3e af7b 993e
00000290: ca93 ab3e 28e2 14bd 7283 9f3e 4a88 4dbb
000002a0: d8ed edbc 81e2 623e 6320 8e3e b6d8 183e
000002b0: 566f 6bbd 1e1a bc3e f640 e1bd 71bd a03d
000002c0: 5a2d 583a 8f7c 09be ca09 4a3d a7d1 5f3e
000002d0: 9288 223e 73ea 603d 80ef 923e aa4b 703d
000002e0: 1616 d7bd 5141 663d 0342 ad3d fad1 773e
000002f0: aa91 b23e a44a 163e 368f a93e e241 a83e
00000300: 0d38 103e 60fc 2a3e 0292 213e 4f9b 053e
00000310: 55d4 b13e a034 923d f41c a4be dadf 97be
00000320: 592f 133d b124 83be ef60 aebc cdd1 e9bd
00000330: c6ff a6be d72a 11be 5012 97bd b1e9 98bd
00000340: ed50 9aba ce26 41be 4b93 0fbe 903d 1cbd
00000350: 2c51 77be 5e5e e6bd 89c9 04be 4c88 74bd
00000360: 622b 13be 625e ae3c d858 02bd 49e0 b0bd
00000370: e099 e1bd 6c13 ed3c 793a 49bd 338d 63be
00000380: efd5 77be 18a2 94bd ace1 8fbd 4317 3ebe
00000390: d579 69be 9944 a03d 22f6 90bc 33e1 11be
000003a0: b9b8 51be 4293 c13d 4d9b f2bd 2ec7 953e
000003b0: 4e6b 5abd 4e9a 343e e062 e73d 6a93 3a3e
000003c0: 9e49 7a3e 16cc 68bc e96e 07be 134b 803d
000003d0: 4083 013e 9009 aa3c 8502 f93d 5a6d 8f3e
000003e0: 6550 bcbc 9105 1f3e b460 363e d703 7c3e
000003f0: 5b75 8cbd 232e 87be 0ed4 14be 8ee8 48bd

SpectralMeanEstNet.SpectralGenMean.layers.1.0.bias f4 [22]
0.16698933 0.017741071 0.049872793 0.14218976 0.0871193 0.008385822 -0.0424315 -0.008764953
-0.06917949 -0.11012345 0.20195092 -0.06206368 0.11591458 -0.022379525 0.12017082 -0.04975989
-0.06963598 0.07800776 -0.07779197 0.117723554 -0.061632667 0.13615093
00000000: 40ff 2a3e b955 913c 6a47 4c3d 319a 113e
00000010: 9b6b b23d b064 093c a7cc 2dbd e19a 0fbc
00000020: faad 8dbd 6788 e1bd 39cc 4e3e 7c36 7ebd
00000030: a064 ed3d 4455 b7bc 1e1c f63d 07d1 4bbd
00000040: 4f9d 8ebd 88c2 9f3d 6551 9fbd 0c19 f13d
00000050: 8972 7cbd 266b 0b3e

SpectralMeanEstNet.SpectralGenMean.layers.2.0.weight f4 [26, 22]
0.0051722475 0.111541405 0.18666378 0.19461447 -0.111605614 0.177763 0.1773748 -0.08819681
0.0632153 0.09875165 0.10162321 -0.23054297 -0.19139953 0.23281817 0.055676527 0.111246996
0.01247055 0.22263932 0.14413147 -0.103073314 0.0031819264 -0.15022026 -0.06948032 -0.05179482
-0.25123498 0.20990098 -0.058108747 -0.16478609 -0.14272767 0.019840712 -0.1823223 -0.04956232
-0.0019029605 -0.08890848 0.098561145 0.03656895 0.02645179 -0.35331288 0.10591809 -0.23368268
-0.21289296 0.22252193 -0.18535432 0.081277765 0.14387472 -0.02487541 -0.13676503 -0.050993174
0.07297589 -0.23190573 -0.012931868 -0.16807145 -0.2084323 -0.3583214 -0.20549405 0.10770812
0.065591484 -0.28120032 0.1768762 -0.11293232 0.15971255 -0.12536083 -0.19627193 -0.028592806
0.020203521 -0.056591325 -0.00255564 0.046471946 0.24295075 0.10166544 0.14803186 0.08794086
-0.1713687 0.16303298 0.09581084 0.31987965 0.2104967 -0.02949184 0.059994582 0.008029697
0.1794275 0.014292473 0.113495156 -0.047526184 0.331434 -0.15991424 -0.12468346 0.07047483
-0.0826121 0.25946534 -0.012669252 -0.13290401 -0.054457568 -0.053842977 0.1847673 0.08114588
0.10513714 0.31288186 0.21322297 -0.17432675 0.058908965 0.034358803 -0.1805356 0.007319644
0.057741296 0.19323717 -0.016166756 -0.3385078 0.1368668 -0.13956857 0.13432519 -0.23627806
-0.052244663 -0.032572985 0.13009313 -0.2034365 -0.022745565 -0.1122564 0.0093112495 -0.15621807
-0.26161626 0.26933578 0.12806024 -0.31003237 -0.023286203 -0.46758994 0.044934567 -0.042189807
-0.001114384 0.044307884 0.17578247 -0.12309634 -0.114871375 -0.010434359 0.15688793 0.18750863
-0.100648805 0.11950017 -0.053840857 -0.14982857 0.15330371 -0.045174684 0.18659486 -0.15054454
0.18471977 0.16286747 -0.16437997 0.35909966 -0.08035609 -0.06520097 0.3934937 -0.088594034
0.014159903 -0.14663659 -0.022058658 0.31961694 -0.0072126216 -0.07390655 0.27751148 0.0257632
-0.05985587 0.13673954 0.15502755 -0.022637775 0.07143088 -0.013815576 -0.0063966345 0.29054543
0.3224086 0.2518643 -0.122053474 0.021818835 0.026337873 -0.1779053 -0.06875728 0.24237493
0.12753709 -0.20090911 -0.38593426 0.09769456 -0.016120493 -0.091492034 -0.11814228 -0.06900788
-0.11649509 -0.2934488 -0.13940114 0.16325362 0.07502448 0.00047261236 -0.13717204 -0.063131385
-0.28813258 -0.22637083 -0.22775035 -0.06640553 0.21015066 -0.037291776 -0.08574495 0.1984408
0.09600555 0.12835792 0.10974906 0.061632276 -0.17090109 0.073284 0.0881163 0.19277157
0.15382661 -0.15184994 -0.08830289 -0.025508964 0.034423005 0.1482549 -0.066323526 0.01670788
0.16021626 -0.11090786 0.21016103 0.117168024 0.25868607 -0.32034636 -0.34385604 0.17165634
0.22282022 0.020585058 -0.16716571 -0.18202148 0.0013619588 -0.30612922 -0.18914936 0.13091104
0.2275616 -0.24296923 -0.04024517 -0.3483638 -0.17725044 -0.074649364 -0.18810566 0.2283748
-0.11814999 -0.05053893 -0.20542431 -0.20491882 0.019870942 -0.020954845 -0.18349648 -0.10780382
0.063545346 0.06791822 0.021882216 -0.30964863 0.035506397 -0.16300182 0.14331707 0.04389762
00000000: f57b a93b d26f e43d ca24 3f3e 0449 473e
00000010: 7c91 e4bd 8107 363e bda1 353e 87a0 b4bd
00000020: 0677 813d 4e3e ca3d d41f d03d 7513 6cbe
00000030: 3dfe 43be e367 6e3e 120d 643d 77d5 e33d
00000040: 4751 4c3c 90fb 633e 3397 133e 1a18 d3bd
00000050: de87 503b 57d3 19be b34b 8ebd ce26 54bd
00000060: dfa1 80be 48f0 563e 7003 6ebd afbd 28be
00000070: 3427 12be fd88 a23c b2b2 3abe dc01 4bbd
00000080: c26c f9ba a615 b6bd 6dda c93d 53c9 153d
00000090: 6db1 d83c 6de5 b4be 95eb d83d 834a 6fbe
000000a0: 9d00 5abe cadc 633e 86cd 3dbe f574 a63d
000000b0: e553 133e 84c7 cbbc 220c 0cbe 38de 50bd
000000c0: 6274 953d b278 6dbe 30e0 53bc ec1a 2cbe
000000d0: 476f 55be e775 b7be 086d 52be 1396 dc3d
000000e0: d454 863d 7df9 8fbe 091f 353e 0f49 e7bd
000000f0: b08b 233e 975e 00be 82fb 48be 763b eabc
00000100: db81 a53c 4ecc 67bd 867c 27bb 5e59 3e3d
00000110: 15c8 783e f835 d03d aa95 173e 561a b43d
00000120: 477b 2fbe 1ef2 263e 7938 c43d 44c7 a33e
00000130: 728c 573e df98 f1bc e1bc 753d fe8e 033c
00000140: d8bb 373e fa2a 6a3c 2670 e83d d1aa 42bd
00000150: b8b1 a93e 8fc0 23be 0b5a ffbd 1c55 903d
00000160: 8830 a9bd a4d8 843e b292 4fbc fd17 08be
00000170: e60e 5fbd 748a 5cbd a433 3d3e d02f a63d
00000180: 2452 d73d 0d32 a03e 1f57 5a3e b682 32be
00000190: 874a 713d d1bb 0c3d 53de 38be a0d9 ef3b
000001a0: 2382 6c3d f7df 453e 2570 84bc e550 adbe
000001b0: cf26 0c3e 10eb 0ebe 8b8c 093e e0f2 71be
000001c0: 80fe 55bd 406b 05bd 2237 053e a851 50be
000001d0: e854 babc afe6 e5bd 368e 183c a1f7 1fbe
000001e0: 91f2 85be 61e6 893e 3922 033e 90bc 9ebe
000001f0: b5c2 bebc f367 efbe 4f0d 383d 38cf 2cbd
00000200: 8610 92ba 2f7c 353d 5200 343e ef19 fcbd
00000210: af41 ebbd e0f4 2abc 3ba7 203e 4302 403e
00000220: f620 cebd 81bc f43d 3b88 5cbd a96c 19be
00000230: a6fb 1c3e 1709 39bd b912 3f3e 5928 1abe
00000240: 2e27 3d3e bbc6 263e 3953 28be e9db b73e
00000250: bc91 a4bd 1688 85bd 0278 c93e ca70 b5bd
00000260: f0fe 673c e727 16be 5cb4 b4bc d5a4 a33e
00000270: db57 ecbb 515c 97bd fc15 8e3e 590d d33c
00000280: 6e2b 75bd 7305 0c3e 8bbf 1e3e db72 b9bc
00000290: 5a4a 923d ba5a 62bc dc9a d1bb 5fc2 943e
000002a0: bd12 a53e 5cf4 803e 2cf7 f9bd 6abd b23c
000002b0: 86c2 d73c cf2c 36be 9ed0 8cbd 2231 783e
000002c0: 1599 023e 1ebb 4dbe 2d99 c5be 1614 c83d
000002d0: 200f 84bc 2d60 bbbd 94f4 f1bd 0154 8dbd
000002e0: fa94 eebd ec3e 96be 2cbf 0ebe f52b 273e
000002f0: 6fa6 993d f5c8 f739 d476 0cbe 074b 81bd
00000300: 1d86 93be c1cd 67be 6337 69be 9fff 87bd
00000310: bc31 573e 43bf 18bd 0c9b afbd 1134 4b3e
00000320: 8f9e c43d 4270 033e 1dc4 e03d 2072 7c3d
00000330: b200 2fbe ec15 963d 5276 b43d e965 453e
00000340: b984 1d3e 8d7e 1bbe 25d8 b4bd 2df8 d0bc
00000350: 23ff 0c3d 22d0 173e a1d4 87bd f7de 883c
00000360: bb0f 243e a923 e3bd 7434 573e caf5 ef3d
00000370: 8072 843e 7004 a4be e60d b0be aec6 2f3e
00000380: fc2a 643e ffa1 a83c 7d2d 2bbe d763 3abe
00000390: c183 b23a f8bc 9cbe 5fb0 41be 8b0d 063e
000003a0: e805 693e edcc 78be 1fd8 24bd bd5c b2be
000003b0: 2481 35be c4e1 98bd c59e 40be 15db 693e
000003c0: 9ff8 f1bd e901 4fbd c05a 52be 3dd6 51be
000003d0: 63c8 a23c 7fa9 abbc 80e6 3bbe 40c8 dcbd
000003e0: 1024 823d b518 8b3d 5542 b33c 448a 9ebe
000003f0: 286f 113d f3e9 26be b6c1 123e fecd 333d

SpectralMeanEstNet.SpectralGenMean.layers.2.0.bias f4 [26]
-0.030332364 -0.14734964 0.12787014 -0.060923718 0.049541816 0.15025507 -0.053779222 -0.08894084
0.18532938 0.11116072 0.23733906 0.12189541 -0.04465336 0.08790983 0.07729419 0.0041522007
0.17970447 0.034511477 -0.15410101 0.06483759 -0.08279643 -0.09872409 -0.11706334 -0.0075062057
0.042771906 -0.026420884
00000000: 947b f8bc d3e2 16be 64f0 023e 268b 79bd
00000010: 5cec 4a3d 77dc 193e 9a47 5cbd 9d26 b6bd
00000020: fcc6 3d3e 3ba8 e33d 0309 733e 4da4 f93d
00000030: 71e6 36bd 120a b43d 6b4c 9e3d 2f0f 883b
00000040: 7304 383e e85b 0d3d a8cc 1dbe 92c9 843d
00000050: 2d91 a9bd db2f cabd e8be efbd 9ef6 f5bb
00000060: 9831 2f3d 9c70 d8bc

SpectralMeanEstNet.SpectralGenMean.layers.3.0.weight f4 [30, 26]
-0.34702885 0.11133594 0.20423809 -0.047109682 -0.1321277 0.17479298 -0.20963362 0.0024350914
0.21833515 -0.15683383 0.1860406 -0.16344862 0.0310186 0.027142566 -0.21712731 0.034633227
-0.026078828 0.072133265 -0.023898713 0.12759988 -0.00823232 -0.13419043 -0.0586426 -0.1303561
0.21149813 0.1513096 0.103527315 0.071772456 -0.08449047 -0.08390783 -0.027716037 -0.24058646
-0.16798414 0.07797602 -0.2322273 0.115168795 0.061237358 -0.07484054 0.16686182 -0.14339347
-0.11121323 0.14612807 0.17586523 0.1131329 -0.2125058 -0.1712673 -0.13410598 -0.1105589
0.055553313 -0.09883947 -0.1643017 -0.16735326 0.17032544 0.10105966 0.13818757 0.1614503
0.07737897 -0.027193006 -0.09568583 -0.091755375 0.14117943 0.06148476 -0.15541932 -0.16060364
0.04392627 0.10947889 -0.12792206 0.13301484 0.062478777 0.12128929 -0.06377815 -0.14502293
0.09604692 0.05335999 -0.13947974 -0.12512614 -0.004966728 -0.076754026 -0.1573486 0.07388261
0.05746743 0.09965065 -0.14549549 0.10102889 -0.068425775 0.10045013 0.08387178 0.123209864
-0.16401592 0.16846265 -0.08827 0.022218116 -0.15901531 0.16630755 -0.22054465 0.07291566
-0.022803599 -0.1739502 0.01523262 -0.09960768 0.17427973 -0.014639994 0.12988932 -0.08211492
-0.10934333 0.12734379 0.022575017 -0.14890426 0.04411487 0.109730385 -0.0374005 -0.15206102
0.038283624 -0.17592384 0.06569496 0.076539636 -0.004069672 0.103012614 0.14514418 0.1837809
-0.10932273 0.028123645 0.08255869 -0.112354234 0.039285146 -0.06265104 -0.0645809 -0.041852295
-0.19541581 0.12235208 0.16372322 -0.04579307 -0.19741143 -0.019688224 0.13632105 -0.04910794
0.08763838 -0.12575378 -0.06799463 0.15462409 -0.2116472 0.020897679 -0.003607553 -0.045661844
-0.0043123574 0.1643473 -0.0077006696 -0.039880086 0.15798192 -0.08961135 -0.06906949 -0.04595229
-0.15455937 -0.21288788 -0.14377241 0.03866846 -0.11165894 0.03128123 -0.058276027 0.007900644
0.036654755 -0.15310778 -0.014112559 0.050557528 -0.097419426 0.044387817 0.15701331 -0.06644105
-0.11642137 0.14731318 0.058343016 -0.13105756 -0.021786183 0.011523632 -0.1956806 -0.12022461
-0.16658717 -0.06989551 0.12593205 0.25185177 0.06443704 -0.20988373 0.07927587 -0.0017455565
-0.0011744816 0.08986122 0.24173373 -0.010056115 0.19434692 0.14382914 0.006835044 0.13195722
-0.17752513 -0.17497821 0.18488608 -0.13278545 0.082415536 0.16856581 -0.09052615 0.00064297026
-0.10981255 0.18901746 0.03627508 0.13745786 -0.27796265 -0.076348215 -0.101432055 0.05610421
0.14344043 0.16403422 -0.14444362 0.17986849 -0.0741397 -0.09683168 -0.002911747 0.06775304
0.11823948 0.029322594 -0.07081569 -0.03929557 0.1391361 -0.04001966 0.057216946 0.1847004
-0.10278199 -0.07116079 -0.173328 0.10452195 0.039420303 -0.08449401 -0.26417097 0.12728368
-0.24139325 0.13849764 0.21335903 -0.055254363 -0.15090647 -0.07574687 -0.12285268 0.061522998
-0.059016097 -0.101217955 -0.18663493 0.06493297 -0.18926316 -0.117133014 0.13235483 -0.110022195
-0.07800405 0.09885359 -0.22870906 -0.20086677 -0.1367865 -0.038187854 0.07494206 0.12008278
00000000: c4ad b1be 1904 e43d ca23 513e 15f6 40bd
00000010: 7c4c 07be eefc 323e 32aa 56be 0e96 1f3b
00000020: 4093 5f3e 0c99 20be 6d81 3e3e 135f 27be
00000030: b81a fe3c 165a de3c 9f56 5ebe 92db 0d3d
00000040: 44a3 d5bc 9bba 933d 3cc7 c3bc 8ba9 023e
00000050: dae0 06bc 3769 09be 3933 70bd 127c 05be
00000060: f792 583e e7f0 1a3e 2106 d43d 70fd 923d
00000070: 5709 adbd ded7 abbd be0c e3bc 4c5c 76be
00000080: 0904 2cbe e4b1 9f3d fecc 6dbe 9edd eb3d
00000090: 06d4 7a3d ff45 99bd d3dd 2a3e bdd5 12be
000000a0: c3c3 e3bd 99a2 153e 0416 343e 39b2 e73d
000000b0: 1f9b 59be b260 2fbe 1453 09be b46c e2bd
000000c0: df8b 633d 596c cabd b43e 28be a75e 2bbe
000000d0: cb69 2e3e 5ef8 ce3d 0b81 0d3e 3a53 253e
000000e0: de78 9e3d dec3 debc eff6 c3bd 3eea bbbd
000000f0: 5791 103e 72d7 7b3d 3e26 1fbe 4875 24be
00000100: 08ec 333d 7836 e03d 00fe 02be 0b35 083e
00000110: bfe9 7f3d 8566 f83d 1e9e 82bd e480 14be
00000120: 3fb4 c43d 0190 5a3d c7d3 0ebe 1121 00be
00000130: efbf a2bb 3731 9dbd fe1f 21be c44f 973d
00000140: f862 6b3d a415 cc3d c5fc 14be 3ce8 ce3d
00000150: d022 8cbd ccb8 cd3d f8c4 ab3d 7455 fc3d
00000160: caf3 27be 7981 2c3e e7c6 b4bd c402 b63c
00000170: e9d4 22be 874c 2a3e 75d6 61be ce54 953d
00000180: 9dce babc 0020 32be 3d92 793c 1dff cbbd
00000190: 6376 323e 96dc 6fbc b501 053e de2b a8bd
000001a0: 65ef dfbd 6966 023e 3eef b83c 5c7a 18be
000001b0: cbb1 343d 53ba e03d 4431 19bd e2b5 1bbe
000001c0: 4acf 1c3d 6125 34be 148b 863d d0c0 9c3d
000001d0: e25a 85bb 47f8 d23d ada0 143e 0f31 3c3e
000001e0: 98e4 dfbd 8f63 e63c 8814 a93d fa19 e6bd
000001f0: 76e9 203d 304f 80bd fe42 84bd 506d 2bbd
00000200: 151b 48be ba93 fa3d 0fa7 273e 8491 3bbd
00000210: 3926 4abe 3349 a1bc bf97 0b3e 6825 49bd
00000220: c07b b33d 99c5 00be c540 8bbd c755 1e3e
00000230: 0bba 58be 9c31 ab3c b26c 6cbb ea07 3bbd
00000240: ad4e 8dbb a94a 283e e655 fcbb 4d59 23bd
00000250: 03c6 213e 2886 b7bd 4e74 8dbd 7838 3cbd
00000260: d044 1ebe 48ff 59be 1339 13be d262 1e3d
00000270: 71ad e4bd bf20 003d d8b2 6ebd b471 013c
00000280: 4c23 163d 49c8 1cbe 5d38 67bc 6915 4f3d
00000290: d683 c7bd 00d0 353d 19c8 203e 3f12 88bd
000002a0: 546e eebd 44d9 163e 16f9 6e3d f433 06be
000002b0: f078 b2bc 9ecd 3c3c 7f60 48be 5238 f6bd
000002c0: d495 2abe 6125 8fbd 55f4 003e b7f2 803e
000002d0: 91f7 833d c3eb 56be 635b a23d 28cb e4ba
000002e0: 10f1 99ba 2909 b83d 0c89 773e 67c2 24bc
000002f0: e102 473e f247 133e 81f8 df3b cb1f 073e
00000300: 26c9 35be 7d2d 33be c752 3d3e e9f8 07be
00000310: 7ac9 a83d 849c 2c3e c665 b9bd 018d 283a
00000320: 67e5 e0bd cb8d 413e 2e95 143d c1c1 0c3e
00000330: 1f51 8ebe 745c 9cbd 9cbb cfbd 87cd 653d
00000340: 0ce2 123e 96f8 273e 07e9 13be 722f 383e
00000350: 8ed6 97bd b04f c6bd 02d3 3ebb 1bc2 8a3d
00000360: 8a27 f23d f035 f03c d107 91bd 64f4 20bd
00000370: b279 0e3e a8eb 23bd 515c 6a3d 1a22 3d3e
00000380: 5d7f d2bd c0bc 91bd e57c 31be 9b0f d63d
00000390: 2f77 213d 320b adbd 6b41 87be a756 023e
000003a0: cb2f 77be 53d2 0d3e ca7a 5a3e 6652 62bd
000003b0: 3a87 1abe 2d21 9bbd 309a fbbd 8aff 7b3d
000003c0: ddba 71bd 5c4b cfbd 3a1d 3fbe 94fb 843d
000003d0: 34ce 41be 6fe3 efbd 0688 073e 5153 e1bd
000003e0: 96c0 9fbd c073 ca3d b532 6abe 05b0 4dbe
000003f0: c311 0cbe de6a 1cbd 397b 993d f6ed f53d

SpectralMeanEstNet.SpectralGenMean.layers.3.0.bias f4 [30]
0.033626013 0.15119375 -0.04918286 -0.01542153 0.0044330214 0.10527166 -0.061581064 -0.012880497
-0.28140244 0.116198875 -0.1010412 0.007915953 0.016581053 -0.059943024 0.15713812 -0.15505846
0.12551518 0.0019669635 0.04319426 0.04273415 0.001324118 -0.15582986 -0.1310964 -0.1720723
0.076262034 0.084089056 0.085340545 -0.09362316 -0.030566525 0.027415188
00000000: 6ebb 093d 89d2 1a3e f773 49bd 96aa 7cbc
00000010: e142 913b ab98 d73d 6d3c 7cbd b808 53bc
00000020: fb13 90be adf9 ed3d b0ee cebd eab1 013c
00000030: fdd4 873c d186 75bd d1e8 203e a5c7 1ebe
00000040: 0d87 003e 2ce8 003b 77ec 303d 010a 2f3d
00000050: 078e ad3a dd91 1fbe 223e 06be b933 30be
00000060: 452f 9c3d e236 ac3d 06c7 ae3d 80bd bfbd
00000070: a666 fabc d195 e03c
