pths/net19.pth (torch_old, 34322 bytes, 28 tensors)

AbundanceEstNet.Encoder_0.layers.0.0.conv2d.weight f4 [4, 3, 1, 1]
0	0xbeb195d6	-0.34684628
1	0xbdce4ec8	-0.1007362
2	0xbed4157c	-0.4142264
3	0x3ebb5cbe	0.36594194
4	0xbeb2a21e	-0.3488931
5	0x3f0e3d5d	0.5556238
6	0xbf055043	-0.52075595
7	0xbf131040	-0.5744667
8	0xbef5c5fc	-0.48002613
9	0x3ebfe75c	0.374812
10	0xbdbba325	-0.09161977
11	0x3eaa35e0	0.33244228

AbundanceEstNet.Encoder_0.layers.0.0.conv2d.bias f4 [4]
0	0xbefdeb14	-0.49593413
1	0xbe96efcb	-0.29479823
2	0xbe3c5744	-0.18392664
3	0xbc821c5d	-0.015882665

AbundanceEstNet.Encoder_1.layers.0.0.conv2d.weight f4 [8, 7, 1, 1]
0	0xbec590be	-0.38586992
1	0x3e6475ef	0.22310613
2	0xbe570584	-0.20998198
3	0x3e80cacc	0.25154722
4	0x3ec9ea36	0.394365
5	0x3e4b95a5	0.19881304
6	0x3e6f8b4a	0.23392978
7	0x3ea3e524	0.32010758
8	0xbe83263f	-0.25615117
9	0x3e054519	0.1301464
10	0xbe8739fd	-0.2641143
11	0x3e651d25	0.22374399
12	0x3e6f546d	0.2337205
13	0xbed6cb45	-0.41951957
14	0x3ea81bc9	0.32833698
15	0x3e17ce10	0.148247
16	0x3e57253e	0.210103
17	0x39c7840e	0.00038054626
18	0x3e6d7978	0.23190868
19	0xbe0a9baa	-0.13535944
20	0xbecf5768	-0.40496373
21	0xbda0432a	-0.078253105
22	0xbe89628a	-0.26832992
23	0x3dbf830f	0.09351169
24	0xbe56fd3e	-0.20995042
25	0xbe9ff94c	-0.31244886
26	0xbe11e5f7	-0.14247881
27	0x3e85b6f6	0.2611615
28	0xbca13e96	-0.019683164
29	0x3d83c631	0.064342864
30	0xbddc7ea8	-0.10766345
31	0x3e450bf3	0.1924284
32	0x3ed8fd13	0.4238058
33	0x3eab2faf	0.33434817
34	0x3e705fc2	0.23474029
35	0x3dd58c8b	0.10427197
36	0x3e35f610	0.17769647
37	0x3db444d1	0.08802188
38	0x3e254dce	0.16142961
39	0xbe65d499	-0.22444381
40	0xbdd03a7f	-0.10167407
41	0x3ee30672	0.44340855
42	0x3d650181	0.055909637
43	0xbe670032	-0.22558668
44	0x3cc8c69f	0.024508772
45	0x3ee99c27	0.45626947
46	0xbe8601d2	-0.26173264
47	0xbe186463	-0.14882044
48	0xbd73c894	-0.059517458
49	0x3dad711c	0.084688395
50	0x3cdbba26	0.02682216
51	0xbcf7494d	-0.03018632
52	0xbe498a7d	-0.19681735
53	0x3e656e31	0.22405316
54	0x3ec976c3	0.3934842
55	0x3e948a3a	0.29011708

AbundanceEstNet.Encoder_1.layers.0.0.conv2d.bias f4 [8]
0	0xbe444a4c	-0.19168967
1	0xbe779a9a	-0.2418007
2	0x3e2bb699	0.16768874
3	0xbbb3b9be	-0.0054847887
4	0x3e016c08	0.12638867
5	0xbed745b7	-0.42045376
6	0xbd9fd627	-0.07804518
7	0x3e3436c2	0.17599013

AbundanceEstNet.Encoder_2.layers.0.0.conv2d.weight f4 [16, 11, 1, 1]
0	0x3d82b54b	0.06382235
1	0x396c1adf	0.00022516724
2	0x3df2c454	0.11853853
3	0xbd38960a	-0.045064963
4	0xbe5744a1	-0.21022274
5	0xbe085661	-0.13314201
6	0xbe0be0c7	-0.13659965
7	0x3e62b91c	0.22140926
8	0x3d891581	0.06693555
9	0xbc2b24f2	-0.01044582
10	0xbeb2e0b5	-0.34937063
11	0x3e815b0f	0.25264785
12	0x3e16e47a	0.14735594
13	0x3e3dd7f6	0.18539414
14	0xbe2a30d6	-0.16620192
15	0x3c4a0459	0.012330138
16	0x3ead194a	0.33808357
17	0x3e69bf1a	0.22826806
18	0x3e3efa14	0.18650085
19	0xbda93497	-0.08261984
20	0x3e4197f0	0.18905616
21	0xbe942fbc	-0.28942668
22	0x3e5240d1	0.20532538
23	0xbdf77e49	-0.12084634
24	0xbe502826	-0.20327815
25	0xbdc1ec8c	-0.09468946
26	0x3d6cce28	0.057813793
27	0x3eaaa9ea	0.3333276
28	0x3db96750	0.090529084
29	0x3c68a7ec	0.014200192
30	0x3ea406e1	0.32036498
31	0xbd0bd275	-0.034136254
32	0x3e88f8f4	0.26752436
33	0x3c89e30a	0.016831893
34	0xbd3a77c8	-0.04552439
35	0x3b9c44cd	0.004768944
36	0xbe65074c	-0.22366065
37	0x3d81e986	0.06343369
38	0x3dd43b2e	0.1036285
39	0x3e67e342	0.22645286
40	0xbd9aa6a0	-0.075513124
41	0x3e225546	0.15852842
42	0x3eb05b4c	0.34444654
43	0xbdbd7a1d	-0.09251807
44	0x3ed1ecfa	0.4100111
45	0xbdbfa028	-0.09356719
46	0x3d5ac1b0	0.05340737
47	0x3d76cc11	0.060253207
48	0x3d9cd0c5	0.07657007
49	0x3e96701a	0.29382402
50	0xbe1baa99	-0.15201797
51	0x3d612a94	0.054972246
52	0x3d900c13	0.07033553
53	0xbe25cb80	-0.1619091
54	0xbcf5b192	-0.029991899
55	0xbcde6d85	-0.027151832
56	0x3e188a4d	0.14896508
57	0xbcc3a79c	-0.023883633
58	0xbd0f8f56	-0.035048805
59	0xbd8095bd	-0.0627856
60	0x3c78f627	0.015195406
61	0xbe0474e1	-0.12935211
62	0x3dcd5f68	0.10027963
63	0x3eb29a53	0.34883365
64	0x3dd616b5	0.1045355
65	0xbd9964d0	-0.074899316
66	0xbe555f44	-0.20837122
67	0x3cf5ac35	0.029989341
68	0xbe4db7d7	-0.2008966
69	0xbe82c806	-0.2554323
70	0xbe6a2855	-0.22866948
71	0xbdc7d1aa	-0.09756787
72	0x3d6068a0	0.05478728
73	0x3e38104e	0.1797497
74	0x3d8f7b9b	0.07005998
75	0x3e33d653	0.17562227
76	0xbe77d4c4	-0.24202257
77	0x3e0575e7	0.13033257
78	0xbe81901a	-0.25305253
79	0x3dbfb6af	0.09361016
80	0x3d8cf099	0.06881828
81	0x3ead4e63	0.33848867
82	0xbe4072df	-0.1879382
83	0x3e48db17	0.19614826
84	0x3e91c034	0.28466952
85	0x3eac611e	0.33667845
86	0x3e1d745c	0.15376419
87	0x3ec3b65a	0.3822506
88	0x3e66b3a0	0.22529459
89	0x3e4ea431	0.20179822
90	0xbd000cf3	-0.03126235
91	0xbe58b592	-0.21163014
92	0x3d2c5354	0.042071655
93	0x3d2f612a	0.042817272
94	0xbe668f03	-0.22515492
95	0xbe0705c0	-0.13185787
96	0xbe7bbb8f	-0.24583267
97	0xbd6fe744	-0.05857016
98	0x3ea4039f	0.32034013
99	0xbdd82b08	-0.105550826
100	0xbdae8d21	-0.08523012
101	0x3e026d86	0.12737092
102	0x3e5b4b7f	0.21415518
103	0xbe897b04	-0.26851666
104	0xbe9c35cc	-0.30509794
105	0xbd48b3d0	-0.048999608
106	0xbe1fc79c	-0.15603489
107	0x3d4df119	0.050278757
108	0x3dc9ee00	0.09859848
109	0xbec9fe1b	-0.3945168
110	0xbe85f2d9	-0.2616184
111	0xbe88ea98	-0.2674148
112	0x3dcaf0dd	0.09909222
113	0x3e52a2a4	0.20569855
114	0xbe7f61e5	-0.24939688
115	0xbde8e6e1	-0.11372162
116	0x3dd33b5a	0.10314055
117	0xbe5d4483	-0.21608166
118	0x3e800721	0.2500544
119	0x3d6f9519	0.0584918
120	0xbdc9ce06	-0.09853749
121	0x3e65863a	0.22414485
122	0x3d4e988e	0.050438456
123	0xbe29849f	-0.16554497
124	0xbe791197	-0.24323116
125	0x3df06979	0.11738867
126	0xbd1f17ed	-0.038841177
127	0xbdfcc067	-0.12341385
128	0x3d55f1b1	0.052232448
129	0x3eb61665	0.3556396
130	0x3daa2a5a	0.08308859
131	0x3e03103f	0.12799166
132	0x3daaac57	0.083336525
133	0xbe2c4cdd	-0.16826196
134	0x3db1af09	0.086759634
135	0xbd7daa82	-0.061930187
136	0x3dacdf6f	0.08441054
137	0xbe15a99e	-0.14615485
138	0x3d5eb8e9	0.054375563
139	0xbca5369a	-0.020167638
140	0xbea9009a	-0.3300827
141	0xbe9ffb94	-0.31246626
142	0x3d0258e3	0.03182305
143	0xbdb2dc3a	-0.08733411
144	0x3e737a5a	0.23777142
145	0xbea4be8e	-0.32176632
146	0xbe3f408a	-0.18676963
147	0xbea6bdb4	-0.32566607
148	0x3e2d580e	0.16928121
149	0x3d0dd334	0.034625247
150	0xbe04bf37	-0.12963568
151	0xbdf150f4	-0.11783019
152	0xbea2196f	-0.3166003
153	0xba5a4936	-0.00083269493
154	0x3dd06bbd	0.101767994
155	0xbe623552	-0.22090653
156	0x3d9f06d7	0.077649765
157	0x3c21e2e5	0.009880756
158	0xbe6273fa	-0.22114554
159	0x3e1b4aba	0.15165225
160	0x3db590ec	0.08865532
161	0xbb65f20b	-0.0035086896
162	0xbdba294e	-0.090899095
163	0x3df4f9b3	0.11961689
164	0x3ea2bb98	0.31783748
165	0x3e9b435b	0.30324826
166	0xbe71a723	-0.23598914
167	0xbe1852c7	-0.14875327
168	0x3e7a3951	0.24435927
169	0x3e3c8424	0.18409783
170	0x3e3a45a0	0.18190622
171	0xbe2e99c0	-0.17050838
172	0x3e935b95	0.2878081
173	0xbe4864b3	-0.19569664
174	0x3d3c7f84	0.046020046
175	0x3d9b299e	0.07576297

AbundanceEstNet.Encoder_2.layers.0.0.conv2d.bias f4 [16]
0	0x3d89ba73	0.067250155
1	0xbe8e421b	-0.2778481
2	0x3e60f1b4	0.21967202
3	0x3e94b12c	0.2904142
4	0xbe88e88f	-0.26739928
5	0xbbdc019c	-0.006714059
6	0xbe2a7141	-0.16644765
7	0x3e88f9f4	0.267532
8	0x3e3f5083	0.18683057
9	0x3e7fd382	0.24983028
10	0x3d8e96fc	0.06962392
11	0x3c2d726d	0.010586363
12	0x3e1a9b2e	0.15098259
13	0xbd4b0389	-0.04956392
14	0xbdce8cfd	-0.10085485
15	0x3e23f9b9	0.1601323

AbundanceEstNet.Encoder_3.layers.0.0.conv2d.weight f4 [24, 19, 1, 1]
0	0x3db7ba64	0.08971098
1	0xbdc12249	-0.094303675
2	0xbce2a446	-0.027666222
3	0xbe2de26d	-0.16980906
4	0xbdbc7718	-0.09202403
5	0xbd8d42b5	-0.06897489
6	0xbe281f76	-0.16418251
7	0xbe36c557	-0.17848717
8	0x3e5c6ccc	0.21525878
9	0xbe2a407b	-0.1662616
10	0x3e8d82f0	0.2763896
11	0xbde34933	-0.11097946
12	0x3c0fe666	0.008782959
13	0x3e1ddcb7	0.15416227
14	0x3d5f9c9e	0.05459272
15	0xbcff2b9e	-0.031148728
16	0xbe32d4c8	-0.17463982
17	0xbda7c079	-0.08191008
18	0x3e4bed1a	0.19914666
19	0xbe1adf35	-0.15124209
20	0x3e3e0218	0.18555486
21	0x3c9e3f1e	0.019317206
22	0x3c85bb0b	0.01632454
23	0x3d91a4f2	0.07111539
24	0x3dcd9527	0.10038214
25	0xbc9be19e	-0.019028481
26	0x3e64c21c	0.22339672
27	0x3dcc6c99	0.09981651
28	0xbd99d00d	-0.07510386
29	0x3c7a257d	0.015267727
30	0x3ec13e3e	0.377428
31	0x3c91c8fd	0.017796034
32	0xbe02977c	-0.12753099
33	0x3d988a86	0.07448296
34	0x3c80a7d8	0.015705034
35	0xbd302b77	-0.0430102
36	0x3d5d0c0e	0.053966574
37	0x3e7114cb	0.23543088
38	0x3cd53e8b	0.0260308
39	0x3dabc605	0.083873786
40	0xbe1d7164	-0.15375286
41	0x3e4d2b07	0.20035945
42	0xbdba799a	-0.09105225
43	0xbcb9ee88	-0.022696748
44	0xbdd2d026	-0.102936074
45	0xbe029b8d	-0.1275465
46	0x3dbc77c0	0.09202528
47	0xbd574149	-0.052552495
48	0xbe0f28a2	-0.13980344
49	0xbe331bed	-0.17491122
50	0x3e2cf98b	0.16892068
51	0x3e1c78fd	0.15280528
52	0x3dfe0c15	0.12404648
53	0xbe507ce6	-0.20360145
54	0x3d628b3d	0.05530857
55	0x3a809d84	0.0009812568
56	0xbe520645	-0.20510204
57	0x3d4c414e	0.049866967
58	0x3bf5f81f	0.007506385
59	0xbde8ce45	-0.11367468
60	0xbda5d27b	-0.080967866
61	0x3e27aa6b	0.16373603
62	0xbdde16f4	-0.10844222
63	0xbd225a02	-0.03963662
64	0xbe139e6b	-0.144159
65	0xbde3cd79	-0.11123175
66	0x3e8b00ad	0.27148953
67	0x3e12d170	0.14337707
68	0xbe145c6b	-0.1448838
69	0x3e3a3743	0.18185143
70	0xbdedaa85	-0.1160479
71	0xbe761bca	-0.24034038
72	0xbe51efef	-0.20501684
73	0x3af23601	0.0018479229
74	0xbe3e292d	-0.18570395
75	0x3d684609	0.056707416
76	0x3e1bdd9c	0.15221256
77	0x3da7f900	0.0820179
78	0x3e5a612e	0.21326134
79	0xbd3e44dc	-0.04645239
80	0x3e4a6eec	0.19768876
81	0xbd610ec5	-0.054945726
82	0xbca89f55	-0.020583788
83	0x3e3317b8	0.17489517
84	0xbdfec490	-0.12439835
85	0x3ddaefb7	0.10690253
86	0xbca51eb3	-0.02015624
87	0x3e0dd3c1	0.13850309
88	0x3e22a6cf	0.15883945
89	0x3e13c03c	0.144288
90	0xbdb7ed34	-0.0898079
91	0x3d072b01	0.032999996
92	0x3dd9897b	0.106219254
93	0x3e8b8c92	0.27255684
94	0x3e4e6d1d	0.20158811
95	0x3e76011c	0.2402386
96	0x3dcdeafd	0.10054586
97	0xbe2d158b	-0.16902749
98	0x3e459aa7	0.19297276
99	0xbdcf4009	-0.101196356
100	0x3e404f2a	0.18780199
101	0x3dceccc9	0.100976534
102	0xbdd39932	-0.10331954
103	0x3c6e33f4	0.014538754
104	0x3dbfd02f	0.0936588
105	0x3df52bda	0.11971255
106	0xbe79b330	-0.24384761
107	0x3d6b8455	0.05749925
108	0x3db625fd	0.088939644
109	0x3dae5821	0.08512903
110	0x3e0fb4e8	0.14033854
111	0x3d0ed3e5	0.034870047
112	0xbe722da6	-0.23650226
113	0x3e087238	0.13324821
114	0xbe3c1c4b	-0.18370168
115	0xbe25790f	-0.16159461
116	0x3d85ecce	0.065393075
117	0x3dfab850	0.12242186
118	0x3dc09254	0.0940291
119	0x3db41b3d	0.08794258
120	0xbe185f90	-0.14880204
121	0x3d3ac8a8	0.045601517
122	0x3df01864	0.11723402
123	0xbe110dab	-0.1416537
124	0xbe53e499	-0.20692672
125	0x3e69192c	0.22763509
126	0xbe143a44	-0.14475352
127	0xbe4576fe	-0.19283673
128	0x3e3c40d4	0.18384105
129	0xbdcd84e9	-0.10035116
130	0xbd977c09	-0.07396705
131	0x3e9942c8	0.29933763
132	0x3c324946	0.010881728
133	0xbb0d95e6	-0.002160424
134	0x3e680acb	0.22660367
135	0xbdb38e86	-0.087674186
136	0x3e5c9b9d	0.21543737
137	0x3e3bd62a	0.18343416
138	0x3e3481d4	0.1762765
139	0x3d7c6ab2	0.06162519
140	0xbdd1edf1	-0.10250462
141	0x3e124c08	0.14286816
142	0xbe2275a3	-0.15865187
143	0xbdf8a7a0	-0.12141347
144	0xbdba992e	-0.09111248
145	0x3dc04825	0.093887605
146	0x3cd72a13	0.02626518
147	0x3e1dde6f	0.15416883
148	0x3e19a9d5	0.15006192
149	0x3ce18699	0.027530001
150	0x3e11d99c	0.14243168
151	0xbe202d6d	-0.15642329
152	0xbe56b117	-0.20965992
153	0xbe2167de	-0.15762278
154	0x3dedc46b	0.116097294
155	0x3e511be4	0.20420796
156	0xbd5e9f81	-0.054351334
157	0x3e0f6def	0.1400678
158	0xbe0d243b	-0.13783352
159	0xbb075169	-0.002064789
160	0xbce1db67	-0.02757044
161	0xbdcfad2e	-0.10140453
162	0xbe391201	-0.18073274
163	0x3e0c9a3b	0.13730709
164	0xbd39fd03	-0.045407306
165	0xbd54816c	-0.05188124
166	0x3e1e14b5	0.15437587
167	0xbe426c9c	-0.18986744
168	0x3e427507	0.18989955
169	0x3e75e351	0.24012496
170	0xbdeaa667	-0.1145752
171	0xbe1e4816	-0.15457186
172	0xbd1fdc60	-0.039028525
173	0xbde1ff7a	-0.110350564
174	0x3e252851	0.1612866
175	0xbe7c531e	-0.24641082
176	0xbe334ccb	-0.17509763
177	0xbc0b08ca	-0.008485982
178	0xbbb7d513	-0.005610117
179	0xbdfeead4	-0.12447134
180	0x3e2ea7bf	0.17056178
181	0x3e2199cc	0.15781325
182	0xb9f1d0fe	-0.00046122813
183	0x3e665e1f	0.22496842
184	0xbe125bd6	-0.14292845
185	0x3e1e7cba	0.15477267
186	0xbddc373b	-0.10752722
187	0x3e4dc561	0.20094825
188	0x3e317efa	0.17333594
189	0xbe4802fb	-0.19532387
190	0xbd5351fc	-0.05159186
191	0xbdf3d3c4	-0.119056255
192	0x3e796f6e	0.24358913
193	0xbb8a0991	-0.004212566
194	0x3e0ed9f9	0.13950337
195	0x3e62079c	0.22073215
196	0xbe2eb8f2	-0.17062739
197	0x3e1c7f5c	0.15282959
198	0xbe4c2e82	-0.19939616
199	0xbdb8afd7	-0.09017914
200	0xbdd3daee	-0.10344492
201	0xbdd965bc	-0.106151074
202	0xbe73a3d8	-0.2379297
203	0xbe6a89ba	-0.22904101
204	0xbe21a164	-0.15784222
205	0xbdf13055	-0.11776797
206	0xbcf6017c	-0.030030005
207	0x3e419fd2	0.18908623
208	0x3ca8ea0e	0.020619418
209	0xbe5d8212	-0.21631649
210	0xbe5e6720	-0.21719027
211	0x3e73484a	0.23758045
212	0xbe2596a2	-0.16170743
213	0xbe2602bd	-0.16211982
214	0xbe0786b3	-0.13234977
215	0x3d8ae834	0.067825705
216	0x3e62c778	0.22146404
217	0x3db035e7	0.08604031
218	0xbdac6f5b	-0.08419677
219	0xbc800bce	-0.015630629
220	0x3d8c51ac	0.06851515
221	0x3dffc7d6	0.124892876
222	0xbd670337	-0.05639955
223	0xbe03b143	-0.12860589
224	0x3d9c6a64	0.0763748
225	0x3d69e609	0.057104144
226	0x3d8fee78	0.07027906
227	0x3e351f37	0.17687689
228	0xbd0f8bb4	-0.03504534
229	0xbd30a369	-0.04312459
230	0x3d95eb91	0.07320321
231	0x3e2c4356	0.16822562
232	0xbe512681	-0.20424844
233	0xbddbb34d	-0.10727558
234	0xbe7bbdf1	-0.24584176
235	0x3e2b164d	0.16707726
236	0x3e83adbe	0.25718492
237	0x3e8c3b5a	0.27389032
238	0x3dfdc191	0.123904355
239	0xbc43347c	-0.011914369
240	0x3dc8a523	0.09797122
241	0xbe959460	-0.29214764
242	0xbca27e2a	-0.01983555
243	0xbc22c81c	-0.009935405
244	0x3d3b9f93	0.04580648
245	0x3e4a3112	0.19745281
246	0xbc395366	-0.011311388
247	0xbe8c56fc	-0.27410114
248	0x3e0e085c	0.13870376
249	0xbe39f5d3	-0.18160181
250	0xbe65f64f	-0.2245724
251	0x3d39cacd	0.04535942
252	0xbe294454	-0.16529971
253	0x3ea611f7	0.3243558
254	0xbdb97469	-0.090554066
255	0xbe8430ce	-0.25818485

AbundanceEstNet.Encoder_3.layers.0.0.conv2d.bias f4 [24]
0	0xbdf11181	-0.11770917
1	0xbe091c36	-0.13389668
2	0x3e34e2c9	0.17664637
3	0x3dc15e94	0.094418675
4	0xbdca9c9d	-0.09893153
5	0xbe3ed078	-0.18634212
6	0x3e076454	0.13221866
7	0xbe133a92	-0.14377812
8	0xbe799b57	-0.24375664
9	0xbe1dd2b3	-0.15412407
10	0x3d8f3a52	0.069935456
11	0x3dc8cd36	0.09804766
12	0x3d834cca	0.06411131
13	0xbeaf9439	-0.34292772
14	0x3d2e71e4	0.042589083
15	0xbe6225ce	-0.22084734
16	0x3df724d5	0.12067572
17	0xbd0a6a23	-0.033792626
18	0xbe4ed805	-0.20199592
19	0xbd618d10	-0.05506617
20	0xbe29b3be	-0.16572472
21	0x3e45e9b5	0.19327433
22	0xbe01a3a5	-0.12660082
23	0x3e10b771	0.14132477

AbundanceEstNet.Encoder_4.layers.0.0.conv2d.weight f4 [16, 27, 1, 1]
0	0xbe12c518	-0.14332998
1	0x3d87a408	0.06623083
2	0xbe448d95	-0.19194634
3	0x3b5d4f25	0.0033769098
4	0x3cb2abec	0.021810494
5	0x3c09bcb2	0.008406805
6	0x3dc3db75	0.095633425
7	0x3e2dc52f	0.16969751
8	0xbe3017b6	-0.17196545
9	0x3e21685b	0.15762465
10	0xbe231779	-0.15926923
11	0xbe16d49f	-0.14729546
12	0xbd82f563	-0.0639446
13	0x3e4c1f03	0.19933705
14	0x3de5ef3b	0.1122727
15	0x3bd7c9f5	0.0065853545
16	0xbdad6a1d	-0.08467505
17	0xbd51cf1a	-0.051222898
18	0xbd8b87c5	-0.06813005
19	0x3db56942	0.08857967
20	0x3c9f5afc	0.019452564
21	0xbcbbdf1d	-0.022933537
22	0xbe051614	-0.12996703
23	0x3d185a71	0.037195627
24	0x3dc4d704	0.096113235
25	0x3dcc22f3	0.099676035
26	0xbb8cf9d2	-0.004302242
27	0x3e400fc7	0.18756019
28	0xbd21ba5d	-0.03948437
29	0x3e12463f	0.1428461
30	0x3df5fa17	0.120105915
31	0x3e211a25	0.1573263
32	0x3de06b3f	0.109579556
33	0xbe3b107b	-0.18268006
34	0x3dd99450	0.106239915
35	0xbe046f04	-0.12932974
36	0xbdf1827d	-0.11792467
37	0xbe15ca9d	-0.14628072
38	0xbdd30818	-0.10304278
39	0xbe3dcbda	-0.18534794
40	0x3e337be4	0.1752773
41	0xbdc0263f	-0.09382295
42	0x3e0de284	0.1385594
43	0x3e3c64a3	0.18397765
44	0x3de67efc	0.11254689
45	0x3e1d227b	0.15345185
46	0xbbf533a0	-0.007482961
47	0xbe36f811	-0.17868067
48	0x3de98dcf	0.11404001
49	0xbe17f0a0	-0.14837885
50	0x3d41d647	0.04732349
51	0xbdc65c6b	-0.09685596
52	0x3dd993e8	0.10623914
53	0x3de291f9	0.11062998
54	0xbbd21feb	-0.0064124963
55	0xbd88d236	-0.066807196
56	0x3e12ba03	0.1432877
57	0xbd722391	-0.05911595
58	0xbe1cb1df	-0.15302227
59	0xbdfb60d8	-0.12274331
60	0xbe3cf41b	-0.18452494
61	0x3e1429ae	0.14469025
62	0x3e0f6e3b	0.14006893
63	0xbd4163ff	-0.047214504
64	0x3dae483c	0.08509871
65	0x3dd1918f	0.10232841
66	0xbdae192e	-0.085008964
67	0x3d148d84	0.036267772
68	0xbd1ce25e	-0.038301818
69	0xbdb73b48	-0.08946854
70	0xbdf437de	-0.11924718
71	0xbdc67aec	-0.09691414
72	0xbc4e7568	-0.012601234
73	0xbcdc6741	-0.026904704
74	0xbe139f37	-0.14416204
75	0xbe317cd4	-0.17332774
76	0xbcc751c9	-0.02433099
77	0x3d9c9590	0.07645714
78	0x3d5db57c	0.054128155
79	0xbe0ef6d6	-0.13961348
80	0x3dc363a2	0.09540488
81	0xbd47cb49	-0.048777852
82	0x3c1b85d6	0.009492358
83	0x3d8046b8	0.062634885
84	0x3dee99cc	0.11650428
85	0x3d1e6e52	0.03867943
86	0xbde07274	-0.1095933
87	0xbe86a9c9	-0.2630141
88	0x3d39b82e	0.045341663
89	0x3e608861	0.21927024
90	0xbde2ec87	-0.1108027
91	0x3d5eb6ea	0.05437366
92	0xbe310901	-0.17288591
93	0xbe73e801	-0.23818971
94	0x3e8090e0	0.2511053
95	0xbe5de646	-0.21669874
96	0x3e201e92	0.15636662
97	0x3c5d503e	0.013507901
98	0x3d8dabbc	0.06917521
99	0xbdacf94f	-0.08445989
100	0x3ddc48e1	0.10756088
101	0x3e55f7d7	0.20895325
102	0x3d03a2d5	0.03213771
103	0x3e7fce6b	0.24981086
104	0x3e1f6f44	0.15569788
105	0x3d95e95a	0.07319899
106	0x3dd72372	0.105048075
107	0x3e065396	0.13117823
108	0x3e15c50c	0.14625949
109	0x3daf79df	0.08568167
110	0xbe323994	-0.17404777
111	0x3d8b9151	0.06814826
112	0xbb0c22dc	-0.0021383082
113	0x3d866af5	0.06563369
114	0x3d044156	0.03228887
115	0x3de83718	0.11338633
116	0xbe28aa3c	-0.1647119
117	0xbdf3a0fb	-0.11895939
118	0x3ad0f6fa	0.0015942745
119	0x3e27122a	0.16315523
120	0xbe050681	-0.12990762
121	0xb9ce32ec	-0.00039329322
122	0xbc7aab25	-0.015299593
123	0xbe322afe	-0.17399213
124	0xbe3dcebe	-0.18535897
125	0xbe420821	-0.18948413
126	0xbe1a337d	-0.15058704
127	0xbe3f8763	-0.1870399
128	0xbc9ca944	-0.01912368
129	0x3dd6a930	0.10481489
130	0xbdebd8e1	-0.11515976
131	0xbde2debe	-0.11077641
132	0xbd7630e2	-0.060105212
133	0x3d9e449a	0.077279285
134	0x3e1b0578	0.15138805
135	0xbdb487b6	-0.08814947
136	0xbdb746e9	-0.08949072
137	0x3d81076d	0.063002445
138	0xbe38208b	-0.17981164
139	0x3de9aa8d	0.11409483
140	0xbd982d49	-0.074305125
141	0x3db1715e	0.08664201
142	0x3e1879b8	0.14890182
143	0x3d2fd46b	0.042927187
144	0xbe4004de	-0.18751857
145	0xbd672348	-0.05643013
146	0x3e28215b	0.16418974
147	0xbe35cfaf	-0.17755006
148	0x3e247c22	0.16062978
149	0xbe15e2f2	-0.14637354
150	0xbd2b5515	-0.041829187
151	0x3e09b25b	0.13446943
152	0xbe3a0623	-0.18166403
153	0xbe35d811	-0.17758204
154	0xbd1e8bfd	-0.038707722
155	0xbe120e8b	-0.1426336
156	0xbc8030f9	-0.015648352
157	0x3e00ab1f	0.12565278
158	0x3dc7c62b	0.097545944
159	0xbe335ded	-0.17516299
160	0xbd4ea8d2	-0.05045397
161	0xbe155f0d	-0.1458704
162	0xbdb18619	-0.08668155
163	0x3ddffd61	0.10937
164	0x3ca9feb6	0.020751338
165	0x3e5ac0c3	0.21362595
166	0x3d1a8821	0.03772748
167	0xbdd63873	-0.104599856
168	0x3d0bc1f5	0.03412052
169	0xbdc62c3f	-0.09676408
170	0xbe197577	-0.14986216
171	0xbe0e7812	-0.1391299
172	0x3e13e7e4	0.14443928
173	0xbe09af4b	-0.13445775
174	0x3ddd053e	0.107920155
175	0xbdb391cc	-0.08768043
176	0x3e0ce54e	0.13759348
177	0xbd9d0d23	-0.07668521
178	0x3d9dd2a3	0.077061914
179	0xbe364819	-0.1780094
180	0xbd378261	-0.044802073
181	0xbd40ee30	-0.047102153
182	0x3ca2cb67	0.01987238
183	0xbd4929a0	-0.049111962
184	0xbb0ade5f	-0.0021189672
185	0x3c37c130	0.011215493
186	0x3dc0d38f	0.094153516
187	0xbe615d02	-0.22008136
188	0xbe39697a	-0.18106642
189	0x3dc90504	0.0981541
190	0xbb68ccd7	-0.0035522485
191	0xbdae162b	-0.08500322
192	0x3ca095a2	0.0196026
193	0x3e3347bb	0.17507832
194	0xbe1a1fab	-0.15051143
195	0x3db505e4	0.08839014
196	0x3de94b8e	0.11391364
197	0xbd8e415f	-0.06946062
198	0xbc0dae8b	-0.008647571
199	0xbda45243	-0.08023503
200	0xbdbf0351	-0.093268044
201	0xbe1e028b	-0.15430658
202	0x3e472cd7	0.19450699
203	0x3e205414	0.15657073
204	0x3d943b56	0.0723788
205	0x3dfa94eb	0.12235435
206	0x3de41339	0.11136479
207	0x3e06dcb8	0.13170135
208	0x3e554d4a	0.20830265
209	0x3defced8	0.11709374
210	0xbe4df92d	-0.20114584
211	0x3e5cd133	0.21564178
212	0x3c429205	0.011875634
213	0xbd91b8f6	-0.071153566
214	0x3d45f15e	0.04832589
215	0xbdeac41a	-0.11463185
216	0xbd04de9c	-0.03243886
217	0x3dc276ea	0.09495337
218	0xbdfc82b6	-0.12329619
219	0xbdc7f3fd	-0.09763334
220	0x3d4b7a5b	0.049677234
221	0x3e602400	0.21888733
222	0xbd95c808	-0.073135436
223	0x3d98e358	0.074652374
224	0x3dd8d3c8	0.10587269
225	0xbd70e303	-0.058810245
226	0x3d79a63f	0.06094956
227	0xbe40dd80	-0.18834496
228	0x3c4ba053	0.012428361
229	0x3e837613	0.2567602
230	0x3e237bf1	0.15965249
231	0x3c307d1d	0.010772017
232	0xbe0da22c	-0.13831395
233	0x3c4ac7e0	0.0123767555
234	0x3e5f7ada	0.21824208
235	0x3dba94bf	0.09110402
236	0xbdda5841	-0.10661364
237	0x3dff5e16	0.12469117
238	0xbe0cc851	-0.1374829
239	0x3ce97400	0.028497696
240	0x3e61eb1a	0.2206234
241	0xbd894e4f	-0.06704389
242	0xbcc3d1d5	-0.023903767
243	0x3dbd6d3f	0.09249353
244	0xbc0bbcea	-0.008528927
245	0x3d25ed11	0.040509287
246	0x3ddb8ecf	0.10720598
247	0xbd873e6f	-0.06603705
248	0x3d260d30	0.04053992
249	0xbe043e00	-0.12914276
250	0x3cf145b9	0.029452192
251	0xbe2365bf	-0.15956782
252	0x3e77b858	0.24191415
253	0xbd519a6d	-0.051172663
254	0x3ba5f861	0.0050650095
255	0x3c58d715	0.013234873

AbundanceEstNet.Encoder_4.layers.0.0.conv2d.bias f4 [16]
0	0xbe3025a2	-0.17201856
1	0x3cd2489b	0.025669387
2	0xbe052987	-0.13004123
3	0x3db60225	0.08887128
4	0x3cca2134	0.024674036
5	0xbe2569c6	-0.1615363
6	0xbe0e16d8	-0.13875902
7	0x3dc11562	0.094279066
8	0x3d6f6abc	0.0584514
9	0xbe08b3d0	-0.13349843
10	0x3d7f044a	0.06225995
11	0x3d02c1aa	0.031922974
12	0xbe30f8da	-0.1728243
13	0x3d5de18e	0.054170184
14	0xbdeb4d7f	-0.114893906
15	0xbdbd1c5c	-0.09233925

SpectralMeanEstNet.SpectralGenMean.layers.0.0.weight f4 [18, 16]
0	0x3dd717cf	0.10502588
1	0x3e39da76	0.18149742
2	0xbe690cf9	-0.22758855
3	0x3e2dd4ba	0.1697568
4	0x3e3dec6d	0.1854722
5	0x3e6176e3	0.22018008
6	0xbdb2c33b	-0.087286435
7	0xba66ba10	-0.0008801529
8	0x3dff67d0	0.124709725
9	0xbe856b5e	-0.26058477
10	0xbe43182e	-0.19052193
11	0xbe12a1ee	-0.14319584
12	0xbe1fa4dc	-0.15590233
13	0xbd784d6d	-0.060620714
14	0xbec83fe5	-0.39111248
15	0xbe56e626	-0.20986232
16	0xbccd9a8e	-0.025098111
17	0x3e8f8d06	0.2803728
18	0x3da2b994	0.079455525
19	0xbe9f55ae	-0.31120056
20	0x3dc063fb	0.0939407
21	0x3e168f3a	0.14703074
22	0xbea196c3	-0.31560335
23	0x3e20ef9b	0.15716402
24	0x3d1c30f5	0.038132627
25	0x3dae774f	0.0851885
26	0x3d463090	0.048386157
27	0xbda9d15b	-0.082918845
28	0xbd2540b2	-0.0403449
29	0xbd03e98e	-0.032205157
30	0x3e2bc938	0.16775978
31	0x3c953ad4	0.018216528
32	0x3c84586a	0.01615544
33	0xbe7ed529	-0.24886002
34	0xbe9d06a2	-0.30669123
35	0x3cd3920e	0.02582648
36	0x3e3fe239	0.18738641
37	0x3e291a8b	0.16514032
38	0xbdc9e22e	-0.098575935
39	0x3dcbf3c7	0.09958606
40	0xbe878662	-0.26469713
41	0xbe9076c9	-0.28215626
42	0xbe8d5cb6	-0.27609795
43	0x3e73d2bb	0.23810856
44	0xbdd23fbd	-0.10266063
45	0xbd438c3d	-0.047741164
46	0xbd3dcd15	-0.04633816
47	0xbe28a991	-0.16470934
48	0x3af398d4	0.0018584975
49	0xbe7a7203	-0.24457555
50	0xbe46bead	-0.19408675
51	0x3e98f5a5	0.29874912
52	0xbe7cfa20	-0.2470479
53	0xbe0c48f1	-0.136997
54	0x3da21e72	0.07915963
55	0xbe689d99	-0.22716369
56	0x3e1f89a3	0.15579848
57	0x3c9cf021	0.019157471
58	0x3e8a73dd	0.27041522
59	0x3e7d106c	0.24713296
60	0x3e0f1fda	0.13976994
61	0xbe0de3a8	-0.13856375
62	0xbe5de2a8	-0.21668494
63	0x3e16d61a	0.14730111
64	0x3e9068e5	0.28205028
65	0xbcfb5273	-0.030678963
66	0xbdd299ac	-0.10283217
67	0x3e2ccd76	0.16875252
68	0xbe80af76	-0.25133866
69	0xbe9dc69d	-0.30815592
70	0xbd8d22d1	-0.06891406
71	0xbd89b3f9	-0.0672378
72	0xbea8e352	-0.32985932
73	0x3e1ff1ae	0.15619537
74	0x3e95b4cb	0.29239497
75	0xbd9a8198	-0.07544249
76	0x3d810c20	0.06301141
77	0x3e56d5ec	0.20980042
78	0xbe19d628	-0.150231
79	0x3dd6d36c	0.10489544
80	0xbe699af8	-0.22813022
81	0xbbae67fa	-0.0053224536
82	0x3cf2f6c7	0.029658688
83	0xbdd55821	-0.104172
84	0x3e8f5baa	0.27999622
85	0x3d8243ef	0.063606136
86	0xbe9bab50	-0.3040414
87	0x3c1902f2	0.009339081
88	0xbe52ed9f	-0.20598458
89	0xbe69a546	-0.22816953
90	0x3df037d8	0.11729401
91	0x3d1d6ca9	0.038433705
92	0xbe59f376	-0.21284279
93	0x3d8df2ae	0.06931053
94	0xbe13829c	-0.14405292
95	0x3e1631a8	0.1466738
96	0xbe1ce96b	-0.15323417
97	0x3ea58f80	0.32336044
98	0x3db65405	0.08902744
99	0xbea1dc56	-0.31613415
100	0xbe55f04c	-0.20892447
101	0x3b8363e4	0.0040097106
102	0x3e904bed	0.28182927
103	0x3e1585d3	0.14601831
104	0x3c9f4ac3	0.019444829
105	0x3e437a98	0.19089735
106	0x3e1df57b	0.15425675
107	0x3e4ef018	0.20208776
108	0xbe4cc9e8	-0.19998896
109	0xbc86efb4	-0.016471721
110	0xbe92d9ef	-0.28681895
111	0xbdbc8653	-0.09205308
112	0xbe66b007	-0.22528087
113	0xbe98a596	-0.29813832
114	0x3e46ea2c	0.19425267
115	0xbd6db4e8	-0.058033854
116	0x3e76b1c8	0.24091256
117	0xbec8b897	-0.3920333
118	0xbc95666c	-0.018237315
119	0x3e84ca85	0.2593576
120	0x3d90b937	0.07066577
121	0x3e9a9160	0.30189037
122	0x3ebc07ff	0.3672485
123	0xbebb011e	-0.3652429
124	0xbb267839	-0.0025401248
125	0xbe6b4b80	-0.2297802
126	0x3e2b64fb	0.1673774
127	0xbdba8490	-0.091073155
128	0x3d6089bc	0.054818854
129	0x3dd764d9	0.10517282
130	0x3dfbc390	0.1229316
131	0x3e56d4b0	0.20979571
132	0xbd48569c	-0.048910722
133	0xbeae9e2c	-0.3410505
134	0x3e087317	0.13325153
135	0xbe8d8617	-0.27641365
136	0x3e07404a	0.13208118
137	0xbddc413f	-0.10754632
138	0x3e392cef	0.18083547
139	0xbe9ab0f0	-0.30213118
140	0xbdb8869a	-0.09010048
141	0xbe0e1ca1	-0.13878109
142	0xbd4d4a53	-0.05011971
143	0xbdf2391c	-0.11827299
144	0x3e9a4ffd	0.3013915
145	0x3dc41085	0.09573463
146	0x3e08b0ce	0.13348696
147	0x3e7f080b	0.24905412
148	0xbe829f83	-0.25512323
149	0x3da59645	0.08085302
150	0xbe8416c8	-0.2579863
151	0x3ea38484	0.3193704
152	0x3e463a59	0.19358195
153	0x3e052787	0.1300336
154	0x3e35dc0b	0.17759721
155	0xbdedc5bf	-0.11609983
156	0xbd450dd8	-0.048108906
157	0x3d3cfdff	0.046140667
158	0x3ddd66f8	0.10810655
159	0x3e305c73	0.17222767
160	0xbe93a896	-0.28839558
161	0xbc697fc9	-0.014251658
162	0xbcd105a8	-0.025515392
163	0xbe115b79	-0.1419505
164	0xbe845ed3	-0.25853595
165	0xbe876466	-0.26443785
166	0xbd65804a	-0.05603055
167	0xbe9795b4	-0.29606402
168	0x3e283747	0.16427337
169	0x3d1bd6b8	0.03804657
170	0xbdc0619c	-0.093936175
171	0x3de97ee2	0.11401154
172	0x3e4ea3a9	0.20179619
173	0x3de25070	0.110504985
174	0xbba7c123	-0.0051194592
175	0x3e8d5876	0.27606553
176	0x3ea56ab1	0.32307962
177	0xbdb99e55	-0.090634026
178	0x3e99710d	0.29969063
179	0xbe90cf32	-0.28283077
180	0x3d0404f9	0.032231305
181	0x3e2dd7b6	0.16976818
182	0x3e8877db	0.26653942
183	0x3e32d28b	0.17463128
184	0xbc3ae72d	-0.011407656
185	0xbe262d40	-0.16228199
186	0xbe829132	-0.255014
187	0x3b81178f	0.003939576
188	0x3e9ea2e0	0.3098364
189	0x3dccd13b	0.10000845
190	0x3df958fe	0.12175177
191	0x3e824a83	0.25447473
192	0x3e1e702d	0.15472479
193	0xbdac58a6	-0.08415346
194	0xbe0b9bea	-0.13633695
195	0x3e53d853	0.2068799
196	0xbd69f84d	-0.057121564
197	0x3eaeb3db	0.34121594
198	0x3e6d2d7d	0.23161884
199	0xbe5e79fc	-0.21726221
200	0x3ec99dff	0.39378354
201	0xbd9504a8	-0.07276279
202	0xbe42c4bd	-0.19020362
203	0x3e9513df	0.29116723
204	0xbe37250b	-0.17885225
205	0xbd0aed90	-0.033917964
206	0x3e3dfeea	0.18554273
207	0x3e94fd83	0.29099664
208	0xbe4648fe	-0.19363782
209	0xbddbe4ed	-0.107370235
210	0xbdabc011	-0.08386243
211	0xbe592117	-0.21204029
212	0x3d11e329	0.035617027
213	0x3d8bbddf	0.068233244
214	0x3d91345b	0.07090064
215	0x3e525c46	0.20543012
216	0xbe24e657	-0.16103493
217	0x3d9eba69	0.07750399
218	0x3def475f	0.11683535
219	0xbe3c0bf8	-0.1836394
220	0xbe2e36c1	-0.17013074
221	0xbde56c12	-0.112022534
222	0x3e38c39b	0.18043368
223	0xbe12be95	-0.14330514
224	0xbe620a7f	-0.22074316
225	0xbcf3ad97	-0.02974586
226	0xbe5b0b92	-0.21391132
227	0xbe2e51bb	-0.17023365
228	0xbe68c806	-0.22732553
229	0x3e65da27	0.224465
230	0x3e8f22b3	0.2795616
231	0xbe8fb7cf	-0.28069922
232	0xbe94caef	-0.29061076
233	0x3ca32af5	0.019917944
234	0xbe9187f3	-0.28424034
235	0xbe308f7e	-0.17242238
236	0xbe1faef0	-0.15594077
237	0xbd29de61	-0.041471843
238	0x3e7638f9	0.24045171
239	0x3e5c9741	0.21542074
240	0xbe71f8ae	-0.2363002
241	0xbe9ccd26	-0.30625266
242	0xbe57ca59	-0.21073283
243	0x3e5c49ea	0.21512571
244	0xbe2e00b1	-0.16992451
245	0x3e56c703	0.20974354
246	0xbd8f5f7f	-0.07000636
247	0x3e241534	0.16023713
248	0x3e0b91a2	0.13629773
249	0x3e5ef7bc	0.2177419
250	0x3df451cb	0.11929663
251	0x3e9fb3fc	0.31192005
252	0x3d88384d	0.066513635
253	0xbda48f0d	-0.08035097
254	0x3baef251	0.005338945
255	0x3e85deba	0.2614649

SpectralMeanEstNet.SpectralGenMean.layers.0.0.bias f4 [18]
0	0xbcb4cfdd	-0.022071773
1	0xbd3d44de	-0.046208255
2	0xbb7a7fdf	-0.003822319
3	0x3b6f4849	0.0036511591
4	0x3e54d434	0.20784074
5	0xbe7e9d47	-0.24864684
6	0xbd58529e	-0.052813165
7	0xbd4d1bcc	-0.050075337
8	0xbd40c74b	-0.04706506
9	0xbcc788b7	-0.024357183
10	0xbd836d85	-0.064173736
11	0xbcc5936e	-0.024118152
12	0xbe5f05ed	-0.21779604
13	0x3de25df0	0.110530734
14	0xbd23bb22	-0.039973386
15	0xbd009b22	-0.031397946
16	0xbceddd5d	-0.029036218
17	0xbbbf583d	-0.0058393762

SpectralMeanEstNet.SpectralGenMean.layers.1.0.weight f4 [22, 18]
0	0xbe27a9aa	-0.16373315
1	0x3c97227a	0.018449057
2	0xbebbbf75	-0.36669508
3	0xbe5abaa4	-0.2136026
4	0xbe26cd86	-0.16289338
5	0xbd91b2ad	-0.07114158
6	0xbe949ee5	-0.29027477
7	0xbe23530d	-0.1594965
8	0xbe2a3c76	-0.16624627
9	0xbe82c00b	-0.25537142
10	0x3dc3f755	0.09568659
11	0xbe3a8dc6	-0.18218145
12	0x3e1701a3	0.14746718
13	0x3e5a3307	0.21308528
14	0xbdfcf8fe	-0.12352179
15	0xbddc3f35	-0.10754243
16	0x3dc546e1	0.0963266
17	0xbd83de69	-0.06438906
18	0x3ebc46d2	0.36772782
19	0x3e37bab1	0.17942311
20	0x3e9dc575	0.3081471
21	0xbe191d0a	-0.14952484
22	0xbcf74cbe	-0.03018796
23	0x3e42917c	0.1900081
24	0x3db1dfa3	0.086852334
25	0xbe73ef4d	-0.23821755
26	0x3dfe2ca3	0.124108575
27	0x3e08a356	0.13343558
28	0xbb3a401c	-0.002841956
29	0x3e870e7a	0.26378232
30	0x3e12345a	0.14277783
31	0xbe1067be	-0.14102075
32	0x3d613615	0.054983217
33	0xbd9d6477	-0.07685178
34	0x3e78c94d	0.2429554
35	0xbd16271b	-0.036658388
36	0x3d34186f	0.043968614
37	0x3e196a5c	0.14981979
38	0x3eabfc13	0.33590755
39	0x3e719020	0.23590136
40	0xbe7b9854	-0.24569827
41	0xbe287681	-0.16451456
42	0x3eabe547	0.33573362
43	0xbd6da721	-0.058020715
44	0xbd530694	-0.051519945
45	0x3d287230	0.041124523
46	0x3eabf396	0.3358428
47	0x3e04d425	0.12971552
48	0x3e3d36a4	0.18477875
49	0xbe96dc40	-0.29464912
50	0x3e8553fe	0.26040643
51	0x3e8a3df5	0.27000394
52	0x3e967ccb	0.29392084
53	0x3e4d3d7d	0.20042987
54	0x3cfd28fe	0.030903336
55	0xbe01fddb	-0.12694494
56	0x3e228d02	0.15874103
57	0x3e69a3c2	0.22816375
58	0xbd540397	-0.051761236
59	0x3d83f4b4	0.06443158
60	0x3db9ecf0	0.09078395
61	0x3a900d39	0.0010990269
62	0x3e2894e5	0.16463049
63	0x3e981f93	0.2971159
64	0x3e05e319	0.13074912
65	0x3dbe0999	0.09279174
66	0x3da86bb4	0.08223668
67	0x3d27cb64	0.040965453
68	0xbc0eb976	-0.0087112095
69	0x3d8c4723	0.06849506
70	0x3e28fb8e	0.1650221
71	0xbdaa325c	-0.083103865
72	0xbdad318c	-0.08456716
73	0xbe842c94	-0.2581526
74	0xbe954723	-0.29155836
75	0xbdd7f7bf	-0.10545301
76	0xbd88eab1	-0.06685389
77	0x3d7562ff	0.059908863
78	0xbe0e645d	-0.13905473
79	0xbdf00a64	-0.11720732
80	0xbde25414	-0.11051193
81	0xbdf3e7ad	-0.11909423
82	0xbe741814	-0.2383731
83	0xbcedf404	-0.02904702
84	0x3dc3240d	0.095283605
85	0xbcaf8668	-0.021426395
86	0xbd86491f	-0.065569155
87	0x3d3bb8b6	0.04583045
88	0x3d48c619	0.049017046
89	0xbdc95c4a	-0.09832056
90	0xbd5f0df2	-0.05445666
91	0xbcc17e07	-0.023619665
92	0x3e205475	0.15657218
93	0xbe1db287	-0.15400134
94	0xbe3c8694	-0.18410712
95	0xbc419ed2	-0.011817651
96	0x3d3fb380	0.046802044
97	0x3da78d8c	0.08181295
98	0x3e408ca0	0.18803644
99	0x3e8bfa50	0.2733941
100	0x3ead07b2	0.33794934
101	0xbbe5580e	-0.0069990223
102	0xbe3e0fa6	-0.18560657
103	0x3e24407b	0.16040222
104	0x3e97a06b	0.29614577
105	0x3eac70ca	0.336798
106	0x3e501c4c	0.20323294
107	0x3e8eb6b4	0.27873766
108	0xbbb7a938	-0.0056048892
109	0xbe539271	-0.20661332
110	0xbe70efca	-0.23528972
111	0xbe6675b1	-0.22505833
112	0xbd6c04e8	-0.057621866
113	0xbd200c0c	-0.03907399
114	0x3ccb3a36	0.02480803
115	0x3cccaf96	0.02498607
116	0xbe32b7f2	-0.17452982
117	0xbd9cf18c	-0.07663259
118	0x3e1b99e9	0.15195431
119	0x3dd38981	0.10328961
120	0x3d0628a2	0.032753594
121	0xbd097255	-0.0335563
122	0xbd72f5ee	-0.059316568
123	0x3c899d02	0.0167985
124	0xbe5fcbd8	-0.21855104
125	0x3dd8b7a5	0.105819024
126	0x3df253f0	0.11832416
127	0xbd4f46da	-0.05060468
128	0x3ccd7208	0.025078788
129	0xbd56cdf5	-0.05244251
130	0xbe177f44	-0.14794642
131	0xbdc707bb	-0.09718271
132	0xbe544820	-0.20730639
133	0x3e3d7cc8	0.18504632
134	0x3d07c2e0	0.03314483
135	0x3e0dc6b5	0.13845332
136	0xbe2b4ea0	-0.16729212
137	0x3cb1f48c	0.021723054
138	0xbe4a6647	-0.19765578
139	0x3da0c45a	0.07849951
140	0xbe2122fc	-0.15736002
141	0xbe612337	-0.2198609
142	0x3e722915	0.23648484
143	0xbdbc0514	-0.09180656
144	0x3eb924ab	0.36160788
145	0x3e649ec7	0.22326194
146	0x3ea7dfd8	0.32787967
147	0x3e9576b0	0.29192114
148	0xbcd84ba1	-0.02640325
149	0xbcf6a0d1	-0.03010598
150	0x3e4b086f	0.19827436
151	0x3e8b9980	0.2726555
152	0xbd87f23c	-0.066379994
153	0xbc034e04	-0.008014206
154	0x3e16453c	0.14674848
155	0x3e63fd1d	0.22264524
156	0xbe8b19db	-0.27168164
157	0x3ea316d3	0.3185335
158	0x3e9380c8	0.2880919
159	0x3ea7a733	0.3274475
160	0x3d0f00bc	0.03491281
161	0xbcd2f706	-0.025752556
162	0x3e62d73b	0.22152416
163	0x3e9bc478	0.3042333
164	0x3ec1f518	0.37882304
165	0xbd841193	-0.064486645
166	0x3e912b46	0.28353328
167	0xbdadf9c4	-0.08494905
168	0xbce26f15	-0.027640859
169	0x3e80107f	0.25012586
170	0x3e8bd087	0.2730753
171	0x3e5d5bf5	0.2161711
172	0xbdd48e9f	-0.10378765
173	0x3ed3ea1b	0.41389546
174	0xbe0b75b9	-0.13619126
175	0x3da14d49	0.07876069
176	0x3cc5772a	0.024104673
177	0xbdef956d	-0.116984226
178	0x3ddb001b	0.106933795
179	0x3e48c5bd	0.19606681
180	0x3e334fc5	0.17510898
181	0x3d24d271	0.040239755
182	0x3eae9f03	0.3410569
183	0x3d8ba7c3	0.068191074
184	0xbdf7a1c5	-0.12091402
185	0xbd5b7d33	-0.053586196
186	0x3d88e750	0.06684744
187	0x3e84927e	0.25893015
188	0x3ead7767	0.3388016
189	0x3e43b0d7	0.19110428
190	0x3ea7a5e4	0.32743752
191	0x3eb321dc	0.3498677
192	0x3da2abd7	0.07942932
193	0x3e1d0c52	0.15336731
194	0x3e2a0213	0.16602354
195	0x3e162883	0.14663891
196	0x3eb9b82c	0.36273324
197	0x3d6ed09f	0.058304425
198	0xbeaa379c	-0.33245552
199	0xbe91dcb6	-0.28488702
200	0xbc2fe5c1	-0.01073593
201	0xbe871e41	-0.2639027
202	0x3bdbc4f8	0.00670683
203	0xbc272183	-0.010200861
204	0xbe9eb477	-0.3099706
205	0xbe201541	-0.15633108
206	0xbd74a9a6	-0.0597321
207	0xbdf11107	-0.11770826
208	0x3c938ef6	0.018012505
209	0xbe485670	-0.19564223
210	0xbdacbcf6	-0.08434479
211	0xbce37807	-0.027767194
212	0xbe82802b	-0.2548841
213	0xbe0744d8	-0.13209856
214	0xbe0978e4	-0.13425022
215	0xbd00300b	-0.031295817
216	0xbe02c55f	-0.12770604
217	0x3db3af94	0.08773723
218	0xbd916191	-0.070986874
219	0xbde6ac70	-0.112633586
220	0xbdebe37e	-0.11518
221	0x3de8d69b	0.11369058
222	0xbced3d89	-0.028960006
223	0xbe76c929	-0.24100174
224	0xbe50036c	-0.20313805
225	0xbd5b51b7	-0.053544726
226	0xbd4f5216	-0.050615393
227	0xbe4ff013	-0.20306425
228	0xbe3a6d6a	-0.182058
229	0x3de0943e	0.10965775
230	0x3d54ac58	0.051922172
231	0xbe299a42	-0.16562751
232	0xbe50f089	-0.20404257
233	0x3de25def	0.11053073
234	0xbde71eeb	-0.11285194
235	0x3e91e0cb	0.28491816
236	0xbd03fc89	-0.03222326
237	0x3e408d59	0.1880392
238	0x3dbf353a	0.09336324
239	0x3d7743ac	0.06036727
240	0x3e75a392	0.23988178
241	0x3c9e1d0a	0.019300956
242	0xbe0add25	-0.13560922
243	0x3df101d8	0.1176793
244	0x3e086742	0.1332064
245	0x3d3df9b5	0.046380717
246	0x3d7803c2	0.06055046
247	0x3e886750	0.2664132
248	0xbd152381	-0.036410812
249	0x3e37f76d	0.17965479
250	0x3e483cd3	0.19554453
251	0x3e7faa87	0.24967395
252	0xbcd855d9	-0.026408123
253	0xbe752e0c	-0.23943347
254	0xbdd05ec0	-0.10174322
255	0xbc4f9d92	-0.012671845

SpectralMeanEstNet.SpectralGenMean.layers.1.0.bias f4 [22]
0	0x3e2e7b65	0.17039259
1	0x3c34e5a7	0.0110410815
2	0x3d5d9ef4	0.054106668
3	0x3e309a14	0.17246276
4	0x3ddbeb2a	0.10738213
5	0x3be00949	0.0068370444
6	0xbd232390	-0.039828837
7	0xbb68081d	-0.0035405227
8	0xbd64b33c	-0.055834994
9	0xbdb628e3	-0.08894517
10	0x3e55fc84	0.20897108
11	0xbd85446f	-0.06507193
12	0x3dfdb5a1	0.123881586
13	0xbc2a6ef8	-0.010402434
14	0x3e1bb406	0.15205392
15	0xbd0c8abf	-0.034312006
16	0xbe03c8f7	-0.12869631
17	0x3db6348e	0.08896743
18	0xbd671417	-0.056415644
19	0x3dfd2ee8	0.12362462
20	0xbd96c0c4	-0.07360986
21	0x3e2a0a30	0.16605449

SpectralMeanEstNet.SpectralGenMean.layers.2.0.weight f4 [26, 22]
0	0xbd10fecc	-0.035399243
1	0x3e1c624c	0.15271872
2	0x3e8c693f	0.27424046
3	0x3e568889	0.20950522
4	0xbe136c44	-0.14396769
5	0x3e7732e0	0.24140501
6	0x3e13be76	0.14428124
7	0xbd8787f4	-0.06617728
8	0x3df76014	0.12078872
9	0x3e1b90f1	0.1519201
10	0x3e02249e	0.12709281
11	0xbe823b79	-0.25436
12	0xbe61cf6f	-0.22051786
13	0x3e7cea1a	0.24698678
14	0x3cbaa473	0.022783494
15	0x3e234885	0.15945633
16	0x3d0d16a2	0.034445412
17	0x3e827379	0.25478724
18	0x3e41f1a3	0.18939833
19	0xbdfd55cc	-0.1236988
20	0xbc48d3f0	-0.012257561
21	0xbe23357d	-0.15938373
22	0xbd48756f	-0.04894012
23	0xbdd389a3	-0.103289865
24	0xbe965d03	-0.29367837
25	0x3e48f8ef	0.1962621
26	0xbd1ff40c	-0.0390511
27	0xbe716c03	-0.2357636
28	0xbdb2ffdf	-0.0874021
29	0xbceeb71d	-0.02914005
30	0xbe7431a7	-0.23847066
31	0xbdc6e4bf	-0.097115986
32	0xbcef8751	-0.029239329
33	0xbd6b7bc4	-0.05749108
34	0x3dc6d672	0.09708871
35	0x3cd55af0	0.026044339
36	0x3d63c295	0.05560549
37	0xbee10eb3	-0.43956527
38	0x3dbec1ca	0.09314306
39	0xbe8b0943	-0.27155504
40	0xbe6f3bc3	-0.23362641
41	0x3e649446	0.22322187
42	0xbe15d0ce	-0.14630434
43	0x3da41799	0.080123134
44	0x3e28c70d	0.16482182
45	0x3cc42349	0.023942607
46	0xbddfd1a1	-0.109286554
47	0xbd39f334	-0.045397952
48	0x3da3872f	0.079847686
49	0xbe5ef3af	-0.21772645
50	0x3be454ff	0.00696814
51	0xbe1d976e	-0.15389797
52	0xbe57d554	-0.21077472
53	0xbeb93c14	-0.36178648
54	0xbe441fdd	-0.1915278
55	0x3da0344d	0.078224756
56	0x3d9e2493	0.0772182
57	0xbe878e92	-0.2647596
58	0x3e55eb94	0.20890647
59	0xbddc6dc4	-0.10763124
60	0x3e42dc6f	0.19029401
61	0xbdb4f37a	-0.08835502
62	0xbe5000c8	-0.20312798
63	0xbd16d0fa	-0.03682039
64	0xbbc06957	-0.0058719325
65	0xbd29667b	-0.0413575
66	0xbd1289fb	-0.03577612
67	0x3dc7e54f	0.09760534
68	0x3eaabe48	0.33348298
69	0x3e021779	0.12704267
70	0x3e00fd7a	0.12596694
71	0x3e167638	0.14693534
72	0xbe55d035	-0.20880206
73	0x3e4d4d1f	0.2004895
74	0x3e18b4bb	0.14912693
75	0x3ec96d1b	0.39341053
76	0x3e7e822b	0.24854343
77	0xbd7a6044	-0.061126962
78	0x3cfb9ded	0.030714953
79	0x3c833fc2	0.016021613
80	0x3e137854	0.1440137
81	0x3d8e6f52	0.069548264
82	0x3e1014ae	0.14070389
83	0xbcab2f57	-0.020896597
84	0x3ecdd198	0.4019897
85	0xbe341621	-0.17586567
86	0xbe1a46dc	-0.15066093
87	0x3d9119e6	0.07085018
88	0xbde9166d	-0.113812305
89	0x3e9c87a9	0.3057225
90	0x3d12c4b2	0.035832115
91	0xbdee5695	-0.11637608
92	0xbd954ecd	-0.07290421
93	0xbb6501d8	-0.0034943726
94	0x3e10023f	0.14063357
95	0x3e04f69c	0.12984699
96	0x3e170e5c	0.14751571
97	0x3eb9b8e7	0.36273882
98	0x3e74fc4e	0.23924372
99	0xbe48104d	-0.19537468
100	0x3d25c16d	0.04046767
101	0x3cb9fd70	0.022703856
102	0xbe5e866a	-0.21730962
103	0x3da4c967	0.08046227
104	0x3d742d99	0.059613798
105	0x3e590ef5	0.21197112
106	0x3cc8937c	0.024484389
107	0xbeb16448	-0.3464682
108	0x3ddaa803	0.10676577
109	0xbe1563fd	-0.14588924
110	0x3e255952	0.16147354
111	0xbe4d6860	-0.20059347
112	0xbcd692e0	-0.026193082
113	0xbc9dc0c6	-0.01925696
114	0x3e10e118	0.14148366
115	0xbe3a72e1	-0.18207885
116	0xbc4ff432	-0.012692498
117	0xbdd55d46	-0.10418181
118	0x3c82ba3d	0.015957946
119	0xbe1a3709	-0.15060057
120	0xbe7697d0	-0.2408135
121	0x3e724f0e	0.2366297
122	0x3e17b856	0.14816412
123	0xbe92f48f	-0.28702208
124	0x3c2af533	0.010434437
125	0xbeebca5f	-0.46052834
126	0x3d8ee245	0.06976751
127	0xbc22cbf8	-0.009936325
128	0x3b9bae32	0.0047509903
129	0x3d36851b	0.044560533
130	0x3e18d262	0.14924005
131	0xbdd36f93	-0.103240155
132	0xbe12503b	-0.14288418
133	0x3cab8d0d	0.020941282
134	0x3e3f43f3	0.18678264
135	0x3e5527f4	0.20816022
136	0xbde6829c	-0.112553805
137	0x3e27258a	0.16322914
138	0xbde28929	-0.110613175
139	0xbdb492d2	-0.08817066
140	0x3e444665	0.19167478
141	0xbc65dea7	-0.014030135
142	0x3e57f7ff	0.21090697
143	0xbe3420c3	-0.17590623
144	0x3e2dd63c	0.16976255
145	0x3e10557f	0.14095114
146	0xbe47edfd	-0.19524379
147	0x3ee2e4b2	0.44315106
148	0xbdc2ea74	-0.09517375
149	0xbd51f6b6	-0.051260673
150	0x3ee4da50	0.4469781
151	0xbdb5a4ea	-0.088693455
152	0xbc968b2a	-0.018376905
153	0xbe1204d6	-0.14259657
154	0xbd8d1f65	-0.06890754
155	0x3ebe4c15	0.3716742
156	0x3cdcd5d7	0.026957436
157	0xbd890d75	-0.0669202
158	0x3e688b95	0.22709496
159	0x3db64ab8	0.0890097
160	0xbdf1046a	-0.1176842
161	0x3e507c3b	0.2035989
162	0x3e5db518	0.21651113
163	0x3d330fed	0.04371636
164	0x3dbae18e	0.091250524
165	0xbd48b708	-0.049002677
166	0xbcca6dfd	-0.02471065
167	0x3e9ae2aa	0.30251056
168	0x3e9045e6	0.28178328
169	0x3ec12eae	0.37730926
170	0xbdeddbc7	-0.11614185
171	0x3d7942ac	0.0608546
172	0x3d67a3da	0.056552745
173	0xbe5bf51f	-0.21480225
174	0xbe04bc6f	-0.12962507
175	0x3e6ef1f1	0.23334481
176	0x3e0e50c4	0.13897997
177	0xbe112232	-0.141732
178	0xbea776c1	-0.3270779
179	0x3dbdc59b	0.09266206
180	0xbce6c53d	-0.028170222
181	0xbd37468d	-0.044745017
182	0xbda72487	-0.08161264
183	0xbd0d2a93	-0.03446443
184	0xbdf8e4a6	-0.12152986
185	0xbe7f772a	-0.24947801
186	0xbe016ba2	-0.12638715
187	0x3e0fd25c	0.1404509
188	0x3d9be0d7	0.07611244
189	0x3c5d6a79	0.013514155
190	0xbe067b48	-0.13132966
191	0xbd36fa84	-0.044672504
192	0xbe4ed87e	-0.20199773
193	0xbe4e5da5	-0.2015291
194	0xbe64367e	-0.22286412
195	0xbdb76e29	-0.08956558
196	0x3e3a3af3	0.1818655
197	0xbd146c9f	-0.0362364
198	0xbde986fd	-0.114027
199	0x3e897e35	0.268541
200	0x3e2ad8ee	0.16684315
201	0x3e27fc9f	0.16404961
202	0x3dbb1c2c	0.09136233
203	0x3e071b6d	0.13194056
204	0xbe6eb7ce	-0.23312303
205	0x3e0bcf43	0.13653283
206	0x3e1c471d	0.15261503
207	0x3e824e21	0.25450233
208	0x3e4da12a	0.2008101
209	0xbe442053	-0.19152956
210	0xbddb93a5	-0.1072152
211	0xbcee51e2	-0.02909178
212	0x3c7a1d47	0.015265769
213	0x3e778b70	0.24174285
214	0xbd46ffd7	-0.04858383
215	0x3d772acf	0.06034356
216	0x3e5d7ae1	0.21628906
217	0xbdff399e	-0.124621615
218	0x3e28e24a	0.16492572
219	0x3e014ecc	0.12627715
220	0x3e949875	0.29022565
221	0xbea23835	-0.31683508
222	0xbeadd9d9	-0.33955267
223	0x3e277498	0.1635307
224	0x3e6d297b	0.23160355
225	0x3d899416	0.06717698
226	0xbe0c61d0	-0.13709188
227	0xbe29414b	-0.16528814
228	0x3bb612fc	0.0055564623
229	0xbeae6eb6	-0.3406884
230	0xbe3deb60	-0.1854682
231	0x3df130df	0.117768995
232	0x3e81f937	0.25385448
233	0xbe622f97	-0.22088467
234	0xbc16745a	-0.009183014
235	0xbebd01ce	-0.3691544
236	0xbe078d40	-0.13237476
237	0xbd221cf5	-0.039578397
238	0xbe7c0b2e	-0.2461364
239	0x3e7cf3fe	0.2470245
240	0xbe03feff	-0.12890242
241	0xbd13de51	-0.03610069
242	0xbe318cb8	-0.17338836
243	0xbe7bf6ac	-0.24605817
244	0xbc60128e	-0.013676299
245	0xbd269a15	-0.040674288
246	0xbe33c3ac	-0.17555112
247	0xbd871864	-0.06596449
248	0x3db3f95b	0.08787795
249	0x3da7c2cf	0.08191454
250	0x3c20cc6b	0.009814362
251	0xbeb24818	-0.34820628
252	0x3cdfc8ee	0.02731749
253	0xbe21c11a	-0.15796319
254	0x3e36e5d8	0.17861116
255	0x3d3bdf91	0.045867506

SpectralMeanEstNet.SpectralGenMean.layers.2.0.bias f4 [26]
0	0xbd062489	-0.032749686
1	0xbe1bb72d	-0.15206595
2	0x3e0d0b01	0.13773729
3	0xbd50648a	-0.05087713
4	0x3d571de1	0.05251873
5	0x3e2b8634	0.16750413
6	0xbd45eea4	-0.04832329
7	0xbdbfd5ae	-0.09366928
8	0x3e3d020f	0.18457817
9	0x3e014efd	0.12627788
10	0x3e73c4d1	0.23805548
11	0x3df180cd	0.11792145
12	0xbd3af9c5	-0.045648355
13	0x3dd96e1d	0.106167056
14	0x3da02eac	0.07821402
15	0x3bfaa297	0.0076487768
16	0x3e229901	0.15878679
17	0x3d2a26e2	0.041540988
18	0xbe2a53eb	-0.16633575
19	0x3e064515	0.1311229
20	0xbdb12641	-0.086498745
21	0xbda0f13e	-0.07858513
22	0xbe060749	-0.13088717
23	0x3c386844	0.011255328
24	0x3d5962fb	0.05307291
25	0xbcd67781	-0.02618003

SpectralMeanEstNet.SpectralGenMean.layers.3.0.weight f4 [30, 26]
0	0xbeacb6c6	-0.33733195
1	0x3de7c4e1	0.113168485
2	0x3e48d7cd	0.19613571
3	0xbd4a1c92	-0.049343653
4	0xbe0690f8	-0.13141239
5	0x3e1c5cd5	0.15269788
6	0xbe7ec01f	-0.24877976
7	0x3cb4ad99	0.022055434
8	0x3e5d17dc	0.21591133
9	0xbe1f1832	-0.15536574
10	0x3e3da8ef	0.18521474
11	0xbe217539	-0.15767373
12	0x3d036f8c	0.0320888
13	0x3cefc9dc	0.029271059
14	0xbe608d0d	-0.21928807
15	0x3d09e578	0.033666104
16	0xbcee9103	-0.029121881
17	0x3da39b2e	0.079885826
18	0xbccf9d8b	-0.025343677
19	0x3e0f9636	0.14022145
20	0x3bb11df2	0.005405181
21	0xbe1b5caf	-0.15172075
22	0xbd5a7780	-0.05333662
23	0xbe16bd77	-0.14720713
24	0x3e5cc741	0.21560384
25	0x3e14676a	0.14492574
26	0x3e3bdeff	0.18346785
27	0x3ba23ab5	0.004950846
28	0xbdc69b95	-0.09697644
29	0xbd43f082	-0.047836788
30	0x3d2aee7d	0.041731346
31	0xbe86fd47	-0.2636511
32	0xbdba6c1e	-0.09102653
33	0x3e46a9c7	0.19400702
34	0xbe8234c2	-0.25430876
35	0x3e1663f8	0.14686573
36	0x3d5383c8	0.05163935
37	0xbd679425	-0.056537766
38	0x3dd5cead	0.10439811
39	0xbdeda669	-0.11604006
40	0xbd7cb9be	-0.061700575
41	0x3e5eca2c	0.2175681
42	0x3e3eea49	0.1864406
43	0x3db05d38	0.0861153
44	0xbe681cfa	-0.22667304
45	0xbe14745c	-0.14497513
46	0xbe4ad44a	-0.19807544
47	0xbd0444fc	-0.03229235
48	0x3d0f4729	0.034979973
49	0xbe0db8ff	-0.13840102
50	0xbe407992	-0.18796375
51	0xbe60a3df	-0.21937512
52	0x3e8dccd0	0.27695322
53	0x3d436c3b	0.04771064
54	0x3dc48044	0.09594777
55	0x3e79dbee	0.24400303
56	0x3e2b6eaa	0.16741434
57	0xbd44fb3c	-0.04809116
58	0x3c992da2	0.018698517
59	0xbd278f67	-0.040908244
60	0x3e008ba8	0.12553275
61	0x3dde32fe	0.1084957
62	0xbe2bc218	-0.1677326
63	0xbe37fb52	-0.17966965
64	0xbd1ba821	-0.038002137
65	0x3e21cf39	0.15801705
66	0xbd41b917	-0.047295656
67	0x3e53a001	0.20666505
68	0x3dabcd2f	0.08388745
69	0x3e0e52f2	0.13898829
70	0xbddf8b58	-0.109152496
71	0xbdd5cd0b	-0.104394995
72	0x3d72527e	0.059160702
73	0x3e1adfd8	0.15124452
74	0xbe4b60ef	-0.19861196
75	0xbe0fa569	-0.14027943
76	0xbd127258	-0.035753578
77	0xbe0d2db6	-0.13786969
78	0xbe8fe9cc	-0.2810806
79	0x3e0d621f	0.13806961
80	0x3d9fb085	0.0779734
81	0xbbe87bff	-0.0070948596
82	0xbe8f91dc	-0.2804097
83	0x3ddfd530	0.10929334
84	0xbe35b130	-0.17743373
85	0x3d1d79ca	0.038446225
86	0x3e01e937	0.1268662
87	0x3d916218	0.07098788
88	0xbdfe9516	-0.1243078
89	0x3e372354	0.1788457
90	0xbb2af32e	-0.0026084888
91	0xbd6fd865	-0.05855598
92	0xbe8b4574	-0.27201426
93	0x3da3cafd	0.07997701
94	0xbe5d0442	-0.21583655
95	0x3d781ba1	0.060573224
96	0x3cfb900f	0.03070834
97	0xbe5c1171	-0.21491028
98	0x3da3057f	0.07960033
99	0xbe38e41d	-0.18055768
100	0x3e7440a6	0.23852786
101	0x3d2a17e2	0.041526683
102	0x3e222858	0.15835702
103	0x3ba3f69c	0.0050037634
104	0xbcf199da	-0.029492307
105	0x3db6c24c	0.08923778
106	0xbb0cc738	-0.0021481048
107	0xbddf59cb	-0.109057985
108	0x3df9f23d	0.122044064
109	0x3db6e75e	0.089308485
110	0xbc2fa298	-0.010719918
111	0xbdb7816a	-0.08960231
112	0x3c803f1b	0.015655091
113	0xbe1e63ec	-0.15467805
114	0x3d3f9fdf	0.046783324
115	0x3daa6c5d	0.0832145
116	0xbd48c83a	-0.049019076
117	0x3e1850d8	0.1487459
118	0x3e4c6731	0.1996124
119	0x3e701cc5	0.23448475
120	0xbdfb9eeb	-0.122861706
121	0x3ce6d544	0.028177865
122	0x3d8df371	0.069311984
123	0xbdb1cd3d	-0.08681724
124	0xbce40bdd	-0.027837688
125	0xbc5d460b	-0.013505469
126	0xbda5a161	-0.08087421
127	0xbdadeaa5	-0.084920205
128	0xbe61cf00	-0.2205162
129	0x3d93f196	0.07223813
130	0x3e5b0178	0.21387279
131	0xbdbb1983	-0.09135725
132	0xbe60bde9	-0.21947445
133	0x3ce845bb	0.028353563
134	0x3e4030da	0.18768635
135	0xbd7895a9	-0.060689602
136	0x3e3e16c6	0.18563375
137	0xbd930030	-0.0717777
138	0xbd9da15f	-0.07696795
139	0x3e3ea9cb	0.18619458
140	0xbe640ec0	-0.22271252
141	0x3b72e749	0.0037064126
142	0xbd578c40	-0.052623987
143	0xbc8a93f4	-0.016916253
144	0x3d474409	0.048648868
145	0x3e5c97a9	0.21542229
146	0x3c7e8c94	0.015536446
147	0xbca51afb	-0.020154467
148	0x3e012a2b	0.12613742
149	0xbd97f760	-0.0742023
150	0xbddd660a	-0.10810478
151	0x3c96c5d4	0.018404879
152	0xbe4b13b3	-0.19831733
153	0xbe61aeee	-0.22039387
154	0xbe3119a5	-0.17294939
155	0x3b7ee5d8	0.0038894322
156	0xbd5c1699	-0.05373249
157	0x3c03062e	0.007997079
158	0xbde123a7	-0.10993128
159	0x3d9da117	0.07696741
160	0x3ddb019e	0.10693668
161	0xbe349ba0	-0.17637491
162	0x3d0520f4	0.03250213
163	0x3d0018a6	0.031273507
164	0xbe213b0e	-0.15745184
165	0x3daed89a	0.08537407
166	0x3db8e0ab	0.09027227
167	0xbdd5fe26	-0.104488656
168	0xbe2e3b2a	-0.17014757
169	0x3e4ee631	0.20204999
170	0x3dff5841	0.12468005
171	0xbdc4e6ee	-0.09614359
172	0xbd0513d3	-0.03248961
173	0x3cfa07cb	0.030521294
174	0xbe8079f5	-0.25093046
175	0xbda197de	-0.078902945
176	0xbe72ff52	-0.2373021
177	0xbd1cc822	-0.0382768
178	0x3d8b141a	0.067909434
179	0x3e4b206d	0.19836588
180	0x3cd5f36f	0.026117055
181	0xbe82f42e	-0.2557692
182	0x3e06b0fa	0.13153449
183	0xbd461082	-0.048355587
184	0xbc811775	-0.015758255
185	0x3e0a3e75	0.13500388
186	0x3e9bfaa5	0.30464664
187	0xbc82504c	-0.01590743
188	0x3e913b27	0.28365442
189	0x3e49c2e6	0.19703254
190	0x3c4e9874	0.01260959
191	0x3e291c5f	0.16514729
192	0xbe36859a	-0.17824402
193	0xbe426865	-0.18985136
194	0x3e07ba77	0.13254724
195	0xbdca7c61	-0.09887005
196	0x3e0eeeff	0.13958357
197	0x3e613e9e	0.21996543
198	0xbd8a6970	-0.06758392
199	0x3cc51e7d	0.02406239
200	0xbe19820b	-0.14991014
201	0x3e5b69c1	0.2142706
202	0xbc820af4	-0.015874363
203	0x3e4554fc	0.192707
204	0xbea8bf49	-0.3295844
205	0xbd9af163	-0.07565572
206	0xbe01b708	-0.12667477
207	0x3c90a0d4	0.017654814
208	0x3e4a997f	0.19785117
209	0x3e01d18b	0.1267759
210	0xbe2b8557	-0.16750084
211	0x3e795b12	0.24351147
212	0xbcf08eb9	-0.02936493
213	0xbdaf2d41	-0.085535534
214	0x3c7366c5	0.014856045
215	0x3d0bdc0b	0.034145396
216	0x3dd98bc4	0.10622361
217	0x3dc19cee	0.0945376
218	0xbd9a1b7f	-0.07524776
219	0x3cb937b9	0.022609578
220	0x3d8c2a03	0.068439506
221	0x3cc7df25	0.024398396
222	0x3de0a150	0.10968268
223	0x3e61750c	0.22017306
224	0xbd6a31d6	-0.057176434
225	0xbd136cb6	-0.035992347
226	0xbe7f6794	-0.24941856
227	0x3e4840f3	0.19556026
228	0xbc5e8a2f	-0.01358275
229	0xbd54df53	-0.05197079
230	0xbea70a87	-0.3262522
231	0x3d971d08	0.07378584
232	0xbe7b9cbb	-0.24571507
233	0x3dac6924	0.084184915
234	0x3e8b0766	0.27154082
235	0xbdd57fb2	-0.104247466
236	0xbe30f687	-0.17281543
237	0xbd0abb2f	-0.03386992
238	0xbd84e950	-0.06489813
239	0x3d39e0a8	0.045380265
240	0x3cfa88ab	0.030582746
241	0xbd0d21ed	-0.034456182
242	0xbe3b5aa4	-0.18296295
243	0x3dc7aaf4	0.097494036
244	0xbe3e5871	-0.18588425
245	0xbdeff94f	-0.11717474
246	0x3da4fc5e	0.08055948
247	0xbda88020	-0.08227563
248	0xbcd2f5be	-0.025751945
249	0x3e1d7409	0.15376295
250	0xbe4c6e60	-0.1996398
251	0xbe41f9ef	-0.18942998
252	0xbe2c3367	-0.16816483
253	0xbc9adadf	-0.018903194
254	0x3d234469	0.039860163
255	0x3e3fbf65	0.18725355
