pths/net29.pth (torch_old, 34322 bytes, 28 tensors)

AbundanceEstNet.Encoder_0.layers.0.0.conv2d.weight f4 [4, 3, 1, 1]
00000000: 6637 febe 1a6f 86be 1f54 10bf a972 0e3f
00000010: 7f5a 20be f044 2e3f 38a1 2bbf a0b0 3cbf
00000020: e476 20bf 2f75 083f 6c51 a03d be99 f63e
-0.4965164 -0.2625664 -0.5637836 0.5564371 -0.15659522 0.6807394 -0.67042875 -0.7370701
-0.6268141 0.5330381 0.0782803 0.4816417

AbundanceEstNet.Encoder_0.layers.0.0.conv2d.bias f4 [4]
00000000: bd15 0abf 839c 5abe 2376 49be 154d 8c3c
-0.5393942 -0.21348767 -0.19673972 0.0171266

AbundanceEstNet.Encoder_1.layers.0.0.conv2d.weight f4 [8, 7, 1, 1]
00000000: 091b ffbe 8d82 af3e 6b45 b1be c877 cd3e
00000010: e4c2 0d3f c5b1 ba3e 8169 c23e 991c c23e
00000020: 752a c5be bff5 6c3e 851b cdbe 2788 a33d
00000030: 4155 b53d c82e 09bf e152 943e a279 b03b
00000040: 0eb3 623e 6edd bebd 9d6d 353e b4ce 75be
00000050: 5e53 0cbf da94 c6bd 1f0d c7be 6a02 013e
00000060: 61bc 9fbe 1f1f d2be 15ce 88be bc77 253e
00000070: a50f ffbc 6c6d 5b3e a001 31be fcce a03e
00000080: 9eb3 0b3f a3c1 ef3e ed4c b63e ee43 6f3d
00000090: 93c6 a93e 4046 6cbc 05f0 a23e ec9f 8bbd
000000a0: 987a 7a3d 26c1 113f 12cc 8b3d bcb1 9bbe
000000b0: 2c70 813d 7654 cc3e d17e abbe 6640 5ebe
000000c0: d9ed bbbd 3aab 5f3d 4363 403e 7c56 e9bd
000000d0: b354 8abd 5a4c bb3e 64c1 0a3f e107 d53e
-0.49825314 0.3427929 -0.34623274 0.40130448 0.55375504 0.36463752 0.37971118 0.37912443
-0.38508955 0.2314062 -0.40060058 0.079849534 0.088541515 -0.5358701 0.28969482 0.0053855935
0.22138616 -0.09319578 0.17717595 -0.24004632 -0.5481471 -0.0969636 -0.38877198 0.12598577
-0.3119841 -0.4103937 -0.26719728 0.16158956 -0.03113539 0.2142846 -0.17285776 0.31407917
0.5457095 0.4682742 0.35605565 0.058414392 0.33159313 -0.014421046 0.31823745 -0.06817612
0.06115207 0.56935346 0.06826033 -0.30409038 0.06320223 0.3990819 -0.3349519 -0.21704254
-0.09176225 0.054606654 0.18787865 -0.11393449 -0.06754436 0.3658169 0.5420134 0.41607574

AbundanceEstNet.Encoder_1.layers.0.0.conv2d.bias f4 [8]
00000000: 2c08 cfbd 3226 89be 8622 6d3e 046c 203d
00000010: 9025 d43d 0033 d6be 78c8 8ebd b402 2c3e
-0.101089805 -0.26786953 0.23157701 0.03916551 0.10358727 -0.41835785 -0.0697183 0.16797906

AbundanceEstNet.Encoder_2.layers.0.0.conv2d.weight f4 [16, 11, 1, 1]
00000000: 98db bbbd ef45 74bc 71bc 773e 7c09 21bb
00000010: 2853 6cbe 85e6 48be a478 23be 3084 5f3e
00000020: 0b05 a83c f587 b1bd 4262 e7be c881 973d
00000030: 46b2 563e 2328 713e 5c43 e7bd eccb b1bd
00000040: 046f ac3e e18b 8b3e f842 d63d c1c2 3fbe
00000050: 9830 a53d 101e c3be c6db bf3e cf1d 27be
00000060: ee8a b0be 85b4 4dbe 33f5 143e f302 bd3e
00000070: 0c46 603d c168 aa3d 5809 e13e 7d88 ba3d
00000080: 0246 c13e e1fa 083e 1949 88bd 4a79 88bd
00000090: c2c7 8bbe d43a f43d 6132 0b3e f43f 513e
000000a0: de1a 0bbd a211 7a3e 07e5 de3e 0143 9abc
000000b0: 84cc 0b3f 0f73 2cbe 65e9 00be a716 91bd
000000c0: ace0 3d3e d7ab a13e 7c39 6fbe ad39 1d3e
000000d0: adb2 4c3e dd0c 02bd 163e 8d3d ce03 0d3e
000000e0: 06c1 c63d 3b56 4ebe 602d 4abe d2f8 fb3c
000000f0: 8ded 5b3d 5ffb 31be 5e5f 353e c18d f13e
00000100: 56ce 733e af16 3e3d b506 b9be f9e4 6c3d
00000110: db17 edbd eaeb 4cbe 6390 99be 9bf6 03be
00000120: 0106 a33d b772 023e 05c0 0fbd 20c3 823d
00000130: c7cc abbe 4426 973e 528b 8ebe 49f5 18bd
00000140: 5b4a b9bc 55b0 d23e 924a 13be 8f2c 333e
00000150: f6cf ac3e 0806 e63e b12a 8c3e 34c0 f93e
00000160: d5c6 823e 6525 623e da54 bcbd c8eb 6ebe
00000170: e5c2 283d 8642 a63d cd4b 5abe 8fd6 0ebe
00000180: d727 68be b574 0fbd 3a70 ac3e b3ae 82be
00000190: 6f6e b4bd e57b 813e 9050 853e 7558 99be
000001a0: 4196 b8be 619a 81bd 24a5 2ebe 0b50 fa3a
000001b0: d5c3 d23c 4406 f9be 6816 dbbe a964 a1be
000001c0: e1e8 843e 9d28 983e e83e 82be c2fb 5dbe
000001d0: d446 7d3d 6a97 4abe fc4c 473e 9ad0 c8bc
000001e0: 2cec 40be 96f7 c83e d5d8 82bb 9f14 b0be
000001f0: 563e d1be f129 5d3e 1aee acbb 598b 32be
00000200: 20d9 083e 2110 fb3e 4dce 653e dcd2 813e
00000210: c60b 72bd 0121 2dbe b20b 403e 43ce f9bc
00000220: 1808 4a3d fa8d 3dbe ac77 3f3d a5d3 1fbd
00000230: a2cf c9be 04ff ccbe 5d7f 4abd 428b 88be
00000240: b1d7 913e eb28 58be c2fe d7bd 31b8 d6be
00000250: b6c3 103e 3550 993d d692 50be 9875 79be
00000260: 8ddd e5be ded6 ebbd eb20 853e 7edb 9fbe
00000270: a683 34bd 820e c7bd 2512 c8bd 0c8f 043e
00000280: c5dd 56bb 5f3c df3d 8a36 593d ff8b 893e
00000290: 47de e23e 89c2 e33e 8655 79be e175 86be
000002a0: 01a2 303e ebee 753e f589 723e e0da 37be
000002b0: f78d a53e 103a bdbd d662 203e 4867 2b3e
-0.091727436 -0.014909252 0.24192978 -0.0024572304 -0.23078597 -0.19619186 -0.1596399 0.2182777
0.020510217 -0.0866851 -0.45192152 0.07397801 0.20966443 0.23550467 -0.11292145 -0.08681473
0.33678448 0.27255157 0.10461992 -0.18726636 0.08065909 -0.38108873 0.3747236 -0.16319965
-0.34480995 -0.20088394 0.14546661 0.36916313 0.054754302 0.083207615 0.4395244 0.09108064
0.37748724 0.13376953 -0.06654567 -0.06663759 -0.2730084 0.11925283 0.13593437 0.20434552
-0.03396117 0.24420789 0.4353411 -0.018830778 0.5460894 -0.16840766 -0.12589033 -0.07084399
0.18542737 0.31576416 -0.23361772 0.15354033 0.19990034 -0.03175055 0.068966076 0.13770983
0.09704785 -0.20150082 -0.19743872 0.030758295 0.053693343 -0.17381047 0.17712161 0.47178462
0.2380918 0.04640835 -0.3613793 0.057835553 -0.11576816 -0.20011869 -0.2999297 -0.12887041
0.079601295 0.12739073 -0.035095233 0.063848734 -0.3355467 0.29521382 -0.27840668 -0.037343297
-0.022618463 0.41150156 -0.14383915 0.17497467 0.33752412 0.44926476 0.2737632 0.48779452
0.25542322 0.22084577 -0.09195872 -0.23332131 0.04120149 0.08118157 -0.21317978 -0.13949035
-0.22671448 -0.03502341 0.33679372 -0.2552391 -0.08810126 0.25289837 0.26038027 -0.299503
-0.36052135 -0.063282736 -0.17055184 0.0019097341 0.025728146 -0.48637593 -0.42790532 -0.3152211
0.25958923 0.29718485 -0.2543862 -0.21678069 0.061835125 -0.19784322 0.19462961 -0.024513531
-0.18840092 0.39251393 -0.0039931335 -0.34390733 -0.4086787 0.2159803 -0.0052774074 -0.1743597
0.13364077 0.49035743 0.22441979 0.25356185 -0.05909326 -0.16907121 0.18754461 -0.030493861
0.049324125 -0.18511191 0.046744987 -0.0390202 -0.39416224 -0.4003831 -0.04943787 -0.26668745
0.28484872 -0.21109359 -0.10546638 -0.41937402 0.14137158 0.074860014 -0.20368513 -0.24361265
-0.44895592 -0.11515592 0.26001677 -0.31222147 -0.044070862 -0.09719564 -0.09769086 0.12945193
-0.0032785994 0.10900187 0.053030528 0.2686462 0.4431021 0.44484356 -0.24349031 -0.2626181
0.172493 0.24016921 0.23685439 -0.17954588 0.32334873 -0.0923959 0.15662703 0.16738617

AbundanceEstNet.Encoder_2.layers.0.0.conv2d.bias f4 [16]
00000000: fc17 e03d f38a 9ebe 29ff 653e 3205 933e
00000010: 9905 5fbe 5d26 9c3b 7bd2 28be 98e4 833e
00000020: 136e 223e fb4a 903e 0e01 183e e776 cf3c
00000030: 6a84 323e b81a 7abd 4108 04bd 7fe2 0b3e
0.10942075 -0.30965385 0.22460617 0.287149 -0.21779479 0.0047653154 -0.16486542 0.2576034
0.15862302 0.28182206 0.14844152 0.025325252 0.17433324 -0.061060637 -0.032234434 0.1366062

AbundanceEstNet.Encoder_3.layers.0.0.conv2d.weight f4 [24, 19, 1, 1]
00000000: 3702 a53d e077 d5bd 1017 32bc b8b6 23be
00000010: bcd9 ebbd 51dd 29bd 109a 34be b8d6 29be
00000020: 69fd 6a3e ae31 2fbe 072a 853e 4306 abbd
00000030: dc19 2e3c f3eb 103e 3e2d 5b3d 77ae 9bbc
00000040: e564 2cbe 634a 95bd 7b58 5a3e e0bd 9ebe
00000050: 78a8 1a3e d8d6 dd3d 489e 9b3d ea55 423e
00000060: e754 683e ea15 b7bd 86d7 993e 93d7 243e
00000070: d167 4ebe 3e5f 4cbe 9976 ff3e 808f 9ebc
00000080: 5cae 5abe c7f1 533e 9c1c c83d 63a6 913d
00000090: a411 303e bfcd ad3e 9908 af3d f4d3 743d
000000a0: 77d4 1ebe 5eca 5d3e f0ba 0cbe 2889 c5bd
000000b0: 3e5d eebd 164d f8bd 0883 cd3d 221c 13bc
000000c0: 44bb b9bd fa65 7cbe 0c09 503e 7dfd 163e
000000d0: a7ad 623d eefd 4dbe 2cab 013d 04b9 f9bc
000000e0: 010c 75be 0c23 023e 5f4d 12bd bbc6 d5bd
000000f0: 600e 46bd dc69 a13d c7c8 38be 848d 8cbd
00000100: ced8 00be 78ca b1bd 2473 ab3e 4c55 543e
00000110: a580 59be 0a94 743e a373 06be c642 aabe
00000120: 8acf 45be 1399 3cbd e345 7abe 4705 ce3b
00000130: ba2a 94bc a072 8f3d 718d 933e 1d0c 03bc
00000140: 2332 a03e 167b 853d 7a9f 93bd d5e9 703e
00000150: ce1c a1bd e59d 1abd 29ec 65be 5f5e 823e
00000160: 5ec5 c23d 06a2 993d 43e5 1a3d f7dd ca3d
00000170: a8c8 4e3e 5759 bf3e ee3f 963e 39f5 a83e
00000180: a4ad db3d fdbc 69be 361a 2a3e 9058 3abe
00000190: 297d ab3d 370e 0e3e 9dd5 17be 2ec1 85bc
000001a0: b68a 253e afc6 4a3e b5c1 b0be 61ae c33d
000001b0: f1f7 113e 7731 64bb a5fb bb3d a88c e9bc
000001c0: 862b 9cbe 8571 8f3d ca4f 96be 86d2 33be
000001d0: 4976 163e 075d 263e 0180 503e e2f7 6d3e
000001e0: 4f03 4ebe a0a4 de3d f052 243e 32ef 63be
000001f0: e4b5 a0be 3feb bb3e a259 40be 46a6 88be
00000200: 3acb 9c3e 7c3e 09bd e68d d43c baa2 ce3e
00000210: 3ca0 d23d 5716 ef39 ee63 723e 1b97 bfbd
00000220: ea8f 543e 2aec 413e 3a8e 2e3e 9e54 893d
00000230: 8a40 e1bd 85cb 083e 35e1 1fbe dab7 fabd
00000240: 77a0 cebd a30f bd3d 63bf 043d e20d 253e
00000250: f2d6 123e e1d8 a73c 1f8c 073e f202 2dbe
00000260: f4ec 4dbe 6b43 24be b1eb ed3d 0e59 543e
00000270: 6eb8 19bd 7177 0f3e c0d2 0fbe 61ad a3ba
00000280: 2146 e9bc 7cd8 c4bd 5947 32be 4b40 0a3e
00000290: ee66 2bbd 660a 5dbd 5961 1d3e f874 40be
000002a0: 9980 443e 8796 763e 8ef3 eebd cd64 5bbe
000002b0: 620f 8bbd 1a04 82bc 43a6 583e e73f 11be
000002c0: 9f94 59ba 5883 9abd b76a 8a3d 13de 98bd
000002d0: ef82 fa3d 97bf a63d 3f8d 2b3e e706 513e
000002e0: 629c 6cbe 496d 8c3e 6e22 fbbc ed43 9b3e
000002f0: af0c 8e3e 6536 d8bd 4478 2cbe 732f 0fbe
00000300: b698 ab3e 2d28 323d a999 8a3e 1cf1 c43e
00000310: 2451 6dbe fde3 653e a2ca 16be 2f3e 38be
00000320: 9e80 6ebe 8106 503d 1175 90be dfd1 9fbe
00000330: f027 aabb 547c 24bd e29d a53d 431e 9d3e
00000340: 0bef 013e a4b4 97be 321e 75be 6298 a43e
00000350: f0ef edbd 38b4 68bd 86fa 623c efa1 0d3c
00000360: e24c 923e 74e1 073e 2cf4 11be de0d bfbd
00000370: dc68 503e 15b9 c53d 6cae 07be 96f3 e2bb
00000380: 6047 143e dba8 0f3e d332 213e 8894 823e
00000390: e125 70bd 01e2 24bd 441d b13d 5bb2 2d3e
000003a0: 15f0 27be 6cc5 9ebd 0741 80be 718d 333e
000003b0: 0f06 843e b84a 823e 0a46 e13d 1b26 b33c
000003c0: ef44 ab3d 1f31 9bbe 825b d13c 9d0f dcb7
000003d0: f74c 8a3d 5f83 643e fa84 503c 20f5 78be
000003e0: 600c 1a3e 6bed 5bbe d271 77be 65e5 193c
000003f0: 2fc5 63be fd8b b23e 6c26 ecbd 6083 8cbe
0.08057063 -0.10423255 -0.010869756 -0.1598767 -0.11516139 -0.04147083 -0.17636895 -0.16585815
0.22948231 -0.17108795 0.26008627 -0.08350804 0.010626283 0.14152507 0.053509943 -0.01900409
-0.16835363 -0.07289579 0.21322815 -0.31004238 0.15103328 0.10831994 0.07598549 0.18978086
0.22688638 -0.08939727 0.30047244 0.1609786 -0.2015679 -0.19958207 0.4989517 -0.019355536
-0.21355575 0.206977 0.09771082 0.07111814 0.1719423 0.33946034 0.08546562 0.059772447
-0.15510736 0.21659228 -0.13743186 -0.09645301 -0.11638878 -0.12124078 0.10034758 -0.008978875
-0.09068921 -0.24648276 0.20315951 0.14745136 0.05534139 -0.20116398 0.031657383 -0.03048373
-0.2393036 0.12708682 -0.035718318 -0.104382955 -0.048353553 0.07881519 -0.1804534 -0.068629295
-0.12582704 -0.08681196 0.33486283 0.20735663 -0.2124048 0.23884597 -0.1313005 -0.3325407
-0.19317451 -0.04604442 -0.24440722 0.00628725 -0.01808678 0.07004285 0.2881885 -0.0079984935
0.3128825 0.065176174 -0.07208152 0.235267 -0.07866822 -0.037748236 -0.22453369 0.25462624
0.09510301 0.07501607 0.037816297 0.09905618 0.20193732 0.37372848 0.2934565 0.3299959
0.10726479 -0.22826 0.16611561 -0.18197846 0.08373482 0.1387261 -0.14827581 -0.016327467
0.16166195 0.19802354 -0.34522787 0.095547445 0.14254738 -0.0034819522 0.09178857 -0.028509453
-0.30501956 0.07004074 -0.2935775 -0.17560777 0.1469356 0.16246425 0.2036133 0.23239091
-0.2011845 0.108712435 0.16047263 -0.22259215 -0.31388772 0.36702916 -0.18784192 -0.26689357
0.306238 -0.033506855 0.025946569 0.40358526 0.102844685 0.00045602277 0.23670933 -0.09354993
0.20758024 0.18937746 0.17046443 0.067055926 -0.10998638 0.13358887 -0.15613253 -0.12242098
-0.100892 0.09231498 0.032409083 0.16118577 0.14339808 0.020489158 0.13237046 -0.16895655
-0.20109922 -0.16041343 0.1161722 0.20737097 -0.0375294 0.14010407 -0.14045238 -0.0012487584
-0.028475823 -0.096116036 -0.1741003 0.13501088 -0.04184621 -0.053964995 0.15369166 -0.1879462
0.19189681 0.24080859 -0.11667548 -0.21425171 -0.067900434 -0.015871096 0.21157174 -0.14184533
-0.00083000393 -0.07544583 0.067586355 -0.07464232 0.12232005 0.081420116 0.167531 0.2041279
-0.2310653 0.27427128 -0.030656066 0.3032526 0.27744052 -0.1055725 -0.16842753 -0.13982944
0.33514947 0.043495346 0.27070358 0.38465202 -0.23175484 0.22450252 -0.14725736 -0.17992471
-0.23291251 0.050787453 -0.28214315 -0.31214806 -0.005192749 -0.04015763 0.080867544 0.3068715
0.12688844 -0.29630005 -0.239373 0.3214751 -0.1161803 -0.056812495 0.013853675 0.008644565
0.28574282 0.13269597 -0.142533 -0.09328817 0.203525 0.09654442 -0.1325013 -0.0069260104
0.14480352 0.14029257 0.15742044 0.25503945 -0.058629874 -0.040254597 0.0864816 0.16962568
-0.16400178 -0.07752499 -0.25049612 0.17534424 0.25785872 0.2544763 0.10999687 0.021868756
0.083627574 -0.30310914 0.02555633 -2.6233314e-05 0.06752961 0.22315739 0.012727017 -0.24312258
0.15043783 -0.21477287 -0.24164513 0.009393071 -0.22243188 0.34872428 -0.11530766 -0.2744398

AbundanceEstNet.Encoder_3.layers.0.0.conv2d.bias f4 [24]
00000000: 7a2d dfbd a50d d4bd 5f9a 4d3e 26d0 0c3e
00000010: 8295 babd b0ae 43be e512 123e 52a8 1cbe
00000020: a0ea 78be a1da 05be 94ec ad3d 8696 ed3d
00000030: 8a4c 723d 09fc b3be 0ba1 2b3d 5669 59be
00000040: 2979 173e f12c 0abd f36d 05be 39ca 7ebd
00000050: 1314 0cbe cec5 623e d46f 03be 5a8f 323e
-0.10897346 -0.10354165 0.20078419 0.13751277 -0.091105476 -0.19109607 0.1426502 -0.15298584
-0.24308252 -0.13071682 0.08492389 0.11600976 0.059155025 -0.35153225 0.04190163 -0.21231589
0.14792313 -0.033734266 -0.13030224 -0.062204573 -0.13679533 0.22145769 -0.12835628 0.17437497

AbundanceEstNet.Encoder_4.layers.0.0.conv2d.weight f4 [16, 27, 1, 1]
00000000: 2c76 23be 57a3 ba3d 080f 6dbe 00f2 ccbc
00000010: 4c90 453d 9dd9 50bc 0758 f13d 17a8 803e
00000020: e2fa 95bd ea94 3c3e fa55 0bbe aba7 03be
00000030: c018 46bd a6b8 3d3e 64ff 0b3e d16a 3fba
00000040: f2ab 04be d610 95bd 46c8 1bbd ff32 8e3d
00000050: 5a14 a13d c33f 68bd cf05 1bbe b234 faba
00000060: 0d59 0b3e fc37 083e 3548 963c baee 343e
00000070: e02f ca3b 8ed2 153e 4ce7 f23d b1b7 453e
00000080: c70f ae3d f7c0 0bbe 41aa c93d 2067 11be
00000090: 8c19 acbd 676b e2bd 735b 9bbd 95a7 29be
000000a0: cabd 1e3e cf51 3abd aa1b f13d 6f99 463e
000000b0: a270 bd3d d9f9 1d3e 134b dabc e427 3ebe
000000c0: 531a ee3d f7ee 37be 73c7 683d b8ab 98bd
000000d0: cbf9 083e d05b 093e eb1f d2bb 36d2 88bd
000000e0: 03ba 123e 9123 72bd dfb1 1cbe d860 fbbd
000000f0: 1bf4 3cbe ae29 143e 3b6e 0f3e ff63 41bd
00000100: 3c48 ae3d 8f91 d13d 2e19 aebd 848d 143d
00000110: 5ee2 1cbd 483b b7bd de37 f4bd ec7a c6bd
00000120: 6875 4ebc 4167 dcbc 379f 13be d47c 31be
00000130: c951 c7bc 9095 9c3d 7cb5 5d3d d6f6 0ebe
00000140: a263 c33d 49cb 47bd d685 1b3c b846 803d
00000150: cc99 ee3d 526e 1e3d 7472 e0bd c9a9 86be
00000160: 2eb8 393d 6188 603e 87ec e2bd eab6 5e3d
00000170: 0109 31be 01e8 73be e090 803e 46e6 5dbe
00000180: 921e 203e 3e50 5d3c bcab 8d3d 4ff9 acbd
00000190: e148 dc3d d7f7 553e d5a2 033d 6bce 7f3e
000001a0: 446f 1f3e 5ae9 953d 7223 d73d 9653 063e
000001b0: 581c 123e aba8 cb3d fe11 3cbe 7517 583d
000001c0: eeb7 523c e975 673d 5499 353d 85af f03d
000001d0: 842b 1fbe b782 f9bd 8fc1 703c df83 2a3e
000001e0: d5aa 03be ff41 ccb7 9b49 41ba c5d8 33be
000001f0: 33ae 4bbe 0129 4bbe 8f79 12be 373d 41be
00000200: a258 83bc b022 c23d 7a3b f8bd 087b febd
00000210: f60b 58bd 28ca ae3d 2585 213e b687 b4bd
00000220: e946 b7bd 6d07 813d 8b20 38be 8daa e93d
00000230: 492d 98bd 5e71 b13d b879 183e 6bd4 2f3d
00000240: de04 40be 4823 67bd 5b21 283e afcf 35be
00000250: 227c 243e f2e2 15be 1555 2bbd 5bb2 093e
00000260: 2306 3abe 11d8 35be fd8b 1ebd 8b0e 12be
00000270: f930 80bc 1fab 003e 2bc6 c73d ed5d 33be
00000280: d2a8 4ebd 0d5f 15be 3507 8abd f45d ad3d
00000290: 3ecc a03b e266 6d3e bc4a 4a3c 6c82 a5bd
000002a0: 1f6e 0c3c 5c01 c1bd 66d5 19be fe74 14be
000002b0: 5b50 f13d 77fe 1dbe 2cc9 b83d eb3d 8bbd
000002c0: 93b5 eb3d c952 7dbd 4a72 843d c1e9 1dbe
000002d0: e92b 98bd 5b70 acbc b675 a13c 0c48 0bbd
000002e0: f086 9a3c e790 a93b 13b7 a33d c717 74be
000002f0: 3232 3fbe 1603 dc3d aeb3 7bbd 12d7 a6bd
00000300: 46a6 2b3d e02b fe3d f178 03be 22d2 523d
00000310: 58af d53d 34dc adbd 8462 a1bc 2e64 0fbe
00000320: 9800 f1bd 6468 29be 82f8 523e 2599 053e
00000330: 993d a33d 2643 103e 4970 ff3d 9ee6 ca3d
00000340: faea 7f3e 39f5 e73d 90fc 2dbe 4665 7c3e
00000350: 8993 143d 4fbf c7bd 972f aa3c 8c2c 09be
00000360: d0b1 87bc 436e d43c 1f8f f0bd 830c 84bd
00000370: 227c e9bb 0b88 843e 24bd f9bd 1813 9d3d
00000380: 0c41 ba3d 3fa5 73bd 4f07 fc3b 4ca5 5fbe
00000390: 8bb8 99bb afdc 8c3e 9b92 f03d aa9d cd3c
000003a0: 2fff eabd a113 503d d4bc 3c3e 2df4 033e
000003b0: 2f5b d3bd 7e63 1d3e 9c89 d7bd 964d 623d
000003c0: 8249 4f3e a9a6 aebd 7554 29bd 3f6d bd3d
000003d0: eabc 0bbc 11ed 253d cf8e db3d 6f3e 87bd
000003e0: 300d 263d 003e 04be b945 f13c bf65 23be
000003f0: 58b8 773e 6d9a 51bd 61f8 a53b 15d7 583c
-0.15963048 0.09113186 -0.23150265 -0.025017738 0.048233315 -0.012747196 0.11784368 0.25128242
-0.07323243 0.18416181 -0.13607016 -0.12856929 -0.048363447 0.18527469 0.13671643 -0.00073019887
-0.12956217 -0.07278602 -0.038032793 0.069433205 0.0786521 -0.056701433 -0.15138935 -0.0019089191
0.13608189 0.13302606 0.018344978 0.17669192 0.006170258 0.14631101 0.11860523 0.19308354
0.08499103 -0.13647829 0.098469265 -0.14199495 -0.0840331 -0.110556416 -0.07585802 -0.16567834
0.15502086 -0.045488175 0.117728546 0.19394468 0.09249999 0.1542734 -0.026647126 -0.18569905
0.11626115 -0.17962252 0.056830835 -0.07454628 0.13376538 0.1341393 -0.0064124963 -0.066807196
0.1432877 -0.05911595 -0.15302227 -0.12274331 -0.18452494 0.14469025 0.14006893 -0.047214504
0.08509871 0.10232841 -0.085008964 0.036267772 -0.038301818 -0.08946854 -0.11924718 -0.09691414
-0.012601234 -0.026904704 -0.14416204 -0.17332774 -0.02433099 0.07645714 0.054128155 -0.13961348
0.09540488 -0.048777852 0.009492358 0.062634885 0.11650428 0.03867943 -0.1095933 -0.2630141
0.045341663 0.21927024 -0.1108027 0.05437366 -0.17288591 -0.23818971 0.2511053 -0.21669874
0.15636662 0.013507901 0.06917521 -0.08445989 0.10756088 0.20895325 0.03213771 0.24981086
0.15569788 0.07319899 0.105048075 0.13117823 0.14268625 0.0994428 -0.18366238 0.052756745
0.012861235 0.056508932 0.04433568 0.11752228 -0.15543944 -0.12183135 0.014694585 0.16651867
-0.12858136 -2.4349427e-05 -0.0007373334 -0.1756316 -0.1989067 -0.1983986 -0.14304183 -0.18871008
-0.016033474 0.09479272 -0.12120719 -0.1242581 -0.05274578 0.08534652 0.15773447 -0.08814947
-0.08949072 0.063002445 -0.17981164 0.11409483 -0.074305125 0.08664201 0.14890182 0.042927187
-0.18751857 -0.05643013 0.16418974 -0.17755006 0.16062978 -0.14637354 -0.041829187 0.13446943
-0.18166403 -0.17758204 -0.038707722 -0.1426336 -0.015648352 0.12565278 0.097545944 -0.17516299
-0.05045397 -0.1458704 -0.06739656 0.08465186 0.00490716 0.23183778 0.01234692 -0.080815166
0.008571177 -0.094240874 -0.15022811 -0.14497754 0.11782905 -0.15429102 0.090227455 -0.06798919
0.11509242 -0.06184653 0.064671114 -0.15421201 -0.0743025 -0.021049669 0.01970945 -0.034004256
0.018863171 0.0051747444 0.07993903 -0.23837195 -0.18671492 0.10742776 -0.061450653 -0.0814649
0.041906618 0.12410712 -0.12839104 0.05146993 0.10433835 -0.08489266 -0.019700296 -0.1400306
-0.117676914 -0.16543728 0.2060261 0.13046701 0.07970733 0.14088115 0.124725886 0.09907268
0.2499198 0.113260694 -0.16990876 0.24648008 0.036273513 -0.09753286 0.020774646 -0.133959
-0.01656428 0.025931483 -0.11746048 -0.06447699 -0.0071253935 0.25885043 -0.12194279 0.076696575
0.09094438 -0.059483763 0.007691301 -0.218404 -0.0046911887 0.27512118 0.11746713 0.025099594
-0.11474454 0.05079997 0.18431407 0.12886114 -0.10320126 0.15369985 -0.10524294 0.055249773
0.20242885 -0.08527882 -0.04134031 0.09249353 -0.008528927 0.040509287 0.10720598 -0.06603705
0.04053992 -0.12914276 0.029452192 -0.15956782 0.24191415 -0.051172663 0.0050650095 0.013234873

AbundanceEstNet.Encoder_4.layers.0.0.conv2d.bias f4 [16]
00000000: 5247 2bbe 714d 213d 8729 05be 2502 b63d
00000010: e0aa c03c c669 25be 3979 20be 2e74 b43d
00000020: 7d22 393d d0b3 08be 4160 943d aac1 023d
00000030: f067 83bd f617 ac3d 8fc6 ffbd b8ce cfbd
-0.16726425 0.039380495 -0.13004123 0.08887128 0.02351898 -0.1615363 -0.15671243 0.08811222
0.045198906 -0.13349843 0.072449215 0.031922974 -0.06416309 0.08403008 -0.12489044 -0.1014685

SpectralMeanEstNet.SpectralGenMean.layers.0.0.weight f4 [18, 16]
00000000: 7f5b b43d d1d0 3f3e 2821 56be 81be 373e
00000010: 8591 373e 742a 5f3e 7422 9bbd f373 abbc
00000020: fba9 123e 38e8 85be 8a3a 3cbe b64c 30be
00000030: 1e27 0ebe b51b 81bd 82cd c7be 2720 55be
00000040: 98de 38bd 3a5a 963e 9c23 573d 4f44 9fbe
00000050: e234 ae3d 4a76 153e 7163 a7be 92db f93d
00000060: 634c d13c fd5f 9d3d 6f71 9e3d 0e9d b1bd
00000070: 5880 25bc 47b7 8dbd cbb1 3d3e 7bea 43bc
00000080: f1b9 ce3b e51c 82be 2d14 92be 2e83 7a3c
00000090: 0c81 3a3e 344c 233e 46c1 c5bd e76c a23d
000000a0: 1f53 85be 8022 93be 6b6a 83be 1a5e 713e
000000b0: 4fba c0bd 248b dcbc db77 9dbc 9a4a 3cbe
000000c0: cf08 c13c be2a 80be e026 3ebe 130c 9c3e
000000d0: 543d 77be 9289 fcbd 91e8 993d 0001 71be
000000e0: 1430 1e3e 1370 cf3c cbc0 853e d22d 803e
000000f0: 03c2 263e 184c 11be 2444 69be 8002 1f3e
00000100: ec20 943e feb6 1ebd d764 f9bd 5c48 2d3e
00000110: 656a 82be e518 a3be c483 9bbd d1b3 6dbd
00000120: def3 babe a271 1b3e 1786 873e c399 c0bd
00000130: 7be8 933d 28af 683e 1c22 33be f80e d93d
00000140: fcbe 7ebe 91fb 40bc 5edd a33d 68a3 c1bd
00000150: 6eac 833e eedf a73d 0d2e 87be dd82 b5bc
00000160: a519 38be 1a0e 8abe 4ad5 013e d6b2 533d
00000170: 791a 64be a748 9f3d 1b37 dabd 6b10 103e
00000180: e6e4 09be c24c a23e 8316 ba3d 2432 91be
00000190: f948 57be a32d 5dbb b52d 913e 9be1 1f3e
000001a0: 30d6 433c 066c 473e a374 1d3e 2618 613e
000001b0: 2730 5cbe e8dc 64bd 5572 98be 4db8 e4bd
000001c0: 6a1e 76be 29c6 a0be 1439 323e a9f8 97bd
000001d0: 62c8 813e 45b4 c7be b340 2b3a fbde 853e
000001e0: 9ee7 7a3d 98b3 933e 73c7 b83e fd70 c0be
000001f0: dc6c 923c 084d 76be c925 183e 7f5e d7bd
00000200: f765 573d 470a b23d 7fcb fb3d a628 4a3e
00000210: dc36 5dbd 9218 b6be fa18 0c3e 368e 8abe
00000220: 0f2d e93d 06b3 03be eafd 1c3e 4c46 a7be
00000230: a568 96bd add3 20be 8049 94bd 8081 f2bd
00000240: 485b 9d3e 3055 c83d 957a f53d 31d7 863e
00000250: 0a7b 86be 9081 af3d c50b 82be 29f0 993e
00000260: a3b9 273e 7c30 f23d 4bc2 3d3e 6205 dabd
00000270: 1570 39bd eacc 4b3d 2d2f b13d 2853 333e
00000280: 02ee 99be 4194 35bc 2854 36bc 1fbf efbd
00000290: b829 7dbe f5bb 97be d2c3 b8bd a734 9abe
000002a0: 9c3b 313e c8c2 f43b d853 02be eb4f d73d
000002b0: 5ab1 663e a4b7 b13d c344 01bc d5b9 8e3e
000002c0: a916 a03e aeb9 cfbd e8a6 9c3e 1159 82be
000002d0: b963 003d b213 243e 3173 8e3e 8701 243e
000002e0: 0a17 9a3c 0796 3cbe b55b 81be dd41 e33b
000002f0: b538 a73e 915a b33d 71fd 003e 92c7 6f3e
00000300: 5e46 1f3e 4c05 91bd c388 e7bd 5ab0 583e
00000310: 4f72 40bd 4905 b03e 3463 573e 7e6f 69be
00000320: d7d4 d53e ba4f aebd abdc 57be 4145 a13e
00000330: d1b7 4fbe dd3d 4fbc f15b 373e 86b1 9b3e
00000340: 7dc0 58be 2741 bebd 6863 d3bd 2daa 57be
00000350: 5ccc 1b3d c465 813d 054a 7b3d 8563 483e
00000360: eb9a 2cbe eb1a 943d cf52 113e 59af 43be
00000370: bbc2 2abe 7ccf e4bd 28c1 353e 3035 1ebe
00000380: 650c 67be 82dd 14bd 070e 4fbe e5fe 1bbe
00000390: 37f2 71be 627d 693e dce5 8e3e 3a54 97be
000003a0: dfb4 94be 518c ff3c 7f38 8ebe f3b1 47be
000003b0: 6dcc 23be e981 79bd 2fcf 7a3e 95a4 483e
000003c0: 2958 72be c3a9 98be d273 4dbe eaa0 713e
000003d0: bb97 1dbe eab6 6e3e af1c 69bd 330d 143e
000003e0: 5fc3 103e 01b7 5e3e 9797 063e cb59 a13e
000003f0: 03b7 b93d 704b d0bd 50fd 3c3c fbeb 833e
0.08806514 0.18732001 -0.20911086 0.17943765 0.17926605 0.21793538 -0.07574931 -0.020929312
0.14322655 -0.2615373 -0.18381706 -0.17216763 -0.1388211 -0.06304113 -0.39023978 -0.20813046
-0.045134157 0.29365712 0.052524194 -0.31106803 0.0850618 0.14595905 -0.32693055 0.12200083
0.02554912 0.07684324 0.077364795 -0.08672534 -0.0101014 -0.06919723 0.18524854 -0.01195776
0.006308787 -0.2541267 -0.28531018 0.015290065 0.1821329 0.15947038 -0.096560046 0.07930928
-0.2603998 -0.2873726 -0.25667128 0.23571053 -0.094105355 -0.026921816 -0.01922219 -0.18387833
0.02356377 -0.2503261 -0.18569517 0.30477962 -0.24144489 -0.12330927 0.07515062 -0.23535538
0.15448028 0.025321996 0.26123652 0.25034958 0.16284947 -0.14189184 -0.227799 0.15528297
0.28931367 -0.038748734 -0.12177437 0.16922134 -0.25471798 -0.3185493 -0.07593492 -0.058032814
-0.3651418 0.15180066 0.2646949 -0.09404328 0.072220765 0.22723067 -0.1749348 0.10598558
-0.24877542 -0.011778728 0.08001207 -0.094549954 0.2571749 0.08197008 -0.2640232 -0.022157127
-0.17978533 -0.26963884 0.1267902 0.051684223 -0.22275724 0.07777529 -0.10655042 0.14068763
-0.13466224 0.31699187 0.09086325 -0.28358567 -0.2102393 -0.0033749125 0.28355184 0.15613405
0.011952922 0.19474801 0.15376525 0.21981868 -0.21502744 -0.055874735 -0.29774728 -0.11167965
-0.2403504 -0.31401184 0.17404586 -0.07420475 0.25348192 -0.39004722 0.0006532773 0.26146683
0.061256044 0.28847957 0.36089668 -0.37586203 0.017874174 -0.24052823 0.14858164 -0.105160706
0.052587476 0.086933665 0.12294673 0.19742069 -0.054007396 -0.3556562 0.13681403 -0.27061623
0.11385547 -0.12861261 0.15331236 -0.3267082 -0.07344178 -0.15705748 -0.072405815 -0.118411064
0.30733705 0.09781873 0.11986271 0.26336053 -0.26265746 0.08569634 -0.25399604 0.3006604
0.16379409 0.11825654 0.18531148 -0.10645558 -0.045272905 0.04975597 0.08651576 0.1751219
-0.30064398 -0.01108271 -0.011128463 -0.11706375 -0.24722946 -0.29635587 -0.09021725 -0.30118296
0.17307895 0.007469509 -0.12727296 0.1051329 0.22528592 0.08677605 -0.007889929 0.27876154
0.31267288 -0.101428375 0.3059609 -0.25458577 0.031345103 0.16023138 0.2782226 0.16016208
0.018809814 -0.18416606 -0.2526528 0.0069353417 0.32660452 0.087575085 0.1259668 0.23415974
0.15554187 -0.070810884 -0.11305382 0.21161023 -0.046984013 0.34379032 0.21033937 -0.22796437
0.41763946 -0.085113004 -0.21080272 0.3149815 -0.20284964 -0.012649027 0.17906167 0.30408877
-0.21167178 -0.092897706 -0.103216946 -0.2106101 0.03803669 0.063182384 0.061349887 0.19569214
-0.16855972 0.07231697 0.14191745 -0.19109859 -0.16675846 -0.11172387 0.17749465 -0.15449977
-0.22563322 -0.03634406 -0.20220195 -0.15233953 -0.23627554 0.22801736 0.27909744 -0.29556447
-0.29044244 0.031194838 -0.27777478 -0.19501476 -0.15995951 -0.060914908 0.24493097 0.19594033
-0.23666443 -0.29817018 -0.20063713 0.2359654 -0.15389912 0.23311964 -0.05691212 0.1445816
0.14137028 0.21749498 0.13143764 0.3151382 0.0906811 -0.101706386 0.011535004 0.25765976

SpectralMeanEstNet.SpectralGenMean.layers.0.0.bias f4 [18]
00000000: 7129 bfbc 9515 39bd d0df 12bc 50c7 1bbb
00000010: b2c6 483e e847 6ebe 9c99 69bd 7070 66bd
00000020: 62df 49bd 4a47 febc 698c 60bd 8c3f d6bc
00000030: 2149 53be 9110 f63d 31bd 11bd fa4a febc
00000040: 30d3 fbbc 6c4c 96bc
-0.02333519 -0.045186598 -0.008964494 -0.0023769923 0.19607046 -0.23269618 -0.05703126 -0.056259573
-0.0492853 -0.031039853 -0.054821406 -0.026153348 -0.20633365 0.120148785 -0.035580818 -0.031041611
-0.03074035 -0.018346988

SpectralMeanEstNet.SpectralGenMean.layers.1.0.weight f4 [22, 18]
00000000: 182d 29be 06c1 603c b19f b7be 02b8 5ebe
00000010: 89e7 24be 05af 94bd ecf4 94be 2d32 27be
00000020: ac5a 2dbe 6f1a 77be 4f68 993d 132b 3cbe
00000030: f86d 013e de16 543e b6d3 0dbe 16a3 ebbd
00000040: 76b1 be3d 9b0b 94bd 3b10 b63e 85b7 293e
00000050: 019f 8e3e d9a9 0fbe 53e8 febc 3db7 4e3e
00000060: a5bf 9a3d 59cb 6cbe 3d48 153e e97c 033e
00000070: b641 ea3c 914b 813e 21f2 2e3e 0cb6 11be
00000080: 58fd 6f3d 6855 a5bd d07c 853e a544 f8bc
00000090: 0535 ea3c 7b52 163e 9763 9e3e b47a 783e
000000a0: fc8a 80be 29af 21be 236f a83e ea24 6abd
000000b0: 372d 28bd bb7b f83c 0203 b63e 065d ec3d
000000c0: c599 603e b4c5 9abe cb39 7f3e d8c5 8a3e
000000d0: cc2d 9d3e 843b 573e 96b8 ab3c 8144 09be
000000e0: 6586 033e 24e6 6b3e c990 49bd 6fb1 ab3d
000000f0: 8f21 a73d 50e2 ab3b 3b9a 2c3e 9142 913e
00000100: c757 183e b323 8c3d 7979 c23d d507 0a3d
00000110: 6f45 cebc 508b 803d 2af6 293e 3b78 a2bd
00000120: dc5d b7bd d29c 8abe 6967 94be ef8f e4bd
00000130: 10d1 82bd b3df 673d 3f4d 17be 2167 03be
00000140: 7913 e0bd db03 d9bd bf69 81be 6c1c 02bd
00000150: 1e09 8b3d 1c61 03bd d1f8 aebd 7b28 073d
00000160: 684b 303d 8235 d9bd 28ca 70bd 5d52 8bbc
00000170: c4e3 0b3e 544f 25be 7318 46be 422e 3cb9
00000180: 584d 493d 3fce b93d 2ef8 4b3e 9aa2 803e
00000190: cc4f b23e b6b9 02bd e569 3cbe 80f8 2a3e
000001a0: bb02 953e 260e aa3e 1397 533e f866 903e
000001b0: 1dbd 633c 64d9 25be 033c 50be c910 70be
000001c0: 521f 88bd 8fe1 27bd 300f 423d bf27 953c
000001d0: d8d2 3ebe ec90 69bd 77fd ec3d 9972 fa3d
000001e0: 3b90 9b3b 1ca0 98bc ad67 52bd 9584 c63c
000001f0: a2bb 66be 813d bf3d a128 e33d f754 51bd
00000200: b5d0 893c 5d4c 83bd 55c9 24be 9ab4 b8bd
00000210: 0da5 56be 0336 3e3e faf8 b33c 3e20 dc3d
00000220: c07b 25be 6fba c93c d726 40be 317b ac3d
00000230: a4e3 08be a9f4 59be e7af 743e 09bd debd
00000240: e037 b33e 9ad0 693e 1dd1 993e 1b11 973e
00000250: 66a5 febc 8ef4 a6bc ee5f 473e f1e6 923e
00000260: e3bd 4fbd 81e3 a7bc 3e40 1f3e 1b95 523e
00000270: a4e9 87be 7047 a63e 74e2 923e 0854 a73e
00000280: 759c 343d b174 ffbc 0c69 543e 70c2 9c3e
00000290: 5d18 b73e 3fce 83bd 2bb8 903e 9e9c 8abd
000002a0: 0eee 0ebd 152a 833e 51d8 903e 0236 483e
000002b0: 835c 89bd a3f1 c93e 99e9 08be 431e 9f3d
000002c0: eb91 ea3c 48ad 05be 7ef9 de3d debb 553e
000002d0: 3a01 2d3e edac 2b3d 5f6c a33e 3c10 923d
000002e0: 8d62 f8bd e3fa 2fbd 10a5 8b3d e97a 873e
000002f0: 6a98 b03e 2e4a 363e 940a b23e ffb2 ad3e
00000300: 6fec c43d 1151 1e3e b200 2b3e 27a6 153e
00000310: 0d14 bc3e fe30 863d f30e a7be 32cd 92be
00000320: 38a5 333c d149 89be 952a ac3b 15bb a6bc
00000330: 07dc 9ebe e99a 26be a8d2 88bd fb33 d8bd
00000340: 5690 ccbb 9e39 3dbe 6fc8 ccbd beac eebc
00000350: e7ad 82be f3df 06be 39e5 0fbe d632 2cbd
00000360: 7320 fbbd e905 a23d 8612 70bd 5052 e8bd
00000370: 5e3c e3bd eaae dd3d 58a6 11bd 9fdd 7dbe
00000380: aa79 56be a5ae 27bd a9be 8ebd e0f2 4ebe
00000390: 0bdd 46be 54ef d53d e077 2b3d 9df9 29be
000003a0: 6900 57be ddff d23d 2fd5 eabd c5d0 923e
000003b0: 2205 1ebd f30a 413e 0aa5 bf3d 31bc 8e3d
000003c0: bffd 753e fae8 b83c 2ebe 10be b010 d13d
000003d0: 0c2a 173e a03a 193d bffa 993d b455 893e
000003e0: 947e fbbc 6450 363e 7d82 4f3e 3a9c 823e
000003f0: 1d07 29bd 57c5 83be b768 dfbd 27b7 43bc
-0.16521108 0.013717895 -0.35864022 -0.21749881 -0.16103949 -0.07259945 -0.2909311 -0.16327734
-0.1692912 -0.24131177 0.074905984 -0.18375807 0.12639606 0.20711848 -0.13850293 -0.115057155
0.09311192 -0.07228776 0.35559258 0.16573913 0.27855685 -0.14029635 -0.03111664 0.20187087
0.075560845 -0.23124446 0.14578338 0.12840618 0.028595787 0.25252965 0.17084552 -0.14229602
0.058591217 -0.080729306 0.26071787 -0.03030617 0.028589735 0.14679901 0.30935356 0.24265558
-0.25106037 -0.15789475 0.3289729 -0.05716411 -0.041058745 0.030332437 0.3554917 0.1154118
0.21933658 -0.3022896 0.2492439 0.27104068 0.30699003 0.21018797 0.02096204 -0.13405038
0.12844236 0.2303701 -0.049210344 0.08383452 0.08160698 0.0052454844 0.16855709 0.283711
0.14877234 0.068427466 0.09495825 0.033698875 -0.025179593 0.06276572 0.1659781 -0.079330884
-0.08953449 -0.2707277 -0.28985146 -0.11160266 -0.06387532 0.05660982 -0.14775561 -0.1283231
-0.10941214 -0.105964385 -0.2527599 -0.031765386 0.06788848 -0.032075033 -0.08543552 0.03299759
0.043040663 -0.10605909 -0.05878654 -0.017007047 0.13661104 -0.16143543 -0.19345264 -0.0001794631
0.049146026 0.090725414 0.19918892 0.25124055 0.34826505 -0.03191539 -0.1839977 0.16696358
0.29103646 0.3321392 0.20663099 0.2820356 0.013900069 -0.16196209 -0.20335393 -0.23443903
-0.06646599 -0.040986594 0.047377765 0.018207429 -0.18635118 -0.057022974 0.11571782 0.12228889
0.004747418 -0.018631034 -0.051368404 0.024233142 -0.22532514 0.09337903 0.11091734 -0.05110642
0.016823152 -0.064110495 -0.16092427 -0.09018822 -0.209614 0.18575291 0.021969307 0.10748337
-0.16160488 0.024625031 -0.18764816 0.084219344 -0.13368088 -0.21284737 0.23895226 -0.10875899
0.35003567 0.22833481 0.30042353 0.29505238 -0.031084727 -0.020380285 0.19470188 0.2869182
-0.0507182 -0.020494225 0.1555185 0.20564692 -0.2654544 0.32476377 0.28688395 0.32681298
0.04409452 -0.031183572 0.20743197 0.30617094 0.35760775 -0.06435823 0.2826551 -0.067681536
-0.034894995 0.25618044 0.28290036 0.19551852 -0.06707098 0.39442167 -0.1337036 0.07769444
0.028634032 -0.13054383 0.108874306 0.20872447 0.16894999 0.04191296 0.31918618 0.07132003
-0.12128172 -0.042963874 0.068185925 0.2646096 0.34491283 0.17801735 0.34773695 0.33925626
0.09615409 0.15460612 0.16699484 0.14614163 0.36734048 0.06552313 -0.32628593 -0.28672177
0.010964684 -0.2681413 0.0052540996 -0.02035288 -0.31027243 -0.16270031 -0.066808045 -0.105567895
-0.006242792 -0.1847901 -0.09999167 -0.029135104 -0.25523302 -0.13171367 -0.14052285 -0.04204067
-0.122620486 0.079112835 -0.058611415 -0.11343825 -0.110954985 0.10824378 -0.03555903 -0.24791573
-0.20944849 -0.04093804 -0.06969959 -0.20209837 -0.19420259 0.10446039 0.04186237 -0.16599126
-0.2099625 0.10302708 -0.11466443 0.28674904 -0.038579114 0.18851833 0.093576506 0.069694884
0.24022578 0.02257203 -0.14135048 0.10208261 0.14762133 0.037409425 0.07518529 0.268232
-0.030700006 0.17804104 0.20264621 0.25509816 -0.04126655 -0.25736496 -0.10908645 -0.011945522

SpectralMeanEstNet.SpectralGenMean.layers.1.0.bias f4 [22]
00000000: 192a 2d3e 45c8 133c a15b 4f3d 4dd6 273e
00000010: 1569 d63d 08f1 2e3b 6671 11bd f3dc 1ebc
00000020: 5610 71bd a5bf cabd 090f 533e 065b 81bd
00000030: 3b3f fe3d 81d9 43bc 5ce9 1a3e e7fc 4abd
00000040: 112b f4bd b834 9f3d 8eaf 8cbd 88fd fc3d
00000050: 87fd 81bd be06 243e
0.1691059 0.009019916 0.050624494 0.16390343 0.104692616 0.0026693959 -0.035508536 -0.009696233
-0.05885347 -0.098998345 0.20611204 -0.063161895 0.12414404 -0.011953712 0.15128082 -0.049557593
-0.11922277 0.07773727 -0.06869422 0.12353045 -0.06347185 0.16018197

SpectralMeanEstNet.SpectralGenMean.layers.2.0.weight f4 [26, 22]
00000000: f182 e5bc 6313 083e 7260 8a3e 975d 523e
00000010: 9e0a 0ebe 33d6 753e 12fc 1d3e 5853 90bd
00000020: 582f de3d 238c 083e d19a fb3d 9f9f 7ebe
00000030: 40fe 60be 55d6 7b3e 8ab0 f63c 010c 1b3e
00000040: 8c3a 0f3d 405c 803e c480 413e 936b f6bd
00000050: 1d94 08bc 18ec 23be 5fcb 67bd eb3e 9cbd
00000060: 5622 93be 5f3a 4e3e ffdb 32bd 52dc 6ebe
00000070: d84d cebd 6721 a3bc 582b 63be 1275 9dbd
00000080: b0dc bebc fbc3 86bd e86e c63d e364 c63c
00000090: b6c5 4a3d ef5d dcbe 64ab b53d 7e29 87be
000000a0: 1f3b 6fbe 13fd 613e dc6c 1abe e976 a83d
000000b0: df72 203e 8c7b 933c e52a 10be 7e7c 4abd
000000c0: 79a2 993d 5d63 73be 2ba7 5c3b 0b35 21be
000000d0: 4981 68be 7e3b b9be 461a 4cbe 8321 b73d
000000e0: 9e6e 963d 63e0 8cbe 10a9 473e 455c e8bd
000000f0: c815 3d3e 77a9 d2bd ef12 5abe 88a8 21bd
00000100: dd9f ddb9 1501 40bd f95c e1bc b99d 963d
00000110: 0cac a63e 4252 f83d 15cc 063e ca47 143e
00000120: c17c 49be 537b 453e 779e 093e 3a56 be3e
00000130: 9317 783e 89e6 58bd 2540 073d 94c4 743c
00000140: 2570 1b3e 94ce 723d 06ab 103e f464 e0bc
00000150: 5e91 cb3e 6f16 2fbe d58a 14be c25f 8c3d
00000160: 2b66 dfbd 6aa3 903e bbdc f33c 2bb3 fdbd
00000170: 9697 92bd 6f73 6fbb 8ce2 1d3e 6086 fc3d
00000180: 778e 083e 34dc af3e 2141 6d3e dc5c 3ebe
00000190: 9873 1d3d 9339 b93c 71fe 59be 7c3b 923d
000001a0: 0a7f 843d 7d45 533e 3fa8 b23c 92b6 b1be
000001b0: 8db7 e63d 4d9c 19be cc16 193e 5ada 52be
000001c0: 3ae9 66bd f300 e3bc 384c 083e accd 4fbe
000001d0: dec7 56bc 14c6 d8bd 8ef1 85b9 fc42 1ebe
000001e0: 7f4d 81be 12ac 803e e79a 0f3e 51ee 9abe
000001f0: 58af c6bb 95df eebe eacd 8a3d 6266 d3bc
00000200: 8715 12bc c372 1a3d e98f 213e 8a19 e7bd
00000210: 218b 0cbe 2e8c f2ba 34f9 393e 3cbf 4d3e
00000220: fa5d e3bd 3861 273e 29b5 c4bd 4b19 cebd
00000230: f7be 363e 1de1 febc 3cae 503e c939 2bbe
00000240: 0388 2e3e 4e62 123e 7a82 42be 9cc6 dd3e
00000250: 2fff b8bd 6f10 69bd eb83 e33e cacb b5bd
00000260: 82b4 5bbc c059 17be f9b5 63bd 9b47 af3e
00000270: 91ac 8b3c dfad 92bd b90e 753e 86cc a63d
00000280: a213 d5bd 892b 453e 3f68 4a3e 0754 523c
00000290: a04e ad3d ee88 22bd 5f6a c5bc 2c2e 9a3e
000002a0: 9d72 953e bf0d b83e 2451 eabd e861 553d
000002b0: 1005 603d 2709 52be 68ab fabd a8ee 6e3e
000002c0: a116 0b3e adea 12be 9d33 b8be 475d c03d
000002d0: 2a67 dfbc 8c0b 82bd bc16 b7bd a09c 09bd
000002e0: 89d1 0dbe 0637 85be a775 04be 9470 173e
000002f0: 4b39 9b3d be8e 973a d0ea 0abe 6bf6 6fbd
00000300: 837c 5bbe 4b42 54be a88e 71be 5d7c adbd
00000310: 1cd1 3b3e ac63 10bd 20b6 d7bd fa03 793e
00000320: ac87 223e 3939 223e 186b c73d a2e7 033e
00000330: 92d5 61be 5602 033e bc01 0b3e efe1 6d3e
00000340: 56ff 463e ac15 3bbe f12b d8bd 1c32 ecbc
00000350: bb7e b73c b158 6b3e 019a 40bd 89a8 5a3d
00000360: 53a3 593e 8d16 f6bd 3a4d 2e3e 0f0c fe3d
00000370: da99 8f3e 2df1 a0be a20d b8be 85f6 263e
00000380: 7985 673e 2cd0 5a3d 10dc 14be 51a4 26be
00000390: 83e9 433a c3ed aabe 7183 41be a2a0 fb3d
000003a0: 0025 7f3e d75e 6abe d1cf aabc 5fe3 bbbe
000003b0: ace9 0ebe 45fb 40bd 72af 7ebe 4c37 783e
000003c0: 6f0f 03be 998e 1ebd 691c 3bbe 0058 7bbe
000003d0: 3b39 c3bc ba6f 23bd 3f47 3abe f557 98bd
000003e0: ce8d a73d 3236 a23d d230 dd3b 700a aebe
000003f0: 005a cf3c e130 1fbe 75c8 303e 6706 3b3d
-0.02801654 0.13288645 0.27026707 0.20543514 -0.13871238 0.24007492 0.15428188 -0.070471466
0.10848874 0.13334708 0.12285388 -0.24865578 -0.21971989 0.2459348 0.030113477 0.15141298
0.034967944 0.2507038 0.18896776 -0.12032237 -0.008336094 -0.16008031 -0.056590434 -0.07629188
-0.28737134 0.20139454 -0.043666836 -0.23326233 -0.10073441 -0.019913388 -0.22184503 -0.07688345
-0.023298591 -0.06580349 0.096891224 0.024218028 0.049504958 -0.43040416 0.08870581 -0.26398844
-0.23362397 0.22069196 -0.15080589 0.08225805 0.1566882 0.018003248 -0.14078863 -0.04943513
0.07501692 -0.23768373 0.0033668976 -0.1574289 -0.22705568 -0.361782 -0.19931898 0.08941939
0.07345317 -0.27514943 0.19498086 -0.11345724 0.1846534 -0.10286229 -0.21296285 -0.039467365
-0.00042271512 -0.046876032 -0.027510153 0.07354302 0.32553136 0.121250644 0.13163789 0.1448051
-0.19676496 0.19285326 0.13439356 0.3717516 0.24227743 -0.05295423 0.033020157 0.014939446
0.15179498 0.05927904 0.1412774 -0.027391888 0.39759344 -0.17098401 -0.14506085 0.06854202
-0.10908159 0.28249675 0.029768338 -0.12387689 -0.07157819 -0.003653731 0.15418452 0.123303175
0.13335596 0.3434769 0.23169376 -0.1859011 0.038440317 0.022610461 -0.21288468 0.07140252
0.06469543 0.20631976 0.021808742 -0.34709603 0.11265478 -0.1500103 0.14950103 -0.20591107
-0.056374766 -0.027710414 0.13310325 -0.20293301 -0.0131091755 -0.105846554 -0.0002554771 -0.1545524
-0.25254437 0.2513128 0.14023934 -0.30259946 -0.006063383 -0.46654955 0.06777556 -0.025805656
-0.008916265 0.0377071 0.15777554 -0.11284168 -0.13724948 -0.0018504912 0.1816147 0.20092481
-0.11101909 0.1634568 -0.09604866 -0.10063418 0.17846285 -0.031113202 0.20378965 -0.16721262
0.17044072 0.14295313 -0.18995085 0.4331559 -0.090330474 -0.056900438 0.44436583 -0.0887676
-0.013409736 -0.1478033 -0.055593465 0.34234318 0.01705006 -0.071620695 0.23931397 0.081444785
-0.10404135 0.19254889 0.19766329 0.0128374165 0.08462262 -0.039681368 -0.024098573 0.3011335
0.29189005 0.35947987 -0.114412576 0.052095324 0.054692328 -0.20511304 -0.122397244 0.23333228
0.13582851 -0.14347334 -0.35976878 0.09392791 -0.027270872 -0.06349859 -0.08939883 -0.033596635
-0.13849463 -0.26018542 -0.12935506 0.14789039 0.07579287 0.0011562926 -0.13566136 -0.058584612
-0.21434216 -0.20728414 -0.23589575 -0.08470986 0.18341488 -0.035251305 -0.105327845 0.24317923
0.15872067 0.15842141 0.097372234 0.1288133 -0.22054127 0.1279386 0.1357488 0.23230718
0.1943334 -0.18269986 -0.10555256 -0.028832488 0.022399297 0.22983052 -0.04702187 0.053383384
0.2125371 -0.1201602 0.17021647 0.12404644 0.28047067 -0.31434003 -0.359479 0.16304977
0.2260951 0.053421184 -0.14537072 -0.16273619 0.00074734556 -0.33384523 -0.18897797 0.12286498
0.24916458 -0.22887741 -0.020851048 -0.36696908 -0.13956326 -0.04711463 -0.24871615 0.24239844
-0.12798856 -0.03871021 -0.18272556 -0.24545288 -0.023831 -0.039901473 -0.1819124 -0.074386515
0.08181344 0.07920493 0.0067502046 -0.33992338 0.02531147 -0.1554599 0.17263968 0.045660403

SpectralMeanEstNet.SpectralGenMean.layers.2.0.bias f4 [26]
00000000: 4d8b 0dbd 6903 19be 9757 083e db24 5cbd
00000010: 4573 413d 5256 223e 1e92 56bd be8c c4bd
00000020: 6806 3d3e 842c fd3d 26a9 713e 3552 ee3d
00000030: b706 36bd 0465 cd3d ab43 913d 189e ac3b
00000040: dc33 1b3e 541a 1d3d ac2c 28be c29d f73d
00000050: ef23 abbd 1762 aebd 5030 02be cae3 003c
00000060: b465 443d 5963 c8bc
-0.034556676 -0.14942707 0.13314663 -0.053746086 0.04722907 0.15853241 -0.052385442 -0.09597157
0.18459475 0.12362006 0.23599681 0.116367735 -0.044439998 0.10029033 0.07092985 0.0052678697
0.15156502 0.038355187 -0.16423291 0.12090637 -0.08356463 -0.08514803 -0.12713742 0.007866809
0.047948554 -0.024461435

SpectralMeanEstNet.SpectralGenMean.layers.3.0.weight f4 [30, 26]
00000000: c590 b2be 7d6e f23d c3c3 483e 615f 5dbd
00000010: f5aa 05be c877 1a3e 1951 7ebe d8f2 d03b
00000020: f1e1 5d3e a871 21be 8e94 3a3e f58b 24be
00000030: 765c f43c cb95 f83c d52d 65be 0f96 fb3c
00000040: b279 f5bc b1e4 a13d e582 c0bc 643b 0b3e
00000050: da7d e73a 7f68 1fbe 0b91 5cbd ddcc 18be
00000060: f537 583e a556 1a3e 3d4a 223e 8b4b 8d3c
00000070: 901c d2bd 635f 7ebd 1f6a 0f3c 3d0c 87be
00000080: 5dda f2bd 6e45 253e a362 81be 5859 0d3e
00000090: fc0a 673d 3982 57bd b709 013e 7192 04be
000000a0: e115 a2bd 510f 4b3e adc2 3c3e b231 ac3d
000000b0: b8ed 5dbe 31dd 1cbe 6a0d 3ebe ca82 51bd
000000c0: 4969 473d 21c8 07be 7571 3cbe 54ab 4bbe
000000d0: b9dd 833e a6db 623d 7949 d43d 34d4 6d3e
000000e0: 2a0d 103e 655c 28bd cb7f d2bb 5bbb 6dbd
000000f0: 2e68 043e b807 d03d 7e76 24be 7f16 31be
00000100: 0530 a3bc ec13 133e e43a 84bd 3d72 443e
00000110: 96da a83d 586b 0e3e 7321 cebd 0d15 e2bd
00000120: aa23 9a3d b35d 093e da7b 3bbe 9fd5 08be
00000130: b4ae c1bc 5fe5 febd 446a 83be c9e1 023e
00000140: 253f 953d 6c98 d73b 671e 7dbe 034e d43d
00000150: 466e 16be 271c 653d dc84 fa3d 0296 a33d
00000160: af65 07be 7bb7 2f3e c097 bfbc 5c89 2ebd
00000170: d85c 80be d0c8 c43d d540 5abe dc22 7f3d
00000180: f5ff 9a3c 4317 53be b1ae 823d f986 26be
00000190: c1fe 613e 103a 0d3d 3093 173e 1bcc 25bc
000001a0: d2ec 65bd 7c4b d33d be34 dd3b 4ab5 00be
000001b0: a6de c03d f359 c63d 02f8 0bbd f64f e6bd
000001c0: 4b49 ba3c 2f8d 29be 6968 5c3d 6f0b b33d
000001d0: df32 f8bc 147d 073e b4f2 353e 3f41 5d3e
000001e0: 4890 fdbd bd28 e63c 2d23 a73d e924 cabd
000001f0: 1b96 46bc 90b5 09bd 807a 84bd 184a 9dbd
00000200: 3f6e 58be 8d6b bb3d dbe8 453e db8b a1bd
00000210: 5e73 67be c844 4b3c 805a 203e 1b18 84bd
00000220: bf86 213e da56 c5bd 4f21 aabd 6f49 323e
00000230: bebe 65be 1208 2f3b 36a0 ecbc 2699 0cbd
00000240: 4807 f53c 88da 483e 5efd 063c 3a3d cdbc
00000250: 4b5d 0f3e b1a9 acbd 42c2 b9bd f3fa f838
00000260: 94ff 37be 32d8 61be 6c7f 2fbe 1fd0 b63c
00000270: 8923 a6bd 90dc d03c 1a75 d0bd 7dbd 663d
00000280: e55c a83d 85d8 2ebe 0687 32b9 6638 c63c
00000290: 7586 24be 7c3f 8b3d efeb b73d 12da ddbd
000002a0: e4f1 1abe 0503 353e bf02 c43d 48d1 ecbd
000002b0: 0d5c 21bd 9010 d03c bd9d 6bbe 8f10 c6bd
000002c0: dd03 57be 0571 7cbd 679f bf3d 47eb 4d3e
000002d0: 2ad4 033d 7f15 76be 6f6f e93d 5bbd 1ebd
000002e0: 573d 98bc 0b23 fb3d a86c 8d3e 3a51 88bc
000002f0: 63dc 843e 638b 363e 4b3c 243c c1c0 1f3e
00000300: 6029 35be 2bc6 40be 2aa6 1c3e 5bd6 e8bd
00000310: c925 fe3d da1b 513e 1385 94bd 16b2 b13c
00000320: 1859 0ebe 7952 533e f835 2bba 5309 363e
00000330: 83a4 a0be e8f2 95bd e5ba fabd 741f 063d
00000340: 3bef 373e c3fd 143e 9a93 25be 32ff 653e
00000350: 24bf 32bd bc40 b0bd f49f fcbb a0fd 243d
00000360: 84e7 bb3d 0ac7 933d afdc b6bd 28a0 873b
00000370: 8044 b03d a713 f7ba f5b8 b13d c6c6 503e
00000380: 4ee0 96bd 1068 31bd 81fa 64be 32a2 303e
00000390: f1ef 6b3c 296e 90bd 0db5 99be 32af 8e3d
000003a0: 8ee4 7dbe 8a61 c43d 4eea 803e 85c3 c1bd
000003b0: e80b 31be dbec 40bd 7db8 c1bd 17c1 403d
000003c0: c5ed 9d3b 1f61 70bd 36a2 3cbe 319e b53d
000003d0: 0d55 3bbe f671 e8bd 1dda cf3d 631f c7bd
000003e0: 7265 2fbd da07 0c3e 7e2b 50be 005f 43be
000003f0: d3a9 21be 9f3a d5bc bec8 643d c503 2e3e
-0.34876075 0.1183748 0.19605927 -0.05404604 -0.13053496 0.15084755 -0.24835624 0.0063766055
0.21668221 -0.15766013 0.18220732 -0.16069014 0.029829245 0.030344864 -0.22380765 0.030711202
-0.029965255 0.079049475 -0.023499915 0.13596874 0.0017661408 -0.15567206 -0.05384926 -0.14921899
0.21115096 0.15072115 0.15848632 0.017247936 -0.10259354 -0.062102687 0.008753329 -0.26376525
-0.11858056 0.16139767 -0.25270566 0.13803613 0.05640696 -0.052614424 0.12601362 -0.12946488
-0.07914329 0.19830061 0.18433638 0.08407916 -0.21672714 -0.15318753 -0.18559805 -0.05115012
0.048684392 -0.13259937 -0.18402655 -0.19889575 0.25755098 0.055385254 0.10365576 0.2322548
0.14067522 -0.04110374 -0.0064239255 -0.058040004 0.12930366 0.10157722 -0.16060826 -0.17293738
-0.019920358 0.14363068 -0.06456545 0.19184203 0.08244817 0.13908136 -0.10064974 -0.11039171
0.07526334 0.1341465 -0.18308964 -0.1336274 -0.023642875 -0.12446093 -0.25667012 0.12781443
0.072874345 0.0065794494 -0.24718629 0.10366442 -0.14690503 0.05593505 0.12232372 0.07987596
-0.13222383 0.17159836 -0.02338779 -0.042611465 -0.25070834 0.096086144 -0.21313794 0.062289104
0.018920878 -0.20614342 0.06380976 -0.16262425 0.22069837 0.0344792 0.14802241 -0.010119463
-0.056134053 0.10317132 0.006750672 -0.12569156 0.09417467 0.09685125 -0.034172066 -0.1124572
0.022740027 -0.16557764 0.05381051 0.08742415 -0.030297695 0.13231307 0.17768365 0.2160692
-0.12381035 0.028095597 0.08161006 -0.09870321 -0.012120749 -0.033620417 -0.064686775 -0.07680148
-0.21135806 0.09151373 0.19327109 -0.078880034 -0.22602603 0.012406535 0.15659523 -0.0644991
0.15774058 -0.09635706 -0.08307134 0.17410825 -0.22436044 0.002670769 -0.028884988 -0.03432574
0.029910699 0.19614613 0.008239118 -0.02505361 0.14000432 -0.084308036 -0.09070255 0.000118723045
-0.17968589 -0.22055128 -0.17138451 0.022316037 -0.081122465 0.025495797 -0.10178585 0.056333054
0.08220843 -0.17074783 -0.00017025703 0.024196815 -0.16066916 0.06799218 0.08980548 -0.10832609
-0.15131336 0.17676933 0.09570836 -0.11563355 -0.039394427 0.025398523 -0.23009391 -0.09671127
-0.20997567 -0.06163122 0.093565755 0.20109282 0.032184757 -0.24031638 0.113982074 -0.038754802
-0.018583937 0.12262543 0.2762196 -0.016640294 0.25949392 0.1782661 0.010024141 0.15600874
-0.17691565 -0.18825595 0.15297762 -0.1136901 0.12409551 0.20420781 -0.072519444 0.021691363
-0.13901174 0.2063693 -0.00065311743 0.17776994 -0.31375512 -0.07321721 -0.122426786 0.03274484
0.17962353 0.14549927 -0.16169587 0.2246063 -0.043639317 -0.08606097 -0.0077094976 0.04028094
0.091750175 0.07215698 -0.08928811 0.004138965 0.08606815 -0.0018850461 0.08677856 0.20388326
-0.073670015 -0.043312132 -0.22361185 0.17249373 0.014400468 -0.070522614 -0.30020943 0.069670096
-0.24794218 0.095889166 0.2517876 -0.094611205 -0.17289698 -0.047100883 -0.094590165 0.047059145
0.004819604 -0.058686372 -0.18421254 0.08868063 -0.18294163 -0.11349861 0.10149024 -0.097227834
-0.042821355 0.1367487 -0.20329091 -0.19079208 -0.15787439 -0.02602893 0.055855505 0.16993625

SpectralMeanEstNet.SpectralGenMean.layers.3.0.bias f4 [30]
00000000: c602 2c3d 4e77 133e 659b 16bd 51df a8bc
00000010: 9c0a b83b 0ce8 ba3d 1913 69bd 0510 2cbc
00000020: 8c5e 2abe 1bfb ef3d dcc0 babd 0ff3 5fbc
00000030: c7d5 293c db8c 5dbd 4c5f 223e 3a33 1ebe
00000040: 99ae f13d f005 e73c d8ff 6c3d e560 3f3d
00000050: a41f be3b 72b8 97bd 6ccc febd 3d01 1abe
00000060: eefb be3d 976f 6a3d bc90 9f3d 1d40 d5bd
00000070: df27 d8bc 5eeb 0a3d
0.041994832 0.1440098 -0.03676929 -0.020614298 0.005616499 0.09126291 -0.05690298 -0.010501866
-0.1663763 0.117178164 -0.09118816 -0.0136687895 0.01036591 -0.05408941 0.15856665 -0.15449229
0.1180088 0.028201073 0.05786118 0.046723265 0.0058021117 -0.07408227 -0.12441334 -0.15039535
0.093253955 0.057235327 0.07791278 -0.10412619 -0.0263862 0.03391587
