pths/net39.pth (torch_old, 34322 bytes, 28 tensors)

AbundanceEstNet.Encoder_0.layers.0.0.conv2d.weight f4 [4, 3, 1, 1]
0	0xbf047cd5	-0.5175298
1	0xbe964772	-0.29351383
2	0xbf15dc9c	-0.5853975
3	0x3f24abbc	0.64324546
4	0xbd9b6bee	-0.07588945
5	0x3f312587	0.6919789
6	0xbf328c51	-0.69745356
7	0xbf45da56	-0.7728628
8	0xbf264e82	-0.64963543
9	0x3f1296ac	0.5726116
10	0x3dfc9dc1	0.12334777
11	0x3f015962	0.5052701

AbundanceEstNet.Encoder_0.layers.0.0.conv2d.bias f4 [4]
0	0xbf09fca5	-0.5390113
1	0xbe56eff6	-0.20989975
2	0xbe4aad60	-0.197927
3	0x3ca86943	0.020558005

AbundanceEstNet.Encoder_1.layers.0.0.conv2d.weight f4 [8, 7, 1, 1]
0	0xbf0212c9	-0.50809914
1	0x3ed199dd	0.409377
2	0xbebb6bfb	-0.3660582
3	0x3ed98837	0.42486736
4	0x3f16277b	0.5865399
5	0x3ecd9087	0.40149328
6	0x3ecc1821	0.3986216
7	0x3ec6af42	0.38805586
8	0xbee5e072	-0.448978
9	0x3e81107f	0.25207898
10	0xbed9859a	-0.42484742
11	0x3d187183	0.03721763
12	0x3d463834	0.048393443
13	0xbf0c7b7a	-0.5487591
14	0x3e9545c8	0.291548
15	0xbcea143e	-0.028574105
16	0x3e643e64	0.22289425
17	0xbdc807f4	-0.09767142
18	0x3e6dda48	0.23227799
19	0xbe6eb5d1	-0.23311545
20	0xbf18c421	-0.5967427
21	0xbd98cda4	-0.07461098
22	0xbed9b12d	-0.42517987
23	0x3e1f5786	0.15560731
24	0xbeb1d612	-0.34733635
25	0xbee4c9dd	-0.4468526
26	0xbe9f7fab	-0.3115209
27	0x3e0147a5	0.12624986
28	0xbd1a938f	-0.03773838
29	0x3e8cf1ac	0.2752813
30	0xbe4137cc	-0.18868941
31	0x3eab6610	0.33476305
32	0x3f11e5a6	0.5699104
33	0x3effec72	0.4998508
34	0x3ec0abad	0.37630978
35	0x3ca7a516	0.020464461
36	0x3eda6cc0	0.42661095
37	0xbd9f7d9f	-0.07787632
38	0x3ec51ebe	0.38500017
39	0x3d2165bd	0.039403666
40	0x3e297eba	0.16552249
41	0x3f19fe24	0.6015341
42	0x3d9861a4	0.074404985
43	0xbebeb51f	-0.3724756
44	0x3dadabfa	0.084800676
45	0x3ebf24f6	0.37332886
46	0xbec607dd	-0.38677874
47	0xbe87ab15	-0.26497713
48	0xbdd11182	-0.102084175
49	0x3d4035d2	0.046926327
50	0x3e8016b8	0.25017333
51	0xbe0740c2	-0.13208297
52	0xbd391404	-0.045185104
53	0x3eccc790	0.39996004
54	0x3f140771	0.57823855
55	0x3edd5332	0.43227535

AbundanceEstNet.Encoder_1.layers.0.0.conv2d.bias f4 [8]
0	0xbdcb058c	-0.09913167
1	0xbe88c8af	-0.2671561
2	0x3e6cc672	0.23122576
3	0x3cae2bfd	0.02126121
4	0x3dd42f2e	0.10360561
5	0xbecefbcc	-0.4042648
6	0xbd81dca5	-0.06340913
7	0x3e2bedb4	0.16789895

AbundanceEstNet.Encoder_2.layers.0.0.conv2d.weight f4 [16, 11, 1, 1]
0	0xbdc9f7f8	-0.098617494
1	0xbbe730d4	-0.0070553813
2	0x3e8717c5	0.26385322
3	0xbcbb5798	-0.022868916
4	0xbe6e644d	-0.23280449
5	0xbe5b828e	-0.21436521
6	0xbe2afe0a	-0.1669847
7	0x3e5c022a	0.214852
8	0x3d5d584a	0.054039277
9	0xbdb1b7af	-0.08677613
10	0xbef9b3eb	-0.4877008
11	0x3d88ed80	0.066859245
12	0x3e4b7a9e	0.19870993
13	0x3e87315f	0.26404855
14	0xbdcbf379	-0.09958548
15	0xbdb11bb6	-0.086478636
16	0x3e984a43	0.29744157
17	0x3e8b0b0a	0.2715686
18	0x3ddd11bc	0.10794398
19	0xbe4b4457	-0.19850288
20	0x3d8ec8b0	0.06971872
21	0xbec09e1f	-0.37620637
22	0x3ecd76cd	0.401297
23	0xbe3002f6	-0.1718863
24	0xbebd15cd	-0.36930695
25	0xbe7219ae	-0.23642609
26	0x3e269f23	0.16271643
27	0x3ed49dae	0.4152655
28	0x3d18a06b	0.03726236
29	0x3dc80fbe	0.097686276
30	0x3eedaa50	0.46419
31	0x3df0ea33	0.1176342
32	0x3ec7d46b	0.3902925
33	0x3e305c1a	0.17222634
34	0xbda4ef6d	-0.08053479
35	0xbdd4ad84	-0.10384658
36	0xbea35129	-0.31897858
37	0x3e1596c6	0.14608297
38	0x3e5633b8	0.20918167
39	0x3e34d3a4	0.1765886
40	0xbc39af4d	-0.011333299
41	0x3e912bd6	0.28353757
42	0x3ef32e3e	0.47496217
43	0xb951064c	-0.00019934139
44	0x3f14b1e6	0.5808395
45	0xbe324fba	-0.17413226
46	0xbe8ba4f3	-0.27274284
47	0xbe08f95b	-0.13376372
48	0x3e5692e6	0.20954475
49	0x3eeb9f45	0.4601995
50	0xbe87230e	-0.26393932
51	0x3e30ff4b	0.17284887
52	0x3e7ba332	0.24573973
53	0x3c530cd2	0.012881475
54	0x3d9fd0f5	0.07803527
55	0x3e2ce705	0.16885002
56	0x3db0116b	0.08597072
57	0xbe70de8d	-0.23522396
58	0xbe7a8988	-0.24466527
59	0x3d5535c9	0.052053247
60	0x3df2baba	0.118520215
61	0xbe493e5e	-0.19652697
62	0x3e47e55e	0.1952109
63	0x3f00b127	0.50270313
64	0x3e8abf49	0.27099064
65	0x3d8006a0	0.062512636
66	0xbec7dc94	-0.39035475
67	0x3d87f56f	0.066386096
68	0xbdb9faec	-0.09081063
69	0xbe2d94d7	-0.16951309
70	0xbea32fc6	-0.31872386
71	0xbe34a5d3	-0.17641382
72	0x3dc7e441	0.09760333
73	0x3de54f01	0.111967094
74	0xbd822c72	-0.063561335
75	0x3d0aee2f	0.033918556
76	0xbeb2749e	-0.34854597
77	0x3ea5e03e	0.32397646
78	0xbe94ac8d	-0.29037896
79	0xbd567b73	-0.052363824
80	0xbd57634b	-0.052584928
81	0x3edc7c77	0.4306371
82	0xbde16183	-0.11004927
83	0x3e202505	0.15639122
84	0x3eb550af	0.3541312
85	0x3ef28e22	0.47374064
86	0x3e9a188c	0.30096853
87	0x3f00ece9	0.50361496
88	0x3ea2d8aa	0.31805927
89	0x3e3b2032	0.18274
90	0xbdc0ef00	-0.09420586
91	0xbe8e1b12	-0.27755028
92	0x3db311bb	0.08743616
93	0x3df5237b	0.11969658
94	0xbe83e755	-0.2576243
95	0xbdc6d2f9	-0.097082086
96	0xbe3880c0	-0.18017864
97	0x3c63c3af	0.013901635
98	0x3ebf3fd9	0.373534
99	0xbe88b6d1	-0.26701978
100	0xbda11a4b	-0.07866343
101	0x3e8da70c	0.2766651
102	0x3e7c509b	0.24640124
103	0xbe9c0265	-0.30470577
104	0xbec1fd81	-0.3788872
105	0xbd8a56b8	-0.067548215
106	0xbe349ad8	-0.17637193
107	0x3cd1e142	0.025620107
108	0x3cb5b105	0.022179136
109	0xbf04dc51	-0.51898676
110	0xbee7b6f3	-0.45256767
111	0xbe9c626b	-0.30543837
112	0x3e8ff79a	0.28118593
113	0x3e9a33c0	0.30117607
114	0xbe888c50	-0.2666955
115	0xbe79824e	-0.24366114
116	0x3d8591cf	0.065219514
117	0xbe55707d	-0.20843692
118	0x3e4a4ec2	0.19756606
119	0xbd36aa96	-0.044596277
120	0xbe657c22	-0.22410634
121	0x3ed75589	0.42057446
122	0xbc5e5b50	-0.013571575
123	0xbebf4ebc	-0.37364757
124	0xbee6dfe3	-0.45092687
125	0x3e706531	0.23476101
126	0x3d503432	0.050831027
127	0xbe46fb9b	-0.19431917
128	0x3e191678	0.14949977
129	0x3f047df8	0.51754713
130	0x3e81c2f2	0.25344044
131	0x3e892225	0.26783863
132	0xbd37a1ff	-0.044832226
133	0xbe32846e	-0.1743333
134	0x3e49c076	0.19702324
135	0xbd4ca655	-0.049963314
136	0x3d6d1df4	0.057889894
137	0xbe3ded8b	-0.18547647
138	0x3d110708	0.035407096
139	0xbd06522f	-0.03279322
140	0xbebddaec	-0.37081087
141	0xbecb659f	-0.39725968
142	0xbd47be0e	-0.048765235
143	0xbe986d30	-0.29770803
144	0x3e97c616	0.29643315
145	0xbe3d359f	-0.18477486
146	0xbd8cd2cc	-0.06876144
147	0xbee17d63	-0.44040975
148	0x3db3f7a8	0.08787471
149	0x3dc4f779	0.09617514
150	0xbe62ef09	-0.22161497
151	0xbe8bc281	-0.27296832
152	0xbef5fc0e	-0.48043865
153	0xbe067c86	-0.1313344
154	0x3e971988	0.29511666
155	0xbea81be0	-0.32833767
156	0xbdbff2fe	-0.09372519
157	0xbe18dc0e	-0.14927694
158	0xbd91a99b	-0.07112428
159	0x3e663965	0.22482832
160	0xbd07f3b7	-0.03319141
161	0x3e07bc57	0.1325544
162	0x3db8c907	0.09022718
163	0x3e9d5dc2	0.30735594
164	0x3eecdbe1	0.46261504
165	0x3ef4708d	0.4774212
166	0xbe830ab7	-0.25594112
167	0xbe930bb4	-0.28719866
168	0x3e0c5849	0.13705553
169	0x3e866164	0.26246178
170	0x3e940dd2	0.28916794
171	0xbe4dbb2f	-0.20090936
172	0x3eaf447c	0.34231937
173	0xbd7af69b	-0.061270338
174	0x3e437307	0.19086848
175	0x3e3ea27a	0.18616667

AbundanceEstNet.Encoder_2.layers.0.0.conv2d.bias f4 [16]
0	0x3ddf96f3	0.10917463
1	0xbe965f62	-0.29369646
2	0x3e66983e	0.22519013
3	0x3e938fc8	0.28820634
4	0xbe684d8f	-0.22685836
5	0x3bc24206	0.0059282808
6	0xbe285060	-0.1643691
7	0x3e861839	0.26190355
8	0x3e39c81b	0.1814274
9	0x3e8f9c91	0.28049138
10	0x3e17b6d3	0.14815836
11	0x3cd44189	0.025910156
12	0x3e358eef	0.17730306
13	0xbd816af1	-0.063192256
14	0xbcd780ef	-0.026306598
15	0x3e0ea3c7	0.13929664

AbundanceEstNet.Encoder_3.layers.0.0.conv2d.weight f4 [24, 19, 1, 1]
0	0x3db0f447	0.08640342
1	0xbdb1d177	-0.086825304
2	0xbd4bc5ee	-0.049749307
3	0xbe41e49b	-0.18934862
4	0xbe4789ad	-0.19486113
5	0xbdc957a8	-0.09831172
6	0xbe0fa7ab	-0.14028804
7	0xbe4849cf	-0.19559406
8	0x3e4ea0f4	0.20178586
9	0xbe2b28d8	-0.167148
10	0x3e8bd7d1	0.27313092
11	0xbe062727	-0.13100873
12	0x3be76f99	0.007062864
13	0x3e37a0db	0.17932455
14	0xbb9e81dd	-0.0048372583
15	0xbd63d96c	-0.05562727
16	0xbe4dbf4a	-0.20092502
17	0xbdd472b3	-0.1037344
18	0x3e42dfe0	0.19030714
19	0xbeae840a	-0.34085113
20	0x3e1532c7	0.14570151
21	0x3e046b2e	0.12931511
22	0x3dbe14d2	0.09281315
23	0x3e7c3619	0.24630012
24	0x3e84f94a	0.25971442
25	0xbddbd18a	-0.10733326
26	0x3ea246c7	0.31694624
27	0x3e33bb47	0.1755191
28	0xbe63c5c3	-0.22243409
29	0xbe71ad91	-0.23601367
30	0x3f0696ca	0.52573836
31	0xbcb53213	-0.022118604
32	0xbe6fd19d	-0.23419805
33	0x3e7570c6	0.23968801
34	0x3df3360c	0.11875543
35	0x3dc6ea94	0.09712711
36	0x3e4baaef	0.19889425
37	0x3eb520e4	0.35376656
38	0x3dbaaab2	0.09114589
39	0x3d802624	0.06257275
40	0xbe283d4e	-0.16429636
41	0x3e5a2c56	0.21305975
42	0xbe2b6950	-0.16739392
43	0xbde6134d	-0.1123415
44	0xbde0364d	-0.10947857
45	0xbe01b54b	-0.12666814
46	0x3dbff05e	0.09372018
47	0xbbda70e1	-0.0066662882
48	0xbdb2cf80	-0.08730984
49	0xbe866c7f	-0.2625465
50	0x3e4dc45c	0.20094436
51	0x3e1d70eb	0.15375106
52	0x3cd8a6cf	0.026446728
53	0xbe56537a	-0.20930281
54	0x3cff3b6a	0.03115626
55	0xbd18eedf	-0.03733718
56	0xbe812ace	-0.2522797
57	0x3e0627d9	0.13101138
58	0xbce781af	-0.02826008
59	0xbe015179	-0.12628736
60	0xbd7a91d1	-0.061174218
61	0x3cf1a26d	0.029496396
62	0xbe61abb5	-0.22038157
63	0xbd530cc6	-0.051525854
64	0xbe10244d	-0.14076348
65	0xbdcd6df1	-0.10030735
66	0x3eac7df7	0.33689854
67	0x3e5a1b6a	0.2129952
68	0xbe7c6b5e	-0.24650332
69	0x3e719a82	0.23594096
70	0xbde59756	-0.11210506
71	0xbec10a79	-0.37703303
72	0xbe59d03c	-0.21270841
73	0xbd86f7db	-0.065902434
74	0xbe89c167	-0.26905367
75	0xbc614a00	-0.013750553
76	0xbd39f241	-0.045397047
77	0x3d91700e	0.07101451
78	0x3e9a51d2	0.3014055
79	0x3a1b6c48	0.0005928916
80	0x3eb7ca0f	0.35896346
81	0x3db7a72f	0.089674346
82	0xbda784bb	-0.08179613
83	0x3e7a4c72	0.24443224
84	0xbd92b544	-0.0716348
85	0xbd6d306e	-0.057907514
86	0xbe8303b0	-0.2558875
87	0x3e8c3660	0.27385235
88	0x3db223cf	0.08698236
89	0x3d7fd9c1	0.062463526
90	0x3d7f48d5	0.062325317
91	0x3de5c71b	0.11219617
92	0x3e611e2e	0.21984169
93	0x3ec93ea7	0.39305612
94	0x3e9acddb	0.3023518
95	0x3eb0e8bc	0.34552562
96	0x3dda7d03	0.10668375
97	0xbe73ed75	-0.23821051
98	0x3e238335	0.1596802
99	0xbe5f8c41	-0.21830846
100	0x3d84431b	0.06458112
101	0x3e158b2f	0.14603876
102	0xbe1ebc84	-0.155016
103	0xbcac9d25	-0.021071026
104	0x3e2eb5ad	0.17061491
105	0x3e59ff57	0.2128881
106	0xbeb84223	-0.35987958
107	0x3dc98535	0.0983986
108	0x3e1bc128	0.15210402
109	0xbcb84b09	-0.022496717
110	0x3da81419	0.08206958
111	0xbd22db00	-0.039759636
112	0xbea2b4dd	-0.31778613
113	0x3d8485cf	0.064708345
114	0xbe9f9c64	-0.31174004
115	0xbe39d4fb	-0.18147652
116	0x3e2bbacc	0.16770476
117	0x3e36931a	0.17829552
118	0x3e85a58b	0.26102862
119	0x3e881dac	0.26585138
120	0xbe603c1b	-0.21897928
121	0x3dff0c9d	0.12453578
122	0x3e32b564	0.17452008
123	0xbe6f2fa0	-0.23358011
124	0xbeabd995	-0.3356444
125	0x3ec9c480	0.3940773
126	0xbe417d54	-0.18895465
127	0xbe92fdaf	-0.2870917
128	0x3eae7eb7	0.3408105
129	0xbc5443f5	-0.012955655
130	0x3d459c90	0.048245013
131	0x3edada81	0.4274483
132	0x3dee865e	0.11646722
133	0xbda4db2a	-0.08049615
134	0x3e51053b	0.20412152
135	0xbcf93b87	-0.030423893
136	0x3e872376	0.26394242
137	0x3e96366f	0.29338405
138	0x3e7f3fc6	0.24926671
139	0x3bcf78c0	0.006331533
140	0xbd666f7d	-0.056258667
141	0x3e419364	0.18903881
142	0xbe5e3ea7	-0.21703587
143	0xbe4c054c	-0.19923896
144	0xbcfef529	-0.03112276
145	0x3d82cdb2	0.063868895
146	0xbcf0c703	-0.029391771
147	0x3e7837ba	0.24240008
148	0x3e53e888	0.20694172
149	0x3da662e6	0.08124332
150	0x3e471658	0.19442117
151	0xbdfa3a49	-0.12218148
152	0xbe6d7c84	-0.2319203
153	0xbe19c11e	-0.15015075
154	0x3e08391a	0.13303033
155	0x3e60ac92	0.2194083
156	0x3c2f7543	0.01070911
157	0x3e2f44c6	0.17116079
158	0xbe1c78d7	-0.15280472
159	0x3c286da9	0.010280051
160	0xbcc0db80	-0.023542166
161	0xbdef7d6d	-0.11693845
162	0xbe4db91b	-0.20090143
163	0x3e22f286	0.15912828
164	0xbd8d82d4	-0.06909719
165	0xbd92df15	-0.07171456
166	0x3e37a973	0.17935733
167	0xbe2fb02a	-0.17157045
168	0x3e5eed9f	0.21770333
169	0x3e872ff8	0.26403785
170	0xbde83b76	-0.11339466
171	0xbe7acd71	-0.24492432
172	0xbd751a75	-0.059839685
173	0xbba21a0f	-0.004946954
174	0x3e5c8e00	0.21538544
175	0xbdb68490	-0.08912003
176	0x3cbad445	0.022806296
177	0xbda6cf3c	-0.081449956
178	0x3d96ab31	0.07356871
179	0xbd94c08c	-0.07263288
180	0x3dcabe47	0.09899574
181	0x3d5d70f3	0.054062795
182	0x3e3ed3f1	0.18635537
183	0x3e3cf79c	0.1845383
184	0xbe76cc62	-0.24101403
185	0x3e985188	0.29749703
186	0xbca2f0ac	-0.019890152
187	0x3ea66b34	0.32503664
188	0x3e9a1b87	0.30099127
189	0xbdc6a221	-0.096988924
190	0xbe3f49c0	-0.18680477
191	0xbe0b7997	-0.13620602
192	0x3eaf441a	0.34231645
193	0x3d3f1a7f	0.046656128
194	0x3e9ce394	0.30642378
195	0x3ecd0557	0.40043136
196	0xbe716505	-0.23573692
197	0x3e6a229f	0.2286477
198	0xbe15a98f	-0.14615463
199	0xbe42ffcd	-0.19042893
200	0xbe7e6083	-0.24841504
201	0x3d80d5d4	0.062907845
202	0xbe931a7a	-0.28731138
203	0xbea3334e	-0.3187508
204	0x3c28e850	0.010309294
205	0xbd08082c	-0.03321092
206	0x3dbe63ca	0.09296377
207	0x3ea47cfc	0.32126606
208	0x3e06ce9b	0.13164751
209	0xbe9ed091	-0.310185
210	0xbe78589b	-0.2425255
211	0x3eac6680	0.3367195
212	0xbdd70e78	-0.105008066
213	0xbc5d27e8	-0.013498284
214	0x3d208e0b	0.039197963
215	0xbb80bacf	-0.0039285193
216	0x3e980b24	0.29696
217	0x3e11632f	0.14197992
218	0xbe193485	-0.14961441
219	0xbddbba01	-0.10728837
220	0x3e6535d0	0.22383809
221	0x3dc729ee	0.09724794
222	0xbe16b5a2	-0.14717725
223	0x3c9523a5	0.018205473
224	0x3e2358a8	0.15951788
225	0x3e1fb69f	0.15597008
226	0x3e3299e5	0.17441519
227	0x3e871a80	0.26387405
228	0xbd6154c9	-0.055012498
229	0xbd78f1ac	-0.06077735
230	0x3df6bccf	0.12047731
231	0x3e4889d4	0.19583827
232	0xbdcf9ec4	-0.10137704
233	0xbcdb960c	-0.026804946
234	0xbe911b02	-0.28340918
235	0x3e4e50df	0.20148037
236	0x3e914bca	0.28378135
237	0x3e83dd02	0.25754553
238	0x3ddcab1c	0.10774824
239	0x3d8119fc	0.06303784
240	0x3dc0efd2	0.09420742
241	0xbeabdb9a	-0.3356598
242	0x3db09588	0.08622271
243	0x3d030843	0.0319903
244	0x3db2a6bc	0.08723208
245	0x3e7a3ad3	0.24436502
246	0x3d09f036	0.03367635
247	0xbe831f22	-0.2560969
248	0x3e2ba2a5	0.16761263
249	0xbe6d3d5c	-0.23167938
250	0xbe8397fa	-0.25701886
251	0xbb6a0dd9	-0.003571382
252	0xbe75b114	-0.23993331
253	0x3ebc6213	0.36793575
254	0xbe04a2b8	-0.12952697
255	0xbe948618	-0.29008555

AbundanceEstNet.Encoder_3.layers.0.0.conv2d.bias f4 [24]
0	0xbdf9af45	-0.12191633
1	0xbdcc016e	-0.0996121
2	0x3e4c3217	0.19940983
3	0x3e078bee	0.13236973
4	0xbdbebf0f	-0.09313785
5	0xbe42d18d	-0.1902525
6	0x3e164fab	0.14678828
7	0xbe048ded	-0.12944765
8	0xbe8107d6	-0.2520129
9	0xbe1011cc	-0.14069289
10	0x3da5e58f	0.081004255
11	0x3df297a6	0.11845331
12	0x3d99085a	0.07472296
13	0xbebb2dbf	-0.3655834
14	0x3d438174	0.047730878
15	0xbe656b20	-0.22404146
16	0x3e09c999	0.1345581
17	0xbd27fb5e	-0.041011207
18	0xbe0fb111	-0.14032389
19	0xbd8804e6	-0.06641559
20	0xbe102954	-0.14078265
21	0x3e605c4f	0.21910213
22	0xbe041c8d	-0.12901516
23	0x3e24dce4	0.16099888

AbundanceEstNet.Encoder_4.layers.0.0.conv2d.weight f4 [16, 27, 1, 1]
0	0xbe585c93	-0.21129064
1	0x3e12cbc2	0.1433554
2	0xbe95c704	-0.292534
3	0xbda90cec	-0.08254418
4	0x3dcb5410	0.09928143
5	0xbd6e6cdb	-0.05820928
6	0x3e2b0626	0.16701564
7	0x3ec318b3	0.38104782
8	0x3d239cb6	0.039944373
9	0x3e80d452	0.25161988
10	0xbdac7777	-0.084212236
11	0xbdae55c5	-0.08512453
12	0xbbce5466	-0.006296682
13	0x3e16b613	0.14717893
14	0x3e4040ea	0.18774763
15	0xbce09933	-0.027416801
16	0xbe510e0f	-0.20415519
17	0xbdfcc129	-0.1234153
18	0x3cca1fa4	0.02467329
19	0x3ca04b65	0.0195672
20	0x3e3500bc	0.17676061
21	0xbdfd2ea4	-0.123624116
22	0xbe49936b	-0.19685142
23	0xbd950990	-0.072772145
24	0x3e376af4	0.17911893
25	0x3e31c801	0.17361452
26	0x3d492433	0.049106788
27	0x3e476f1c	0.19475979
28	0x3c2147e5	0.009843801
29	0x3e008e34	0.12554246
30	0x3dc809a2	0.09767462
31	0x3e40ce57	0.18828712
32	0x3dc40889	0.095719405
33	0xbe16d7d1	-0.14730765
34	0x3deab65c	0.114605635
35	0xbdff1d15	-0.12456719
36	0xbdc2d28b	-0.09512814
37	0xbdf57d0b	-0.11986741
38	0xbdba9109	-0.091096945
39	0xbe3d0028	-0.18457091
40	0x3e311a95	0.17295296
41	0xbd3203c2	-0.043460615
42	0x3e093215	0.13398011
43	0x3e33f7ae	0.17574951
44	0x3dd32597	0.10309904
45	0x3e338825	0.17532404
46	0xbc2d8904	-0.010591749
47	0xbe2cfc02	-0.16893008
48	0x3dc673f4	0.09690085
49	0xbe2a4531	-0.16627957
50	0x3d1b3690	0.03789383
51	0xbdacf140	-0.08444452
52	0x3dffbca9	0.12487156
53	0x3e001f59	0.12511958
54	0xbbd21feb	-0.0064124963
55	0xbd88d236	-0.066807196
56	0x3e12ba03	0.1432877
57	0xbd722391	-0.05911595
58	0xbe1cb1df	-0.15302227
59	0xbdfb60d8	-0.12274331
60	0xbe3cf41b	-0.18452494
61	0x3e1429ae	0.14469025
62	0x3e0f6e3b	0.14006893
63	0xbd4163ff	-0.047214504
64	0x3dae483c	0.08509871
65	0x3dd1918f	0.10232841
66	0xbdae192e	-0.085008964
67	0x3d148d84	0.036267772
68	0xbd1ce25e	-0.038301818
69	0xbdb73b48	-0.08946854
70	0xbdf437de	-0.11924718
71	0xbdc67aec	-0.09691414
72	0xbc4e7568	-0.012601234
73	0xbcdc6741	-0.026904704
74	0xbe139f37	-0.14416204
75	0xbe317cd4	-0.17332774
76	0xbcc751c9	-0.02433099
77	0x3d9c9590	0.07645714
78	0x3d5db57c	0.054128155
79	0xbe0ef6d6	-0.13961348
80	0x3dc363a2	0.09540488
81	0xbd461e08	-0.048368484
82	0x3c3ae2b7	0.011406592
83	0x3d7b64f3	0.06137557
84	0x3de2c1c1	0.11072112
85	0x3d1e81d1	0.03869802
86	0xbddfca63	-0.10927274
87	0xbe86f5a6	-0.2635929
88	0x3d3e00cc	0.04638748
89	0x3e614588	0.2199918
90	0xbde3b169	-0.11117823
91	0x3d5b6ece	0.05357247
92	0xbe31fec3	-0.1738234
93	0xbe751385	-0.23933227
94	0x3e81544f	0.25259635
95	0xbe5dd44f	-0.2166302
96	0x3e206e1e	0.15667006
97	0x3bfc9b85	0.007708969
98	0x3d8db54b	0.069193445
99	0xbda97f08	-0.082761824
100	0x3de208d5	0.11036841
101	0x3e569cac	0.20958203
102	0x3cf013e6	0.029306363
103	0x3e8029d2	0.25031906
104	0x3e19088b	0.14944665
105	0x3d95e833	0.07319679
106	0x3dd7235e	0.10504793
107	0x3e065375	0.13117774
108	0x3e097404	0.13423163
109	0x3de3adca	0.11117132
110	0xbe3bbb4e	-0.1833317
111	0x3d48903d	0.04896568
112	0x3cc4adf0	0.024008721
113	0x3d3d8912	0.0462733
114	0x3d6519ed	0.055932928
115	0x3e0d8072	0.13818529
116	0xbe148b5a	-0.14506283
117	0xbdd4c1b8	-0.103885114
118	0x3cd8dbde	0.026472028
119	0x3e33936a	0.17536703
120	0xbdf84d00	-0.121240616
121	0xbbd3c1eb	-0.006462326
122	0x3c2f2667	0.010690308
123	0xbe37d8e9	-0.17953838
124	0xbe4c9abd	-0.19980903
125	0xbe572759	-0.21011104
126	0xbe05fa8c	-0.13083857
127	0xbe4c7f01	-0.19970323
128	0xba95e97a	-0.0011437379
129	0x3dbacf3a	0.091215566
130	0xbe0618d9	-0.13095416
131	0xbdffde04	-0.12493518
132	0xbd478fdb	-0.048721176
133	0x3db80efb	0.08987232
134	0x3e256886	0.16153154
135	0xbdb487b6	-0.08814947
136	0xbdb746e9	-0.08949072
137	0x3d81076d	0.063002445
138	0xbe38208b	-0.17981164
139	0x3de9aa8d	0.11409483
140	0xbd982d49	-0.074305125
141	0x3db1715e	0.08664201
142	0x3e1879b8	0.14890182
143	0x3d2fd46b	0.042927187
144	0xbe4004de	-0.18751857
145	0xbd672348	-0.05643013
146	0x3e28215b	0.16418974
147	0xbe35cfaf	-0.17755006
148	0x3e247c22	0.16062978
149	0xbe15e2f2	-0.14637354
150	0xbd2b5515	-0.041829187
151	0x3e09b25b	0.13446943
152	0xbe3a0623	-0.18166403
153	0xbe35d811	-0.17758204
154	0xbd1e8bfd	-0.038707722
155	0xbe120e8b	-0.1426336
156	0xbc8030f9	-0.015648352
157	0x3e00ab1f	0.12565278
158	0x3dc7c62b	0.097545944
159	0xbe335ded	-0.17516299
160	0xbd4ea8d2	-0.05045397
161	0xbe155f0d	-0.1458704
162	0xbd8a0735	-0.06739656
163	0x3dad5df1	0.084651835
164	0x3ba0cc93	0.0049071996
165	0x3e6d66e2	0.23183778
166	0x3c4a4a8c	0.012346875
167	0xbda5826b	-0.08081516
168	0x3c0c6df1	0.008571134
169	0xbdc1015d	-0.09424088
170	0xbe19d566	-0.15022811
171	0xbe1474ff	-0.14497755
172	0x3df15057	0.11782902
173	0xbe1dfe77	-0.15429102
174	0x3db8c92c	0.090227455
175	0xbd8b3deb	-0.06798919
176	0x3debb591	0.115092404
177	0xbd7d52c9	-0.06184653
178	0x3d84724b	0.06467112
179	0xbe1de9c1	-0.15421201
180	0xbd982bf0	-0.074302554
181	0xbcac7046	-0.02104963
182	0x3ca17590	0.019709378
183	0xbd0b4803	-0.034004223
184	0x3c9a8702	0.018863205
185	0x3ba9913c	0.005174784
186	0x3da3b713	0.07993903
187	0xbe7417c7	-0.23837195
188	0xbe3f3232	-0.18671492
189	0x3ddd3563	0.10801198
190	0xbd82f401	-0.06394196
191	0xbda63b87	-0.08116823
192	0x3d324535	0.043523032
193	0x3df97b27	0.121816926
194	0xbe021df1	-0.12706734
195	0x3d4a1d71	0.049344484
196	0x3dcb2a2f	0.09920155
197	0xbdb578b4	-0.08860913
198	0xbcb87587	-0.022516979
199	0xbe120796	-0.14260706
200	0xbdf3bde9	-0.11901457
201	0xbe29f5fc	-0.16597742
202	0x3e5387a7	0.20657216
203	0x3e03cf48	0.1287204
204	0x3da37477	0.07981198
205	0x3e120ccb	0.14262693
206	0x3e00b000	0.12567139
207	0x3dc442bd	0.09583042
208	0x3e8133b0	0.25234747
209	0x3ddf2ba8	0.10896999
210	0xbe2b9e68	-0.16759646
211	0x3e7e1b97	0.24815212
212	0x3d1c8950	0.03821689
213	0xbdc93982	-0.09825422
214	0x3ca5114d	0.020149851
215	0xbe09aed4	-0.13445598
216	0xbc82fc98	-0.015989587
217	0x3cc00398	0.023439214
218	0xbdefa563	-0.11701467
219	0xbd80a18c	-0.062808126
220	0xbc1934fa	-0.0093510095
221	0x3e85578c	0.26043355
222	0xbdfdeaf0	-0.123983264
223	0x3d92fa30	0.07176626
224	0x3db30de7	0.08742886
225	0xbd8119f0	-0.06303775
226	0x3bb10ac9	0.005402897
227	0xbe60c5e6	-0.21950492
228	0xbba892d3	-0.005144456
229	0x3e8d1dce	0.27561802
230	0x3dec9fe4	0.11553934
231	0x3cce964e	0.025218155
232	0xbde7547f	-0.11295413
233	0x3d56d193	0.05244596
234	0x3e395fae	0.18102905
235	0x3e05d694	0.13070136
236	0xbddb26ab	-0.10700735
237	0x3e1f336d	0.15546961
238	0xbdd4e957	-0.103960685
239	0x3d694f33	0.056960296
240	0x3e4ee06b	0.20202796
241	0xbdaf63c1	-0.085639484
242	0xbd2a9fd6	-0.041656338
243	0x3dbd6d3f	0.09249353
244	0xbc0bbcea	-0.008528927
245	0x3d25ed11	0.040509287
246	0x3ddb8ecf	0.10720598
247	0xbd873e6f	-0.06603705
248	0x3d260d30	0.04053992
249	0xbe043e00	-0.12914276
250	0x3cf145b9	0.029452192
251	0xbe2365bf	-0.15956782
252	0x3e77b858	0.24191415
253	0xbd519a6d	-0.051172663
254	0x3ba5f861	0.0050650095
255	0x3c58d715	0.013234873

AbundanceEstNet.Encoder_4.layers.0.0.conv2d.bias f4 [16]
0	0xbe15a7ac	-0.14614743
1	0x3cb571df	0.022149025
2	0xbe052987	-0.13004123
3	0x3db39c37	0.0877003
4	0x3ce1e852	0.0275766
5	0xbe2569c6	-0.1615363
6	0xbe207939	-0.15671243
7	0x3db44851	0.08802856
8	0x3d38b537	0.045094695
9	0xbe08b3d0	-0.13349843
10	0x3d9cea8a	0.07661922
11	0x3d02c1aa	0.031922974
12	0xbd898275	-0.06714336
13	0x3d7d68df	0.06186759
14	0xbdecb5a1	-0.115580805
15	0xbdcfceb8	-0.1014685

SpectralMeanEstNet.SpectralGenMean.layers.0.0.weight f4 [18, 16]
0	0x3da7e23b	0.08197447
1	0x3e27fe08	0.16405499
2	0xbe586ef4	-0.21136075
3	0x3e337a27	0.17527066
4	0x3e4a6233	0.19764023
5	0x3e52044f	0.20509456
6	0xbda49e31	-0.08037985
7	0xbcbf1334	-0.023324586
8	0x3e29860d	0.16555043
9	0xbe838bf0	-0.256927
10	0xbe374099	-0.17895736
11	0xbe346104	-0.17615134
12	0xbe065987	-0.1312009
13	0xbd820d11	-0.063501485
14	0xbecc48ec	-0.39899385
15	0xbe4b292d	-0.19839926
16	0xbd19640f	-0.03744894
17	0x3e9342eb	0.28761992
18	0x3cf30f1b	0.029670289
19	0xbe9b5da6	-0.30344886
20	0x3dbe3a42	0.092884555
21	0x3e1d58b6	0.15365872
22	0xbea7384a	-0.32660133
23	0x3df0821d	0.11743567
24	0x3ccf07a3	0.025272196
25	0x3db505c9	0.08838994
26	0x3d9ce1d5	0.076602615
27	0xbdaf0597	-0.08545988
28	0xbb154861	-0.0022778737
29	0xbdb41ec2	-0.08794929
30	0x3e5017b6	0.20321545
31	0x3a31ab36	0.00067775266
32	0x3bc4e7b5	0.006009067
33	0xbe88b0db	-0.2669743
34	0xbe91dfe0	-0.28491116
35	0x3c9a37e5	0.01882548
36	0x3e3a7354	0.18208057
37	0x3e0e61ba	0.13904467
38	0xbde43651	-0.111431725
39	0x3db102a9	0.086430855
40	0xbe892323	-0.2678462
41	0xbe92f3a7	-0.28701517
42	0xbe7e4c9b	-0.2483391
43	0x3e7400af	0.23828386
44	0xbdaeff67	-0.08544808
45	0xbc1f24bf	-0.009713351
46	0xbc8f0c1f	-0.017461834
47	0xbe3c9113	-0.18414716
48	0x3d2eb21a	0.04265032
49	0xbe88460c	-0.26615942
50	0xbe3ecad1	-0.18632056
51	0x3e914413	0.2837225
52	0xbe6984d6	-0.22804579
53	0xbdfffd58	-0.12499493
54	0x3d7f3f15	0.06231602
55	0xbe71df7e	-0.23620412
56	0x3e11f56f	0.14253782
57	0x3c59370e	0.013257755
58	0x3e835680	0.25651932
59	0x3e853cc0	0.2602291
60	0x3e25bd4f	0.16185497
61	0xbe0e0d85	-0.13872345
62	0xbe7f89bc	-0.24954885
63	0x3e13ead0	0.14445043
64	0x3e9aac9d	0.30209818
65	0xbd4a27e6	-0.049354456
66	0xbe02ff30	-0.12792659
67	0x3e1c607c	0.15271181
68	0xbe7e34d5	-0.24824841
69	0xbeaa8725	-0.33306232
70	0xbda423bb	-0.080146275
71	0xbd5f817a	-0.054566838
72	0xbec5a177	-0.3859975
73	0x3e11a85c	0.1422438
74	0x3e845bbc	0.25851238
75	0xbd9e3609	-0.0772515
76	0x3d99a9d9	0.07503099
77	0x3e64bb64	0.22337109
78	0xbe3021d1	-0.172004
79	0x3dfe6548	0.124216616
80	0xbe94b6b4	-0.2904564
81	0xbd0f88a6	-0.035042427
82	0x3d950ba9	0.072776146
83	0xbdaf8120	-0.085695505
84	0x3e87f3af	0.26553103
85	0x3d98d6d2	0.07462849
86	0xbe86f7bb	-0.26360878
87	0xbac72ce1	-0.001519587
88	0xbe21f2f7	-0.1581534
89	0xbe90d66c	-0.2828859
90	0x3e1581ae	0.1460025
91	0x3c5f515f	0.01363024
92	0xbe76f0ac	-0.24115247
93	0x3dc9d505	0.098550834
94	0xbdcf4e0a	-0.10122307
95	0x3e40edd5	0.18840726
96	0xbdea189e	-0.114304766
97	0x3e9e32c5	0.3089811
98	0x3da69cc3	0.08135369
99	0xbe9307da	-0.28716928
100	0xbe4c0f9b	-0.19927828
101	0xbadadcd0	-0.0016697887
102	0x3e9a1d4f	0.30100486
103	0x3e2c07f4	0.16799909
104	0x3b10b823	0.002208241
105	0x3e569f0f	0.20959114
106	0x3e08c64d	0.13356896
107	0x3e677eae	0.22606918
108	0xbe606a8e	-0.21915647
109	0xbd5217ce	-0.051292233
110	0xbe9e2e9f	-0.30894944
111	0xbddeaf95	-0.10873333
112	0xbe6bd605	-0.2303086
113	0xbea65e78	-0.3249395
114	0x3e1d180d	0.15341206
115	0xbdad63c8	-0.084662974
116	0x3e8cd4c3	0.27506074
117	0xbebdd4bd	-0.3707637
118	0x3be07b6c	0.0068506505
119	0x3e871934	0.26386416
120	0x3d9d64a8	0.07685214
121	0x3e8cd905	0.27509323
122	0x3eb420e6	0.3518135
123	0xbec0e8c7	-0.37677595
124	0x3d109763	0.035300624
125	0xbe7e57ee	-0.2483823
126	0x3e10d55f	0.14143895
127	0xbdd4e9d2	-0.1039616
128	0x3d92a942	0.071611896
129	0x3da2d237	0.079502515
130	0x3de4c5da	0.1117055
131	0x3e3b4f30	0.18291926
132	0xbd1e03bc	-0.03857778
133	0xbeb7e745	-0.35918632
134	0x3e0643ff	0.13111876
135	0xbe89fb6f	-0.2694964
136	0x3e022eb5	0.1271313
137	0xbe1e870b	-0.15481202
138	0x3e098168	0.13428271
139	0xbe9cd0e7	-0.3062813
140	0xbd942569	-0.07233698
141	0xbe334682	-0.17507365
142	0xbda9a639	-0.082836576
143	0xbde03fda	-0.10949679
144	0x3ea1291a	0.3147667
145	0x3dbcc750	0.09217703
146	0x3de89689	0.11356837
147	0x3e86a327	0.2629635
148	0xbe7d9fd1	-0.24767996
149	0x3db75472	0.089516535
150	0xbe883ba2	-0.26607996
151	0x3e988692	0.2979017
152	0x3e179871	0.14804246
153	0x3ddca9d9	0.10774583
154	0x3e28f702	0.16500476
155	0xbdbae5fc	-0.09125897
156	0xbd8c97d2	-0.06864895
157	0x3d3be522	0.045872815
158	0x3da7302e	0.081634864
159	0x3e3a7c58	0.18211496
160	0xbe8fc1a0	-0.28077412
161	0xbcb39e3b	-0.021926036
162	0xbc786c93	-0.015162605
163	0xbe003e05	-0.12523659
164	0xbe5ccd46	-0.2156268
165	0xbe9fadaf	-0.31187198
166	0xbdd8b951	-0.10582221
167	0xbe979446	-0.2960531
168	0x3e27731c	0.16352504
169	0xbc178492	-0.009247916
170	0xbe2c0d3d	-0.16801925
171	0x3dc34ad2	0.09535755
172	0x3e6b280c	0.22964495
173	0x3ddef90e	0.10887347
174	0xbd1acd2e	-0.03779333
175	0x3e904deb	0.28184447
176	0x3ea24069	0.31689766
177	0xbde639b2	-0.11241473
178	0x3e9c7e5d	0.30565158
179	0xbe879db4	-0.26487505
180	0x3d238bae	0.03992813
181	0x3e179184	0.14801604
182	0x3e88a8b4	0.2669121
183	0x3e2b1e9f	0.167109
184	0x3aa9a096	0.0012941535
185	0xbe4198f8	-0.18906009
186	0xbe843170	-0.25818968
187	0x3c065991	0.008200065
188	0x3ea91803	0.33026132
189	0x3db642da	0.0889947
190	0x3de905be	0.11378048
191	0x3e780ecb	0.24224393
192	0x3e174c3c	0.14775175
193	0xbd30297f	-0.043008324
194	0xbddbae42	-0.107265964
195	0x3e5cdca2	0.2156854
196	0xbd6d07fa	-0.057868935
197	0x3eaa6d9e	0.33286756
198	0x3e4c3707	0.19942866
199	0xbe6d47e9	-0.23171963
200	0x3ed21b13	0.4103628
201	0xbdccd4f5	-0.10001556
202	0xbe4b3b0c	-0.19846743
203	0x3ea330b4	0.31873095
204	0xbe4e3fb3	-0.20141487
205	0xbc43c6d0	-0.011949256
206	0x3e30acbc	0.17253393
207	0x3e93c75d	0.2886304
208	0xbe6284ea	-0.22121015
209	0xbdc1342b	-0.094337784
210	0xbdecbc62	-0.11559369
211	0xbe4b1aba	-0.19834414
212	0x3d1b8d8f	0.037976798
213	0x3dae73c2	0.08518173
214	0x3d9827c7	0.07429462
215	0x3e473a5d	0.19455858
216	0xbe1f3394	-0.15547019
217	0x3d873d11	0.06603444
218	0x3e1aec45	0.15129192
219	0xbe4be5a0	-0.19911814
220	0xbe1c9198	-0.15289915
221	0xbdcc1067	-0.09964066
222	0x3e357595	0.17720635
223	0xbe259b47	-0.16172515
224	0xbe5bf2fc	-0.2147941
225	0xbd2ba791	-0.04190785
226	0xbe4e81cc	-0.20166701
227	0xbe281157	-0.16412865
228	0xbe6ad8e3	-0.22934298
229	0x3e636028	0.2220465
230	0x3e89a941	0.26886943
231	0xbe93dd6a	-0.28879863
232	0xbe943dd1	-0.28953412
233	0x3d28f8e4	0.041252986
234	0xbe90c15c	-0.28272521
235	0xbe4cc55a	-0.19997159
236	0xbe27d1ad	-0.16388579
237	0xbd885278	-0.06656355
238	0x3e7f0100	0.24902725
239	0x3e55a7ca	0.20864788
240	0xbe71c8f5	-0.23611815
241	0xbe9ad8a9	-0.30243424
242	0xbe59266c	-0.21206063
243	0x3e68982d	0.227143
244	0xbe0c94d7	-0.13728653
245	0x3e7b0d04	0.24516684
246	0xbd76fd52	-0.06030018
247	0x3e14337d	0.14472766
248	0x3e0b9053	0.13629274
249	0x3e6017d2	0.21884087
250	0x3e01740c	0.12641925
251	0x3e9e6787	0.3093836
252	0x3dbcaa13	0.092121266
253	0xbdc28051	-0.09497131
254	0x3b2aa434	0.0026037814
255	0x3e73cea0	0.2380929

SpectralMeanEstNet.SpectralGenMean.layers.0.0.bias f4 [18]
0	0xbc9f8cae	-0.019476261
1	0xbd1c2b78	-0.038127393
2	0xbb36a161	-0.0027867185
3	0xbbdf6f25	-0.0068186694
4	0x3e49fb57	0.19724785
5	0xbe58267b	-0.21108429
6	0xbd4b7d12	-0.049679823
7	0xbd62f6d6	-0.055411182
8	0xbd4cb4dc	-0.04997717
9	0xbd153f80	-0.03643751
10	0xbd7112f8	-0.05885598
11	0xbcc93860	-0.024563015
12	0xbe571b40	-0.21006489
13	0x3df511f9	0.11966319
14	0xbd00e88c	-0.031471774
15	0xbd0bf232	-0.034166522
16	0xbcf1acf6	-0.02950142
17	0xbca3500e	-0.019935634

SpectralMeanEstNet.SpectralGenMean.layers.1.0.weight f4 [22, 18]
0	0xbe2da56d	-0.16957636
1	0x3b92169c	0.0044582617
2	0xbeb7167e	-0.35759348
3	0xbe56e754	-0.20986682
4	0xbe243470	-0.16035628
5	0xbd940365	-0.0722721
6	0xbe97d2f7	-0.2965314
7	0xbe26481d	-0.16238447
8	0xbe2d7e2a	-0.16942659
9	0xbe6e61b3	-0.23279457
10	0x3d979956	0.074022934
11	0xbe3d1dee	-0.18468449
12	0x3df721cb	0.12066992
13	0x3e4cd214	0.20002013
14	0xbe17c7c0	-0.14822292
15	0xbde2d79e	-0.11076282
16	0x3dc6c5bc	0.097056836
17	0xbd92e905	-0.07173351
18	0x3eb210b8	0.3477838
19	0x3e248fa4	0.1607042
20	0x3e8d7203	0.27626047
21	0xbe06e8b7	-0.13174711
22	0xbca5cfd5	-0.020240704
23	0x3e5faa9f	0.2184243
24	0x3da46328	0.08026725
25	0xbe6b6869	-0.22989048
26	0x3e15699d	0.1459107
27	0x3e001406	0.12507638
28	0x3d393a24	0.045221463
29	0x3e814a43	0.2525197
30	0x3e28ffe8	0.1650387
31	0xbe130384	-0.1435681
32	0x3d41ae5a	0.047285415
33	0xbd9ef7ad	-0.07762084
34	0x3e8430c2	0.2581845
35	0xbc5a19fb	-0.013311858
36	0x3ce1302a	0.027488787
37	0x3e136872	0.14395311
38	0x3e9f7ea3	0.31151304
39	0x3e74c1ca	0.2390205
40	0xbe805005	-0.2506105
41	0xbe1898c9	-0.14902033
42	0x3ea809b0	0.3281989
43	0xbd8d7668	-0.0690735
44	0xbd4728ab	-0.04862277
45	0x3c966697	0.018359466
46	0x3eb5fa69	0.3554261
47	0x3dead31c	0.11466047
48	0x3e61b012	0.22039822
49	0xbe9bea42	-0.30452162
50	0x3e77296b	0.24136893
51	0x3e88b5d5	0.26701227
52	0x3e9b187f	0.30292127
53	0x3e567e3c	0.20946592
54	0x3c774b76	0.015093675
55	0xbe171a07	-0.14756022
56	0x3e100bf5	0.14067061
57	0x3e707d89	0.23485388
58	0xbd2a0e15	-0.041517336
59	0x3dd1c717	0.102430515
60	0x3d9b3fc1	0.075805195
61	0xbc70300b	-0.014659892
62	0x3e1844d4	0.14870006
63	0x3e88f11a	0.26746446
64	0x3e226090	0.15857148
65	0x3d9e4d87	0.07729631
66	0x3dbb8f69	0.09158213
67	0x3cdd78ac	0.02703508
68	0xbd24f2e6	-0.04027071
69	0x3d7f6e1a	0.06236086
70	0x3e216284	0.15760237
71	0xbd993fa7	-0.07482844
72	0xbdb6573f	-0.089033596
73	0xbe91acd8	-0.28452182
74	0xbe92ff97	-0.28710625
75	0xbdcdab15	-0.10042397
76	0xbd7d08a0	-0.061775804
77	0x3d50ff3a	0.051024653
78	0xbe2400f1	-0.16015984
79	0xbe0acdbe	-0.13555047
80	0xbdde3463	-0.10849836
81	0xbdc5ba42	-0.096546665
82	0xbe80f057	-0.25183365
83	0xbd05d57a	-0.03267429
84	0x3d938e10	0.07204831
85	0xbd27cd85	-0.040967483
86	0xbdc18f3e	-0.094511494
87	0x3d188a4e	0.037241273
88	0x3d29ad7c	0.041425213
89	0xbde055bb	-0.10953852
90	0xbd832e13	-0.06405272
91	0xbcd33b66	-0.02578516
92	0x3e0ab364	0.13544995
93	0xbe302480	-0.17201424
94	0xbe489f26	-0.1959196
95	0x3c148a61	0.009066195
96	0x3d2a067b	0.041510087
97	0x3d9e1396	0.077185795
98	0x3e3d0c08	0.18461621
99	0x3e74e892	0.23916844
100	0x3eb30d0b	0.34970888
101	0xbcd4c5bf	-0.025973199
102	0xbe3c63d6	-0.1839746
103	0x3e2a95d0	0.16658711
104	0x3e91a2e6	0.28444594
105	0x3ea8b1d8	0.32948184
106	0x3e4f229b	0.20228045
107	0x3e8fad61	0.28061965
108	0x3be1de6f	0.006892971
109	0xbdf352fc	-0.118810624
110	0xbe6f0c18	-0.23344457
111	0xbe7bc31a	-0.24586144
112	0xbdb4ceed	-0.088285305
113	0xbd80adc3	-0.062831424
114	0x3d7ed0ff	0.062211033
115	0x3d1a5b0c	0.037684485
116	0xbe1e8410	-0.15480065
117	0xbd5ab5dc	-0.05339609
118	0x3dc173e8	0.094459355
119	0x3dbf3fc6	0.09338336
120	0x3c3ee1cb	0.011650513
121	0x3b80b8e7	0.003928292
122	0xbcac3350	-0.021020561
123	0x3c80b3d9	0.015710758
124	0xbe568811	-0.20950343
125	0x3da1aaba	0.07893892
126	0x3de13043	0.10995533
127	0xbd6edadb	-0.058314186
128	0x3c8566db	0.016284397
129	0xbd6ba2d1	-0.05752832
130	0xbe262845	-0.16226299
131	0xbdbbaeda	-0.0916421
132	0xbe5d02fd	-0.21583171
133	0x3e3c6c4b	0.18400685
134	0x3c73b919	0.014875674
135	0x3dc8f119	0.09811611
136	0xbe20c7ec	-0.15701264
137	0x3cf91595	0.030405799
138	0xbe3d7793	-0.18502645
139	0x3db64560	0.08899951
140	0xbe0c9fff	-0.13732909
141	0xbe4b2e6d	-0.19841929
142	0x3e6dd92c	0.23227376
143	0xbdf304f2	-0.118661776
144	0x3eb20831	0.34771875
145	0x3e63d6ef	0.2224996
146	0x3e998bcd	0.29989472
147	0x3e969319	0.29409102
148	0xbce986cd	-0.02850666
149	0xbc298859	-0.010347449
150	0x3e44446a	0.19166723
151	0x3e8debe6	0.2771904
152	0xbd89963c	-0.06718108
153	0xbd0bdb69	-0.034144793
154	0x3e216d33	0.15764312
155	0x3e5b2612	0.21401241
156	0xbe8865bd	-0.2664012
157	0x3ea6b31d	0.32558528
158	0x3e909c33	0.2824417
159	0x3ea743bb	0.32668862
160	0x3d0e320a	0.03471569
161	0xbd1b1f2f	-0.037871536
162	0x3e4a9544	0.19783503
163	0x3e97374c	0.29534376
164	0x3eb8a4c9	0.3606322
165	0xbd7b1445	-0.061298627
166	0x3e93081a	0.28717119
167	0xbd6235b7	-0.055227008
168	0xbd4249ec	-0.04743378
169	0x3e78a43c	0.242814
170	0x3e8ac3fd	0.27102652
171	0x3e3e9b1a	0.18613854
172	0xbd61059f	-0.054937
173	0x3ecec083	0.4038125
174	0xbe06f51a	-0.13179436
175	0x3d99d504	0.07511333
176	0x3ccd406f	0.025055138
177	0xbdff2dfe	-0.12459944
178	0x3dc0f055	0.0942084
179	0x3e588f74	0.21148473
180	0x3e2a9c9f	0.16661309
181	0x3d23c97e	0.03998708
182	0x3ea48fb4	0.32140887
183	0x3d8cd8d2	0.06877293
184	0xbdf2717e	-0.11838053
185	0xbd057004	-0.03257753
186	0x3d8f158f	0.06986534
187	0x3e828a68	0.2549622
188	0x3eabc92b	0.33551916
189	0x3e2ac39e	0.16676185
190	0x3eb38ba2	0.3506747
191	0x3eb09314	0.34487212
192	0x3dc4273e	0.09577797
193	0x3e20308e	0.15643522
194	0x3e26cb46	0.1628848
195	0x3e131c40	0.14366245
196	0x3eb93781	0.3617516
197	0x3d861f96	0.06548993
198	0xbea592b6	-0.32338494
199	0xbe91c1e0	-0.28468227
200	0x3c122982	0.008921029
201	0xbe88280b	-0.2659305
202	0x3b01f1fc	0.0019828072
203	0xbcf45487	-0.029825462
204	0xbea03c93	-0.31296214
205	0xbe1ca813	-0.1529849
206	0xbd6bdad0	-0.057581723
207	0xbdc25070	-0.094879985
208	0xbc32df8c	-0.010917556
209	0xbe44b21e	-0.19208571
210	0xbdcb4aba	-0.09926362
211	0xbcfbd989	-0.030743377
212	0xbe806cbc	-0.25082958
213	0xbe043e88	-0.12914479
214	0xbe0b0a8d	-0.13578244
215	0xbd349eb4	-0.044096664
216	0xbdfcd4aa	-0.1234525
217	0x3d8eaede	0.06966947
218	0xbd62338d	-0.055224944
219	0xbdd5701c	-0.10421774
220	0xbde3e926	-0.11128454
221	0x3dde54be	0.10856007
222	0xbd1e3ef8	-0.03863427
223	0xbe80b85c	-0.25140655
224	0xbe589242	-0.21149543
225	0xbd13c594	-0.036077097
226	0xbd83227d	-0.064030625
227	0xbe52d95c	-0.20590729
228	0xbe47e166	-0.19519576
229	0x3dc59dee	0.09649263
230	0x3d0c5c98	0.03426799
231	0xbe23b274	-0.15986043
232	0xbe5642b4	-0.20923883
233	0x3ddcb624	0.10776928
234	0xbde7b7de	-0.11314367
235	0x3e917bce	0.28414768
236	0xbcf69cf1	-0.030104132
237	0x3e3a6d8c	0.18205851
238	0x3dc91d80	0.0982008
239	0x3da2365b	0.07920524
240	0x3e775f3e	0.24157426
241	0x3c383711	0.011243598
242	0xbe1bd878	-0.15219295
243	0x3db76e18	0.089565456
244	0x3e13a7f8	0.14419544
245	0x3d2db9e1	0.042413596
246	0x3d94532b	0.072424255
247	0x3e8bf63a	0.27336293
248	0xbd01b033	-0.031662177
249	0x3e30f509	0.17280973
250	0x3e49a879	0.19693173
251	0x3e807cf1	0.25095323
252	0xbd095f95	-0.03353842
253	0xbe83b404	-0.2572328
254	0xbdd409dd	-0.10353444
255	0xbca30321	-0.019898953

SpectralMeanEstNet.SpectralGenMean.layers.1.0.bias f4 [22]
0	0x3e2b2a01	0.16715242
1	0x3c340330	0.010987088
2	0x3d48be16	0.049009405
3	0x3e25bd1d	0.16185422
4	0x3dd50598	0.104014575
5	0x3a44fc43	0.00075143966
6	0xbd20a2fa	-0.039217927
7	0xbbb46010	-0.0055046156
8	0xbd6db6c1	-0.058035616
9	0xbdcc27c0	-0.09968519
10	0x3e53db13	0.20689039
11	0xbd835de0	-0.064143896
12	0x3df7b9c5	0.120959796
13	0xbc24c336	-0.010056308
14	0x3e1a9ebb	0.15099613
15	0xbd45135d	-0.04811417
16	0xbdecaf4c	-0.11556873
17	0x3d9c3f35	0.07629243
18	0xbd908468	-0.070565045
19	0x3df6fa27	0.120594315
20	0xbd7b3a62	-0.061334975
21	0x3e26fd3f	0.16307543

SpectralMeanEstNet.SpectralGenMean.layers.2.0.weight f4 [26, 22]
0	0xbcb4c19e	-0.02206498
1	0x3dfdb80c	0.1238862
2	0x3e85065b	0.2598141
3	0x3e4f3dd5	0.20238431
4	0xbe0c6dce	-0.13713762
5	0x3e6b321f	0.22968338
6	0x3e290ec0	0.16509533
7	0xbd975cf5	-0.07390777
8	0x3dd2f167	0.1029995
9	0x3e0091e6	0.12555656
10	0x3df4cd07	0.11953168
11	0xbe78f349	-0.24311556
12	0xbe5c568e	-0.21517393
13	0x3e777d7d	0.24168964
14	0x3d0ff476	0.035145245
15	0x3e04be2b	0.12963168
16	0x3cf4ae8f	0.029868392
17	0x3e7b8db2	0.24565771
18	0x3e38efe2	0.18060258
19	0xbdee977c	-0.11649987
20	0xbbae898b	-0.005326455
21	0xbe265923	-0.1624494
22	0xbd7e634c	-0.062106416
23	0xbd87332c	-0.06601557
24	0xbe91aed7	-0.28453705
25	0x3e4ed6fb	0.20199196
26	0xbd37f3bd	-0.04491018
27	0xbe639a88	-0.22226918
28	0xbdefd6b2	-0.11710872
29	0xbc0c7010	-0.00857164
30	0xbe5d363d	-0.21602722
31	0xbd9399cb	-0.07207068
32	0xbcaf724b	-0.021416804
33	0xbd912012	-0.07086195
34	0x3dbe1fe0	0.092834234
35	0x3cc0086a	0.023441512
36	0x3d2aaa22	0.041666158
37	0xbece2031	-0.40258935
38	0x3dbd2c94	0.09237018
39	0xbe84e219	-0.2595375
40	0xbe6b697e	-0.22989461
41	0x3e5e028a	0.21680656
42	0xbe1e7a62	-0.15476373
43	0x3dae0eee	0.08498941
44	0x3e1b1a91	0.15146853
45	0x3c813705	0.015773306
46	0xbe144458	-0.14479196
47	0xbd544395	-0.051822264
48	0x3d9760e7	0.073915295
49	0xbe78014d	-0.24219246
50	0xb9b17947	-0.0003385043
51	0xbe2377a5	-0.1596361
52	0xbe6d7e26	-0.23192653
53	0xbebb42da	-0.3657444
54	0xbe50cf91	-0.2039168
55	0x3dc50f27	0.09622031
56	0x3d8c9441	0.06864215
57	0xbe8fd371	-0.28091004
58	0x3e413602	0.18868259
59	0xbde1bbd2	-0.11022152
60	0x3e3a00c6	0.18164358
61	0xbddd132b	-0.107946716
62	0xbe596a02	-0.21231845
63	0xbd2a9298	-0.04164371
64	0x3b94fefd	0.0045469985
65	0xbd4f4ffb	-0.050613385
66	0xbcac0267	-0.02099724
67	0x3d80d934	0.06291428
68	0x3ea0f1ec	0.31434572
69	0x3df1de30	0.11809957
70	0x3e0963be	0.13416955
71	0x3e07988a	0.13241783
72	0xbe3e5f36	-0.18591008
73	0x3e401413	0.18757658
74	0x3e0346c0	0.12819958
75	0x3eb8ef75	0.3612019
76	0x3e73acce	0.23796389
77	0xbd3e1c61	-0.046413783
78	0x3d1e47ad	0.038642574
79	0x3c2bb567	0.010480261
80	0x3e21664a	0.15761676
81	0x3d11b3a6	0.035571717
82	0x3e08d84d	0.13363762
83	0xbd058c20	-0.032604337
84	0x3ec64f61	0.38732436
85	0xbe29b627	-0.16573392
86	0xbe10ec6c	-0.14152688
87	0x3d86ac8a	0.06575878
88	0xbdd43bbc	-0.10362956
89	0x3e8b8117	0.27246925
90	0x3cd07666	0.025447082
91	0xbe00329d	-0.12519307
92	0xbd8e7b58	-0.0695712
93	0xbc5cea62	-0.013483616
94	0x3e2be17c	0.16785234
95	0x3de9189e	0.113816485
96	0x3e03a868	0.1285721
97	0x3eac49aa	0.3364995
98	0x3e6a9d4b	0.22911565
99	0xbe3959ef	-0.18100713
100	0x3d2e01f0	0.042482316
101	0x3cbc9e66	0.023024749
102	0xbe52b307	-0.20576106
103	0x3d3a2e53	0.045454334
104	0x3d74940e	0.05971151
105	0x3e4f87ef	0.20266698
106	0x3c82927a	0.015938986
107	0xbeafe6b4	-0.343557
108	0x3def2707	0.11677366
109	0xbe1bf0ed	-0.15228625
110	0x3e11fa81	0.14255716
111	0xbe546858	-0.20742929
112	0xbd74a057	-0.059723224
113	0xbcfe1a25	-0.031018326
114	0x3e05d300	0.13068771
115	0xbe55603e	-0.20837495
116	0xbc80f63e	-0.015742417
117	0xbdddd43c	-0.10831496
118	0xbbc089e5	-0.0058758133
119	0xbe2493ff	-0.16072081
120	0xbe843e73	-0.25828895
121	0x3e84380c	0.2582401
122	0x3e08a184	0.13342863
123	0xbe9e4de3	-0.30918798
124	0xbc5b10cd	-0.013370705
125	0xbeed856e	-0.4639086
126	0x3d86ddbc	0.06585261
127	0xbcfce64d	-0.030871535
128	0xbc007545	-0.007840459
129	0x3d08e335	0.033419807
130	0x3e2731da	0.1632761
131	0xbdf0a2ca	-0.117497995
132	0xbe0a290e	-0.13492224
133	0xbc3cd1cc	-0.011524629
134	0x3e39bac1	0.18137647
135	0x3e4a364e	0.19747278
136	0xbde767be	-0.11299084
137	0x3e1ef8ab	0.15524547
138	0xbd9ee5d2	-0.077586785
139	0xbdee1e1d	-0.116268374
140	0x3e31af9b	0.17352144
141	0xbd0f19f1	-0.03493685
142	0x3e4cab0e	0.19987127
143	0xbe23a905	-0.15982445
144	0x3e2fb7d8	0.17159975
145	0x3e148251	0.14502837
146	0xbe3cfd92	-0.18456104
147	0x3ecf182a	0.40448123
148	0xbdb7d764	-0.089766294
149	0xbd7ccf6d	-0.061721254
150	0x3edfbf72	0.4370075
151	0xbdb83193	-0.089938305
152	0xbbeb8e16	-0.007188569
153	0xbe1dd9b0	-0.15415072
154	0xbd4e5530	-0.05037421
155	0x3eabe391	0.33572057
156	0x3c7f1283	0.015568378
157	0xbd93894e	-0.07203923
158	0x3e78dc0f	0.24302696
159	0x3d8d7f66	0.06909065
160	0xbdb70920	-0.08937287
161	0x3e394eef	0.18096517
162	0x3e427582	0.18990138
163	0x3b8a2c0f	0.004216678
164	0x3da7202b	0.081604324
165	0xbd047383	-0.032336723
166	0xbca676d4	-0.020320334
167	0x3e985705	0.2975389
168	0x3e985345	0.2975103
169	0x3ea95b0a	0.3307727
170	0xbdf8dd5e	-0.121515974
171	0x3d3e5b2d	0.04647367
172	0x3d517fb0	0.051147163
173	0xbe4c009a	-0.19922104
174	0xbdef8fd7	-0.11697357
175	0x3e6a0490	0.22853303
176	0x3e057f6e	0.13036892
177	0xbe14e58a	-0.14540687
178	0xbeb8ac31	-0.36068872
179	0x3dc4b066	0.09603958
180	0xbcddc059	-0.027069258
181	0xbd8f9ae1	-0.07011963
182	0xbdca1f38	-0.09869236
183	0xbd2a3b7f	-0.041560646
184	0xbe0ef206	-0.13959512
185	0xbe8a2851	-0.26983884
186	0xbe06c59a	-0.13161317
187	0x3e1aae02	0.15105441
188	0x3d91ddb5	0.071223654
189	0xbaebc5d7	-0.0017988038
190	0xbe0f7436	-0.14009175
191	0xbd6f7838	-0.05846426
192	0xbe67cdcd	-0.226371
193	0xbe5607d5	-0.20901425
194	0xbe6a75ce	-0.22896501
195	0xbdb2c2af	-0.08728539
196	0x3e3fb1c7	0.1872016
197	0xbd13cafa	-0.036082245
198	0xbdca5e61	-0.098812826
199	0x3e6da739	0.23208322
200	0x3e1ba035	0.15197833
201	0x3e1fee04	0.1561814
202	0x3dccb4e9	0.099954434
203	0x3df03cb4	0.11730328
204	0xbe543f38	-0.20727241
205	0x3df116e7	0.117719464
206	0x3e039bf4	0.1285246
207	0x3e642e4e	0.22283289
208	0x3e432f12	0.19060925
209	0xbe341ed0	-0.17589879
210	0xbdcbf042	-0.09957935
211	0xbcfaf84d	-0.030635977
212	0x3ce9762d	0.028498733
213	0x3e4f31b2	0.20233801
214	0xbd585330	-0.05281371
215	0x3d41db35	0.047328193
216	0x3e510649	0.20412554
217	0xbdeb405e	-0.114868864
218	0x3e32db17	0.17466389
219	0x3df6a51a	0.120432094
220	0x3e8b2c7d	0.2718238
221	0xbea08fdf	-0.31359765
222	0xbeb60c6d	-0.35556355
223	0x3e279483	0.16365246
224	0x3e6514f1	0.2237127
225	0x3d47c123	0.048768174
226	0xbe1b2e78	-0.15154445
227	0xbe2cecf0	-0.1688726
228	0xbb36ced3	-0.0027894273
229	0xbeab4798	-0.3345306
230	0xbe447cf1	-0.19188286
231	0x3e009399	0.12556304
232	0x3e769399	0.24079742
233	0xbe6aed53	-0.22942095
234	0xbce931af	-0.028466074
235	0xbeb99308	-0.36244988
236	0xbe130417	-0.14357029
237	0xbd4bd1fd	-0.049760807
238	0xbe73a84f	-0.23794673
239	0x3e71364c	0.23555869
240	0xbdfea61f	-0.12434029
241	0xbd287575	-0.04112764
242	0xbe44a9cc	-0.19205397
243	0xbe7caa19	-0.24674262
244	0xbc466f28	-0.012111463
245	0xbd22061d	-0.03955661
246	0xbe3f5804	-0.18685919
247	0xbd90d9c4	-0.070727855
248	0x3da5274b	0.08064135
249	0x3d917189	0.07101733
250	0x3c3deaf1	0.011591659
251	0xbeadc9c4	-0.33942997
252	0x3cc2120f	0.023690252
253	0xbe1f3f4c	-0.1555149
254	0x3e279ad2	0.16367653
255	0x3d537ef3	0.05163474

SpectralMeanEstNet.SpectralGenMean.layers.2.0.bias f4 [26]
0	0xbd0d8cf2	-0.034558244
1	0xbe1aa7c7	-0.15103064
2	0x3e042291	0.12903811
3	0xbd5c3a06	-0.053766273
4	0x3d44d6ff	0.0480566
5	0x3e1cd1ff	0.15314482
6	0xbd5c8152	-0.053834267
7	0xbdc2bdb0	-0.09508836
8	0x3e3bd8dc	0.18344444
9	0x3dfeec3c	0.12447402
10	0x3e6e8f7a	0.2329692
11	0x3de766ec	0.11298928
12	0xbd361336	-0.044451915
13	0x3dc8c581	0.09803296
14	0x3d8ee074	0.06976405
15	0x3bda2e1b	0.006658328
16	0x3e1f73ad	0.1557147
17	0x3d1e6188	0.03866723
18	0xbe291e0a	-0.16515365
19	0x3def4e84	0.116848975
20	0xbd9e74d8	-0.0773713
21	0xbdadd81d	-0.08488486
22	0xbe020ed7	-0.12700973
23	0x3b822480	0.0039716363
24	0x3d359637	0.04433271
25	0xbcc4468b	-0.023959419

SpectralMeanEstNet.SpectralGenMean.layers.3.0.weight f4 [30, 26]
0	0xbeb3a119	-0.35083845
1	0x3df5d92c	0.12004313
2	0x3e454595	0.19264825
3	0xbd622390	-0.055209696
4	0xbe068bc2	-0.13139251
5	0x3e18d70e	0.14925787
6	0xbe77a344	-0.24183375
7	0x3c0f8367	0.008759356
8	0x3e5a261c	0.213036
9	0xbe23501d	-0.1594853
10	0x3e35d828	0.17758238
11	0xbe29f9e9	-0.1659924
12	0x3cee9c49	0.029127257
13	0x3cf255f7	0.029582007
14	0xbe64926a	-0.22321478
15	0x3d0219cd	0.031762887
16	0xbd023a30	-0.031793773
17	0x3d9e3718	0.07725352
18	0xbcb118c9	-0.021618264
19	0x3e0828ac	0.13296765
20	0xbadaa7ad	-0.0016682051
21	0xbe1b2c2b	-0.15153567
22	0xbd62bf48	-0.0553582
23	0xbe1c574d	-0.15267678
24	0x3e53691b	0.20645563
25	0x3e1d04d9	0.1533388
26	0x3e1b319f	0.15155648
27	0x3cc03899	0.023464488
28	0xbdd9cc41	-0.106346615
29	0xbd83ea0a	-0.06441124
30	0x3b0a4290	0.0021096803
31	0xbe85cf8f	-0.26134917
32	0xbe0470bd	-0.12933631
33	0x3e0b2f9d	0.13592382
34	0xbe7be751	-0.24599959
35	0x3e0be003	0.13659672
36	0x3d7d73d5	0.061878044
37	0xbd3e8222	-0.046510823
38	0x3e05c6eb	0.13064162
39	0xbe078355	-0.13233693
40	0xbdafc90a	-0.08583267
41	0x3e425121	0.1897626
42	0x3e4089e1	0.18802597
43	0x3daeb252	0.08530106
44	0xbe5e8dc4	-0.21733767
45	0xbe1bba1c	-0.15207714
46	0xbe3bc5a8	-0.18337119
47	0xbd7da9e3	-0.061929595
48	0x3d4bcaf9	0.049754117
49	0xbe013cb1	-0.12620808
50	0xbe3c1d1f	-0.18370484
51	0xbe44a745	-0.19204433
52	0x3e7384ec	0.23781174
53	0x3d85d276	0.06534283
54	0x3de68569	0.11255915
55	0x3e5feaae	0.21866867
56	0x3e0154a2	0.12629941
57	0xbd116c8b	-0.035503905
58	0xbcfb5c35	-0.030683616
59	0xbd9e577e	-0.077315316
60	0x3e0a198a	0.13486305
61	0x3dc02000	0.093811035
62	0xbe1ee774	-0.1551798
63	0xbe2bc09d	-0.16772695
64	0xbbf6f361	-0.0075363372
65	0x3e05e401	0.13075258
66	0xbda8cce1	-0.082422026
67	0x3e34e9a8	0.17667258
68	0x3da4e33e	0.080511555
69	0x3e0f3179	0.13983716
70	0xbdbf0ba4	-0.09328392
71	0xbdefa7cc	-0.117019266
72	0x3db5612f	0.08856427
73	0x3de6820f	0.112552755
74	0xbe2dc430	-0.16969371
75	0xbe049bdd	-0.12950082
76	0xbc81c1fa	-0.015839566
77	0xbde57b3b	-0.11205145
78	0xbe7233d9	-0.23652591
79	0x3dfa0660	0.12208247
80	0x3da9edab	0.08297285
81	0x3c6eaf32	0.014568137
82	0xbe6dd231	-0.23224713
83	0x3dd9887b	0.10621735
84	0xbe045faa	-0.12927118
85	0x3d9af63d	0.075664975
86	0x3dec2139	0.11529774
87	0x3da8e926	0.082475945
88	0xbe0e1dfa	-0.13878623
89	0x3e291de6	0.16515312
90	0xbcfe80c5	-0.031067261
91	0xbd1a3138	-0.037644595
92	0xbe732721	-0.23745395
93	0x3dd7f348	0.10544449
94	0xbe5f7a52	-0.21824005
95	0x3d7dbf42	0.061949976
96	0x3c860b69	0.016362863
97	0xbe507645	-0.20357616
98	0x3d8b3891	0.067978986
99	0xbe14a854	-0.14517337
100	0x3e60418e	0.21900007
101	0x3cff87b6	0.031192642
102	0x3e1df490	0.15425324
103	0xbc9b1f71	-0.01893589
104	0xbd991ab2	-0.07475795
105	0x3de655f6	0.112468645
106	0x3c060cd4	0.008181769
107	0xbe0adb66	-0.13560256
108	0x3da0fb0d	0.07860384
109	0x3dcf611c	0.10125944
110	0xbd3d36e0	-0.04619491
111	0xbe0ab116	-0.13544115
112	0x3cfb013d	0.030640239
113	0xbe2e6fa3	-0.17034774
114	0x3d7284fd	0.05920886
115	0x3db8ba08	0.09019858
116	0xbcb4de1d	-0.022078568
117	0x3dfa2214	0.12213531
118	0x3e27cb11	0.16386057
119	0x3e4ff100	0.20306778
120	0xbdf24474	-0.11829463
121	0x3cfc6c59	0.030813383
122	0x3dad5f18	0.08465403
123	0xbdd43fa6	-0.103637025
124	0xbbbe212a	-0.0058022933
125	0xbd4cb90d	-0.049981166
126	0xbd75c9e5	-0.060006995
127	0xbd8f67ad	-0.070021965
128	0xbe564698	-0.20925367
129	0x3dd72d5b	0.10506698
130	0x3e4190af	0.18902849
131	0xbd943d43	-0.07238247
132	0xbe65f316	-0.22456011
133	0x3bca9b7a	0.006183085
134	0x3e197a97	0.1498817
135	0xbd80933a	-0.06278081
136	0x3e126387	0.14295779
137	0xbde98544	-0.114023715
138	0xbdaa3f19	-0.08312816
139	0x3e2ca28d	0.16858883
140	0xbe649a23	-0.22324423
141	0x3bbea154	0.0058175717
142	0xbca83644	-0.020533688
143	0xbd29b55c	-0.041432723
144	0x3ca2aa25	0.019856522
145	0x3e3fa930	0.18716884
146	0x3b9e52ad	0.004831633
147	0xbce811c8	-0.028328791
148	0x3e14dd43	0.1453753
149	0xbdaf2ed2	-0.08553852
150	0xbda8b698	-0.08237952
151	0xbc28ac4b	-0.010294984
152	0xbe2f5e4d	-0.17125817
153	0xbe61ebdd	-0.22062631
154	0xbe2c2e82	-0.16814616
155	0x3ce2a9dd	0.027668888
156	0xbdbd09b3	-0.092303656
157	0x3cf56794	0.029956616
158	0xbdccc4c3	-0.09998467
159	0x3d2e1786	0.042502902
160	0x3d8e7836	0.06956522
161	0xbe2df719	-0.16988792
162	0xbc227737	-0.009916118
163	0x3d12e7d2	0.035865612
164	0xbe2057e6	-0.1565853
165	0x3d6a5f1f	0.05721962
166	0x3dc05161	0.09390522
167	0xbdd61e9c	-0.10455057
168	0xbe0fde08	-0.14049542
169	0x3e292775	0.16518958
170	0x3da7c908	0.081926405
171	0xbdf8a64f	-0.12141096
172	0xbd3149c5	-0.043283243
173	0x3cb7bbfa	0.022428501
174	0xbe5c3985	-0.21506317
175	0xbddb28b5	-0.107011236
176	0xbe4e1aee	-0.2012746
177	0xbd8affc2	-0.06787063
178	0x3ddc3131	0.1075157
179	0x3e4ae583	0.19814114
180	0x3cfb1cee	0.030653443
181	0xbe6fa950	-0.23404431
182	0x3dd72f21	0.10507036
183	0xbd048921	-0.03235734
184	0xbc5b6d3d	-0.013392744
185	0x3ded1cac	0.11577734
186	0x3e883c9b	0.26608738
187	0xbc47a94d	-0.012186361
188	0x3e78c1c4	0.24292666
189	0x3e232738	0.1593293
190	0x3c7b152c	0.015324872
191	0x3e1b43bc	0.15162557
192	0xbe2e6acb	-0.17032926
193	0xbe391c2b	-0.18077151
194	0x3e25c553	0.16188554
195	0xbdf8a0a3	-0.12140014
196	0x3de5a07e	0.11212252
197	0x3e4659df	0.1937022
198	0xbd94f5ae	-0.07273422
199	0x3cb6249c	0.022234254
200	0xbe09bbe6	-0.13450584
201	0x3e51888c	0.20462245
202	0x3c126d93	0.008937257
203	0x3e284dd0	0.16435933
204	0xbe9bf678	-0.30461478
205	0xbd8d9a76	-0.06914227
206	0xbdec74cf	-0.11545717
207	0x3d21e799	0.03952751
208	0x3e26580e	0.16244528
209	0x3e1d05cf	0.15334247
210	0xbe1d301e	-0.15350387
211	0x3e579a55	0.21054967
212	0xbd5a352b	-0.05327336
213	0xbdb16f2d	-0.08663783
214	0xbc74b76f	-0.014936312
215	0x3d4c8e5a	0.049940445
216	0x3dca38fb	0.098741494
217	0x3d7a657e	0.061131947
218	0xbdb0184f	-0.085983865
219	0xbb84774e	-0.0040425425
220	0x3dc40d24	0.09572819
221	0xbc4b0341	-0.0123909125
222	0x3d9c4751	0.0763079
223	0x3e486d07	0.1957284
224	0xbd99d504	-0.07511333
225	0xbd174224	-0.03692831
226	0xbe578861	-0.21048118
227	0x3e1eaf0f	0.15496467
228	0x3cb66807	0.022266401
229	0xbda776cb	-0.08176955
230	0xbe93d408	-0.28872705
231	0x3d923aa5	0.07140092
232	0xbe7da402	-0.24769595
233	0x3dd9baeb	0.10631355
234	0x3e7bd89f	0.24594353
235	0xbdb4173e	-0.087934956
236	0xbe2dcdaa	-0.16972986
237	0xbd5a63ba	-0.053317763
238	0xbdd2481a	-0.102676585
239	0x3d4a8afd	0.049448956
240	0xbc22523f	-0.009907304
241	0xbd9e59c6	-0.07731967
242	0xbe3be164	-0.18347698
243	0x3daaeae9	0.08345587
244	0xbe39207e	-0.18078801
245	0xbde09d29	-0.10967476
246	0x3de0d30a	0.109777525
247	0xbdd62395	-0.104560055
248	0xbd5aa9c3	-0.053384554
249	0x3e02580b	0.12728898
250	0xbe53217f	-0.20618246
251	0xbe45a617	-0.1930164
252	0xbe1c7358	-0.15278375
253	0xbce30821	-0.027713837
254	0x3d859ec9	0.065244265
255	0x3e229f4f	0.15881084
