pths/net49.pth (torch_old, 34322 bytes, 28 tensors)

AbundanceEstNet.Encoder_0.layers.0.0.conv2d.weight f4 [4, 3, 1, 1]
-0.5188365 -0.30592623 -0.59470254 0.6969136 -0.02428532 0.6868343 -0.7054437 -0.7902045
-0.6585479 0.5921223 0.14858216 0.5124381
00000000: 78d2 04bf 5da2 9cbe 6d3e 18bf ee68 323f
00000010: 02f2 c6bc 5fd4 2f3f f597 34bf d84a 4abf
00000020: 9896 28bf 5495 173f ec25 183e 252f 033f

AbundanceEstNet.Encoder_0.layers.0.0.conv2d.bias f4 [4]
-0.5385041 -0.21809264 -0.19670461 0.019184608
00000000: 68db 09bf ad53 5fbe ef6c 49be 0a29 9d3c

AbundanceEstNet.Encoder_1.layers.0.0.conv2d.weight f4 [8, 7, 1, 1]
-0.5120352 0.44555622 -0.37448195 0.4338091 0.5995914 0.42017898 0.40539324 0.38712692
-0.48627162 0.25849995 -0.4328791 0.018729001 0.028114172 -0.55083835 0.28917092 -0.046338767
0.2144249 -0.08597071 0.30464873 -0.20481704 -0.62869394 -0.076007225 -0.46322277 0.16044457
-0.35644975 -0.45903835 -0.33119085 0.1156581 -0.039617643 0.31256616 -0.19514757 0.34273082
0.5771161 0.5157142 0.38607946 0.00815256 0.47622085 -0.107045345 0.41442016 0.105209835
0.22667284 0.6006617 0.07175741 -0.41319987 0.09197726 0.36430284 -0.4130611 -0.29137686
-0.10133382 0.04377258 0.28694043 -0.14076968 -0.035274852 0.416151 0.5986298 0.43876353
00000000: bd14 03bf f21f e43e 19bc bfbe 3a1c de3e
00000010: d27e 193f b321 d73e b48f cf3e 8035 c63e
00000020: 98f8 f8be 1b5a 843e 54a2 ddbe 906d 993c
00000030: b14f e63c be03 0dbf 360e 943e b8cd 3dbd
00000040: 3392 5b3e 6911 b0bd ebfa 9b3e 8fbb 51be
00000050: 16f2 20bf ada9 9bbd 892b edbe 954b 243e
00000060: 9580 b6be 1307 ebbe d991 a9be 27de ec3d
00000070: 1c46 22bd ac08 a03e c4d4 47be 6a7a af3e
00000080: e1bd 133f d905 043f 35ac c53e 5192 053c
00000090: 38d3 f33e 973a dbbd e12e d43e 4178 d73d
000000a0: ed1c 683e f7c4 193f 8df5 923d ef8e d3be
000000b0: 935e bc3d e785 ba3e bf7c d3be 592f 95be
000000c0: 1b88 cfbd e04a 333d dbe9 923e ed25 10be
000000d0: 5d7c 10bd be11 d53e cd3f 193f 9da5 e03e

AbundanceEstNet.Encoder_1.layers.0.0.conv2d.bias f4 [8]
-0.0983526 -0.26035962 0.23181286 0.026090134 0.10217568 -0.40670058 -0.053089596 0.16713765
00000000: 176d c9bd db4d 85be 5a60 6d3e faba d53c
00000010: 7c41 d13d 0f3b d0be 7a74 59bd 2226 2b3e

AbundanceEstNet.Encoder_2.layers.0.0.conv2d.weight f4 [16, 11, 1, 1]
-0.08551909 -0.005197609 0.28501514 -0.05002961 -0.22389916 -0.23436624 -0.18230787 0.22025087
0.10489662 -0.06893365 -0.5119745 0.058993906 0.19861548 0.28696686 -0.08770154 -0.09065829
0.25797927 0.2778 0.10483926 -0.2047037 0.059530877 -0.37837732 0.41640088 -0.17828685
-0.38842025 -0.25922847 0.17333694 0.4659168 0.023678698 0.10716399 0.4765338 0.13441563
0.39838535 0.18267357 -0.077734224 -0.13811257 -0.33841097 0.15082227 0.2710103 0.16729772
-0.008654873 0.29630303 0.48988155 -0.00053746137 0.5933757 -0.16463637 -0.41876882 -0.16170433
0.21365835 0.54479796 -0.2762356 0.17332968 0.26646036 0.03434826 0.0714583 0.18331051
0.080565594 -0.25663978 -0.2676132 0.06226399 0.1774265 -0.21056107 0.2042403 0.51620126
0.28867468 0.06921407 -0.40448952 0.07098561 -0.07095466 -0.14935066 -0.3283711 -0.22707897
0.11021009 0.103625625 -0.07647644 0.016650017 -0.3547675 0.34047902 -0.2992118 -0.06430763
-0.07492021 0.442806 -0.06926718 0.14215061 0.36533067 0.4860603 0.31819978 0.5140219
0.3410108 0.17327535 -0.11307702 -0.3056239 0.10309826 0.17514153 -0.27556786 -0.08353909
-0.16131072 0.03653035 0.38606235 -0.26525876 -0.07057704 0.29667288 0.2289929 -0.30430472
-0.39738065 -0.07488086 -0.17838508 0.06159633 0.030244887 -0.5464534 -0.4716351 -0.2873731
0.2808483 0.3159751 -0.28419745 -0.25946358 0.07966614 -0.22614989 0.19186622 -0.06379806
-0.25012624 0.43381447 -0.017873162 -0.39484125 -0.47281283 0.24366508 0.10495108 -0.20669311
0.15720016 0.52935714 0.269189 0.27388182 -0.024098773 -0.1812242 0.20575622 -0.07070985
0.07057314 -0.1818498 0.020864697 -0.023241946 -0.33847192 -0.38652155 -0.04517591 -0.31087655
0.30049238 -0.16299354 -0.048339125 -0.44916502 0.03475214 0.10804142 -0.22913373 -0.28455973
-0.49637383 -0.13738294 0.30810302 -0.33382252 -0.11067824 -0.17012061 -0.061160028 0.28736672
-0.04788115 0.14167635 0.10437282 0.32486027 0.46726722 0.4922202 -0.2608813 -0.3099881
0.115287945 0.27229 0.3457717 -0.2133267 0.3507325 -0.048915908 0.2085301 0.19453076
00000000: a224 afbd b450 aabb 81ed 913e d9eb 4cbd
00000010: d245 65be b4fd 6fbe eaae 3abe 7289 613e
00000020: 0ad4 d63d 162d 8dbd c310 03bf 98a3 713d
00000030: db61 4b3e 52ed 923e dd9c b3bd 0eab b9bd
00000040: dc15 843e cd3b 8e3e f7b5 d63d d99d 51be
00000050: a6d6 733d acba c1be 7f32 d53e d490 36be
00000060: 05df c6be 98b9 84be 3d7f 313e a68c ee3e
00000070: d4f9 c13c cb78 db3d 3dfc f33e 40a4 093e
00000080: 2af9 cb3e c80e 3b3e 1f33 9fbd 626d 0dbe
00000090: 3444 adbe 2771 1a3e ddc1 8a3e 1850 2b3e
000000a0: 2bcd 0dbc 08b5 973e c1d1 fa3e 6ce4 0cba
000000b0: 78e7 173f 7096 28be de68 d6be d295 25be
000000c0: 41c9 5a3e e177 0b3f c16e 8dbe 567d 313e
000000d0: 7e6d 883e c3b0 0c3d bb58 923d c0b5 3b3e
000000e0: 93ff a43d 4a66 83be 9904 89be 8708 7f3d
000000f0: 4baf 353e 529d 57be 5f24 513e c425 043f
00000100: 2bcd 933e 1bc0 8d3d 4019 cfbe e760 913d
00000110: ad50 91bd 61ef 18be 4220 a8be 6487 68be
00000120: d4b5 e13d ac39 d43d ae9f 9cbd 9e65 883c
00000130: 16a4 b5be 4453 ae3e 4a32 99be b8b3 83bd
00000140: c46f 99bd 78b7 e23e f4db 8dbd ee8f 113e
00000150: 9f0c bb3e e5dc f83e 15eb a23e f096 033f
00000160: f898 ae3e 186f 313e ed94 e7bd bc7a 9cbe
00000170: 2e25 d33d 4d58 333e 3b17 8dbe 8b16 abbd
00000180: a32e 25be d9a0 153d f7a9 c53e ffcf 87be
00000190: b28a 90bd 82e5 973e 1d7d 6a3e d4cd 9bbe
000001a0: 7a75 cbbe 235b 99bd 94aa 36be 6f4c 7c3d
000001b0: 20c4 f73c 5fe4 0bbf 287a f1be 9122 93be
000001c0: 59cb 8f3e 7dc7 a13e 5482 91be 69d8 84be
000001d0: 0028 a33d d693 67be 9478 443e 8fa8 82bd
000001e0: 8c10 80be ee1c de3e bd6a 92bc a228 cabe
000001f0: 8614 f2be 5783 793e 98f0 d63d 5ca7 53be
00000200: 14f9 203e f383 073f 24d3 893e 3d3a 8c3e
00000210: ca6a c5bc d692 39be c2b1 523e 53d0 90bd
00000220: a788 903d d536 3abe 71ec aa3c e565 bebc
00000230: 314c adbe 27e6 c5be 600a 39bd 362b 9fbe
00000240: 23da 993e c7e7 26be 3fff 45bd f5f8 e5be
00000250: 4358 0e3d d244 dd3d 08a2 6abe d0b1 91be
00000260: b624 febe 1dae 0cbe aebf 9d3e c9ea aabe
00000270: 46ab e2bd 1934 2ebe f082 7abd bb21 933e
00000280: 061f 44bd 9b13 113e 6bc1 d53d 1654 a63e
00000290: a63d ef3e 4904 fc3e 3c92 85be c3b6 9ebe
000002a0: 161c ec3d 9869 8b3e fd08 b13e 5072 5abe
000002b0: 3693 b33e 0c5c 48bd ea88 553e 1233 473e

AbundanceEstNet.Encoder_2.layers.0.0.conv2d.bias f4 [16]
0.11101748 -0.28894818 0.22612667 0.27810913 -0.25102505 0.0059481524 -0.16346747 0.2656952
0.18264315 0.2774444 0.13425043 0.024860607 0.18070142 -0.061810702 -0.024666673 0.13799019
00000000: 225d e33d 04f1 93be c08d 673e 5264 8e3e
00000010: 5b86 80be b8e8 c23b 0464 27be 3409 883e
00000020: ce06 3b3e 310d 8e3e f278 093e 79a8 cb3c
00000030: cb09 393e 382d 7dbd c311 cabc 4d4d 0d3e

AbundanceEstNet.Encoder_3.layers.0.0.conv2d.weight f4 [24, 19, 1, 1]
0.09325085 -0.10159487 -0.042621017 -0.1810446 -0.2095958 -0.096649885 -0.1498811 -0.18692277
0.21387562 -0.16509959 0.272618 -0.12687957 0.017072553 0.17204107 -0.00022936377 -0.0484453
-0.20402935 -0.10485515 0.19943668 -0.35900286 0.14611384 0.13926452 0.100960284 0.2775373
0.27477202 -0.11527817 0.32369524 0.18382478 -0.22760871 -0.2501146 0.53774893 -0.019130731
-0.2429506 0.2545645 0.12885404 0.10777843 0.21247451 0.35917935 0.094966404 0.06699017
-0.17377947 0.20758079 -0.18600097 -0.12559286 -0.10198045 -0.13275966 0.08536198 -0.00546806
-0.08196753 -0.27569154 0.19675222 0.16055822 0.007911648 -0.21772955 0.03054535 -0.04290539
-0.2624755 0.13589926 -0.026063228 -0.13820677 -0.068211 -0.0021295468 -0.24067451 -0.042831346
-0.1482023 -0.10948896 0.3394708 0.2201342 -0.26381776 0.23450215 -0.10254674 -0.39823887
-0.2237426 -0.07563514 -0.28335217 -0.023950715 -0.06046252 0.06942661 0.31295708 0.010042092
0.39148515 0.106741816 -0.091443524 0.25262547 -0.061058186 -0.06442813 -0.2715029 0.28768182
0.0898192 0.05223766 0.07988977 0.123977214 0.23012613 0.4067736 0.3096424 0.35629004
0.11020301 -0.2507334 0.14938445 -0.25004733 0.0466377 0.15702732 -0.16414566 -0.032928336
0.17440382 0.22501275 -0.37451798 0.093973905 0.16334705 -0.041397985 0.06942036 -0.048198182
-0.3295742 0.05729263 -0.3275146 -0.18178868 0.17860599 0.18663573 0.2941413 0.28269607
-0.22771533 0.13180216 0.18376511 -0.24015321 -0.35076648 0.407619 -0.1879896 -0.29652599
0.3580197 -0.0019833834 0.05822845 0.4405145 0.12304108 -0.16424721 0.23505588 -0.034679633
0.25416592 0.32379502 0.25591204 0.015609878 -0.06676528 0.17588216 -0.26041758 -0.21853739
-0.028897634 0.0094230175 -0.023531517 0.24592148 0.20227435 0.09313245 0.20260096 -0.1332064
-0.26163495 -0.12605807 0.13500382 0.21884166 0.038714953 0.18418814 -0.15035324 0.007833669
-0.030329194 -0.1337494 -0.21537225 0.16698183 -0.11613693 -0.074352466 0.18656316 -0.16980433
0.23524506 0.2792738 -0.123203956 -0.25485018 -0.04881434 -0.008226595 0.21060346 -0.07379559
0.023272326 -0.07596171 0.068205446 -0.08025146 0.0976276 0.05347859 0.18505351 0.17837112
-0.23703496 0.2964621 -0.02331245 0.32705876 0.30488616 -0.1031371 -0.19857517 -0.13858014
0.35258132 0.05499773 0.33402327 0.41461945 -0.24432419 0.23600937 -0.13628434 -0.19392139
-0.260239 0.07477595 -0.2823183 -0.32756168 0.025532916 -0.02275926 0.100041136 0.33324575
0.13906765 -0.32599002 -0.24440725 0.34870914 -0.09569497 0.019173391 0.056764077 -0.013946308
0.30520338 0.15270828 -0.15570669 -0.12174161 0.23829065 0.099528074 -0.15755601 0.03652824
0.1715082 0.16477688 0.18672147 0.2713593 -0.056022875 -0.06814354 0.13547732 0.20736861
-0.07404838 -0.006053955 -0.297318 0.2128391 0.29770547 0.25748068 0.10160658 0.08048417
0.09980313 -0.34932825 0.1093968 0.04640596 0.09534062 0.25456968 0.043242995 -0.25384367
0.18380326 -0.25525984 -0.2753544 -0.03366823 -0.2692385 0.3917754 -0.1476704 -0.31440482
00000000: 4dfa be3d f910 d0bd 6093 2ebd c163 39be
00000010: 48a0 56be 60f0 c5bd 6e7a 19be af68 3fbe
00000020: 3602 5b3e de0f 29be 9694 8b3e b8ec 01be
00000030: bddb 8b3c 892b 303e 5e81 70b9 946e 46bd
00000040: 12ed 50be 4cbe d6bd 2139 4c3e 39cf b7be
00000050: de9e 153e 5c9b 0e3e 44c4 ce3d 5e19 8e3e
00000060: ebae 8c3e f616 ecbd 62bb a53e 903c 3c3e
00000070: 4212 69be 050f 80be eaa9 093f 0db8 9cbc
00000080: 0bc8 78be 4756 823e 50f2 033e f0ba dc3d
00000090: eb92 593e 5be6 b73e bf7d c23d 2432 893d
000000a0: 3ff3 31be 0f90 543e 0a77 3ebe 6a9b 00be
000000b0: 20db d0bd 26f2 07be 43d2 ae3d 692d b3bb
000000c0: 98de a7bd 7127 8dbe 6a79 493e 6069 243e
000000d0: db9f 013c 7ff4 5ebe 3e3a fa3c 90bd 2fbd
000000e0: 3063 86be 2d29 0b3e 8d82 d5bc 1386 0dbe
000000f0: 35b2 8bbd de8f 0bbb 6173 76be ec6f 2fbd
00000100: 58c2 17be bf3b e0bd 1ecf ad3e dc6a 613e
00000110: 1f13 87be 5521 703e 0604 d2bd f7e5 cbbe
00000120: c81c 65be 99e6 9abd 8913 91be 4a34 c4bc
00000130: 8ca7 77bd 8a2f 8e3d e93b a03e 9687 243c
00000140: be70 c83e 749b da3d be46 bbbd 2058 813e
00000150: 2618 7abd e5f2 83bd 6e02 8bbe 084b 933e
00000160: 21f3 b73d 28f7 553d 3f9d a33d c4e7 fd3d
00000170: 2fa6 6b3e a144 d03e 7389 9e3e a66b b63e
00000180: 1eb2 e13d 2160 80be 3df8 183e 3406 80be
00000190: 2c07 3f3d c5cb 203e cd15 28be dddf 06bd
000001a0: ea96 323e be69 663e d2c0 bfbe 6475 c03d
000001b0: 7344 273e ef90 29bd 432c 8e3d 756b 45bd
000001c0: f3bd a8be adab 6a3d feaf a7be d026 3abe
000001d0: 7de4 363e 701d 3f3e b099 963e 8abd 903e
000001e0: 352e 69be 25f7 063e ec2c 3c3e b9ea 75be
000001f0: aa97 b3be 70b3 d03e 5880 40be 41d2 97be
00000200: 5c4e b73e a7fb 01bb f580 6e3d 1e8b e13e
00000210: f6fc fb3d 6c30 28be 7db2 703e 3b0c 0ebd
00000220: 0922 823e 76c8 a53e e706 833e 93c0 7f3c
00000230: 3cbc 88bd 741a 343e 7455 85be 44c8 5fbe
00000240: bbba ecbc 0063 1a3c 2bc5 c0bc d7d2 7b3e
00000250: 0221 4f3e 3abc be3d a076 4f3e 4267 08be
00000260: 04f5 85be 5e15 01be 713e 0a3e 0718 603e
00000270: 9293 1e3d d19b 3c3e 33f6 19be ca58 003c
00000280: ee74 f8bc 9af5 08be 8b8a 5cbe 49fd 2a3e
00000290: 33d9 edbd 1b46 98bd 6a0a 3f3e 30e1 2dbe
000002a0: 15e4 703e fafc 8e3e 5b52 fcbd b97b 82be
000002b0: 8cf1 47bd d7c8 06bc 6fa8 573e 2422 97bd
000002c0: 9ba5 be3c d091 9bbd 4caf 8b3d e15a a4bd
000002d0: fbf0 c73d 5e0c 5b3d ab7e 3d3e eba6 363e
000002e0: 4bb9 72be e1c9 973e c0f9 bebc 3f74 a73e
000002f0: 0a1a 9c3e 8b39 d3bd 4a57 4bbe f4e7 0dbe
00000300: 8a85 b43e 4d45 613d 1905 ab3e 0049 d43e
00000310: 1f30 7abe 71ac 713e 1f8e 0bbe 5493 46be
00000320: 0c3e 85be 2224 993d 068c 90be 2ab6 a7be
00000330: 682a d13c a171 babc 5ee2 cc3d 309f aa3e
00000340: c067 0e3e 2ae8 a6be e545 7abe 018a b23e
00000350: b9fb c3bd 8411 9d3c 7381 683d 0e7f 64bc
00000360: 9e43 9c3e 8f5f 1c3e 9371 1fbe aa53 f9bd
00000370: 7702 743e 60d5 cb3d 5d56 21be a39e 153d
00000380: d89f 2f3e 45bb 283e ea33 3f3e 9bef 8a3e
00000390: 3e78 65bd d78e 8bbd 91ba 0a3e 7058 543e
000003a0: ada6 97bd 4160 c6bb 113a 98be 7ef2 593e
000003b0: da6c 983e 82d4 833e 1c17 d03d e2d4 a43d
000003c0: 9565 cc3d 27db b2be 6e0b e03d 2d14 3e3d
000003d0: f141 c33d f556 823e 911f 313d ccf7 81be
000003e0: ec36 3c3e 6bb1 82be 40fb 8cbe b3e7 09bd
000003f0: a1d9 89be c996 c83e e936 17be abf9 a0be

AbundanceEstNet.Encoder_3.layers.0.0.conv2d.bias f4 [24]
-0.11008617 -0.0992267 0.19619201 0.13070896 -0.09133323 -0.19373097 0.14726426 -0.16160981
-0.27366102 -0.15032952 0.0835301 0.12016867 0.08100127 -0.37826172 0.050799053 -0.2222687
0.13100216 -0.042235684 -0.14698827 -0.068626866 -0.17367125 0.21755704 -0.12654333 0.15382974
00000000: dc74 e1bd 5e37 cbbd 8fe6 483e 92d8 053e
00000010: eb0c bbbd 6961 46be 71cc 163e 0b7d 25be
00000020: 4c1d 8cbe fbef 19be d411 ab3d fe1a f63d
00000030: fee3 a53d 85ab c1be ab12 503d 689a 63be
00000040: 6e25 063e 53ff 2cbd 1884 16be 3e8c 8cbd
00000050: e0d6 31be 46c7 5e3e 9394 01be 8b85 1d3e

AbundanceEstNet.Encoder_4.layers.0.0.conv2d.weight f4 [16, 27, 1, 1]
-0.19727662 0.1332975 -0.29503587 -0.075323254 0.09050017 -0.04503385 0.15477915 0.38117585
0.062084414 0.24568649 -0.094475076 -0.10148539 -0.028880093 0.1693848 0.17741778 0.00082053145
-0.2032665 -0.10895133 0.02205835 0.034694396 0.18069105 -0.119571954 -0.18319474 -0.07089333
0.18219544 0.17021708 0.03346961 0.19475979 0.009843801 0.12554246 0.09767462 0.18828712
0.095719405 -0.14730765 0.114605635 -0.12456719 -0.09512814 -0.11986741 -0.091096945 -0.18457091
0.17295296 -0.043460615 0.13398011 0.17574951 0.10309904 0.17532404 -0.010591749 -0.16893008
0.09690085 -0.16627957 0.03789383 -0.08444452 0.12487156 0.12511958 -0.0064124963 -0.066807196
0.1432877 -0.05911595 -0.15302227 -0.12274331 -0.18452494 0.14469025 0.14006893 -0.047214504
0.08509871 0.10232841 -0.085008964 0.036267772 -0.038301818 -0.08946854 -0.11924718 -0.09691414
-0.012601234 -0.026904704 -0.14416204 -0.17332774 -0.02433099 0.07645714 0.054128155 -0.13961348
0.09540488 -0.048368484 0.011406592 0.06137557 0.11072112 0.03869802 -0.10927274 -0.2635929
0.04638748 0.2199918 -0.11117823 0.05357247 -0.1738234 -0.23933227 0.25259635 -0.2166302
0.15667006 0.007708969 0.069193445 -0.082761824 0.11036841 0.20958203 0.029306363 0.25031906
0.14944665 0.07319679 0.10504793 0.13117774 0.124861956 0.1295674 -0.1924448 0.033532135
0.040699314 0.03326352 0.07171405 0.1814315 -0.1181494 -0.082348 0.042173672 0.18538961
-0.11566426 -0.010674322 0.028438916 -0.18286465 -0.21168323 -0.22588573 -0.11010596 -0.21270089
0.028624803 0.081053525 -0.14331368 -0.13547522 -0.04387867 0.09520294 0.16701321 -0.08814947
-0.08949072 0.063002445 -0.17981164 0.11409483 -0.074305125 0.08664201 0.14890182 0.042927187
-0.18751857 -0.05643013 0.16418974 -0.17755006 0.16062978 -0.14637354 -0.041829187 0.13446943
-0.18166403 -0.17758204 -0.038707722 -0.1426336 -0.015648352 0.12565278 0.097545944 -0.17516299
-0.05045397 -0.1458704 -0.0673077 0.08449366 0.0050603114 0.23199968 0.012204327 -0.08069852
0.008429898 -0.09526022 -0.15064168 -0.1452452 0.117677376 -0.15439476 0.09014361 -0.067908466
0.11494448 -0.06179984 0.06487996 -0.15406588 -0.0745431 -0.020896694 0.019278439 -0.03382208
0.018978532 0.0053562485 0.07988512 -0.23838633 -0.18676008 0.10801198 -0.06394196 -0.08116823
0.043523032 0.121816926 -0.12706734 0.049344484 0.09920154 -0.08860913 -0.022516996 -0.14260706
-0.11901457 -0.16597742 0.20657216 0.1287204 0.07981198 0.14262693 0.12567139 0.09583042
0.25234747 0.10896999 -0.16759646 0.24815212 0.03821689 -0.09825422 0.020149851 -0.13445598
-0.01598543 0.023423625 -0.11701192 -0.062797286 -0.009364701 0.2604431 -0.12399605 0.07172156
0.087403335 -0.063060425 0.005389108 -0.21951161 -0.005147569 0.275621 0.115527205 0.025219379
-0.11294193 0.052456766 0.18100895 0.13071312 -0.10703427 0.15548111 -0.10395273 0.056971744
0.20202582 -0.08564139 -0.04165797 0.09249353 -0.008528927 0.040509287 0.10720598 -0.06603705
0.04053992 -0.12914276 0.029452192 -0.15956782 0.24191415 -0.051172663 0.0050650095 0.013234873
00000000: e202 4abe 247f 083e f10e 97be 1443 9abd
00000010: 2758 b93d 6a75 38bd 6d7e 1e3e 7b29 c33e
00000020: 3a4c 7e3d 3d95 7b3e 267c c1bd 92d7 cfbd
00000030: f295 ecbc 3673 2d3e 02ad 353e ef18 573a
00000040: 1825 50be e021 dfbd b6b3 b43c b61b 0e3d
00000050: 1307 393e 24e2 f4bd 6797 3bbe 8630 91bd
00000060: 7191 3a3e 634d 2e3e 6e17 093d 1c6f 473e
00000070: e547 213c 348e 003e a209 c83d 57ce 403e
00000080: 8908 c43d d1d7 16be 5cb6 ea3d 151d ffbd
00000090: 8bd2 c2bd 0b7d f5bd 0991 babd 2800 3dbe
000000a0: 951a 313e c203 32bd 1532 093e aef7 333e
000000b0: 9725 d33d 2588 333e 0489 2dbc 02fc 2cbe
000000c0: f473 c63d 3145 2abe 9036 1b3d 40f1 acbd
000000d0: a9bc ff3d 591f 003e eb1f d2bb 36d2 88bd
000000e0: 03ba 123e 9123 72bd dfb1 1cbe d860 fbbd
000000f0: 1bf4 3cbe ae29 143e 3b6e 0f3e ff63 41bd
00000100: 3c48 ae3d 8f91 d13d 2e19 aebd 848d 143d
00000110: 5ee2 1cbd 483b b7bd de37 f4bd ec7a c6bd
00000120: 6875 4ebc 4167 dcbc 379f 13be d47c 31be
00000130: c951 c7bc 9095 9c3d 7cb5 5d3d d6f6 0ebe
00000140: a263 c33d 081e 46bd b7e2 3a3c f364 7b3d
00000150: c1c1 e23d d181 1e3d 63ca dfbd a6f5 86be
00000160: cc00 3e3d 8845 613e 69b1 e3bd ce6e 5b3d
00000170: c3fe 31be 8513 75be 4f54 813e 4fd4 5dbe
00000180: 1e6e 203e 859b fc3b 4bb5 8d3d 087f a9bd
00000190: d508 e23d ac9c 563e e613 f03c d229 803e
000001a0: 8b08 193e 33e8 953d 5e23 d73d 7553 063e
000001b0: a0b7 ff3d 51ad 043e 4010 45be fe58 093d
000001c0: 53b4 263d 543f 083d d1de 923d 2ec9 393e
000001d0: 50f8 f1bd 11a6 a8bd 4dbe 2c3d c6d6 3d3e
000001e0: 62e1 ecbd 5ae3 2ebc bbf8 e83c df40 3bbe
000001f0: 7dc3 58be 974e 67be 3c7f e1bd 43ce 59be
00000200: 907e ea3c 64ff a53d d2c0 12be 04ba 0abe
00000210: 1fba 33bd c2f9 c23d 8305 2b3e b687 b4bd
00000220: e946 b7bd 6d07 813d 8b20 38be 8daa e93d
00000230: 492d 98bd 5e71 b13d b879 183e 6bd4 2f3d
00000240: de04 40be 4823 67bd 5b21 283e afcf 35be
00000250: 227c 243e f2e2 15be 1555 2bbd 5bb2 093e
00000260: 2306 3abe 11d8 35be fd8b 1ebd 8b0e 12be
00000270: f930 80bc 1fab 003e 2bc6 c73d ed5d 33be
00000280: d2a8 4ebd 0d5f 15be 9fd8 89bd 030b ad3d
00000290: f8d0 a53b 5391 6d3e a8f4 473c 4445 a5bd
000002a0: 8e1d 0a3c ca17 c3bd d041 1abe 28bb 14be
000002b0: d600 f13d a919 1ebe 379d b83d 9813 8bbd
000002c0: 0368 eb3d d421 7dbd c9df 843d 72c3 1dbe
000002d0: 0eaa 98bd 8b2f abbc d1ed 9d3c 0589 0abd
000002e0: de78 9b3c 7883 af3b cf9a a33d 8c1b 74be
000002f0: 093e 3fbe 6335 dd3d 01f4 82bd 873b a6bd
00000300: 3545 323d 277b f93d f11d 02be 711d 4a3d
00000310: 2d2a cb3d b478 b5bd 9075 b8bc 9607 12be
00000320: e9bd f3bd fcf5 29be a787 533e 48cf 033e
00000330: 7774 a33d cb0c 123e 00b0 003e bd42 c43d
00000340: b033 813e a82b df3d 689e 2bbe 971b 7e3e
00000350: 5089 1c3d 8239 c9bd 4d11 a53c d4ae 09be
00000360: e0f3 82bc e7e2 bf3c f2a3 efbd dd9b 80bd
00000370: 676e 19bc cc58 853e a4f1 fdbd c1e2 923d
00000380: 8500 b33d d325 81bd 1d97 b03b a7c7 60be
00000390: f0ac a8bb 321e 8d3e 8799 ec3d df98 ce3c
000003a0: 194e e7bd e8dc 563d 695a 393e a9d9 053e
000003b0: c934 dbbd 7136 1f3e 2be5 d4bd 345b 693d
000003c0: dbdf 4e3e c164 afbd 8ca1 2abd 3f6d bd3d
000003d0: eabc 0bbc 11ed 253d cf8e db3d 6f3e 87bd
000003e0: 300d 263d 003e 04be b945 f13c bf65 23be
000003f0: 58b8 773e 6d9a 51bd 61f8 a53b 15d7 583c

AbundanceEstNet.Encoder_4.layers.0.0.conv2d.bias f4 [16]
-0.17414884 0.022149025 -0.13004123 0.0877003 0.028181039 -0.1615363 -0.15673305 0.08802856
0.04509419 -0.13349843 0.080433115 0.031922974 -0.08651667 0.058193695 -0.109767005 -0.1014685
00000000: 1354 32be df71 b53c 8729 05be 379c b33d
00000010: ecdb e63c c669 25be a17e 20be 5148 b43d
00000020: afb4 383d d0b3 08be 1eba a43d aac1 023d
00000030: a72f b1bd 835c 6e3d 86cd e0bd b8ce cfbd

SpectralMeanEstNet.SpectralGenMean.layers.0.0.weight f4 [18, 16]
0.06394395 0.18169822 -0.22743903 0.16927466 0.19090211 0.18811895 -0.0889774 -0.032130297
0.17009242 -0.24959585 -0.18235566 -0.16868931 -0.12760742 -0.053167272 -0.39199185 -0.21543083
-0.011634991 0.28624216 0.0023034026 -0.31876874 0.083251566 0.16884242 -0.3381293 0.10509406
0.014201864 0.07153963 0.09383152 -0.09364256 0.0122171 -0.10063592 0.20005782 -0.010833681
0.0024723776 -0.25781336 -0.2796089 0.022042014 0.182777 0.124631755 -0.12495006 0.08663923
-0.27410683 -0.28346893 -0.2409739 0.24134196 -0.08921073 0.002284273 -0.013285836 -0.19249208
0.035943903 -0.25017214 -0.19070913 0.28585294 -0.22158936 -0.12253244 0.0690401 -0.23212364
0.13686304 0.0069614197 0.26013267 0.26420194 0.16326678 -0.14071777 -0.24022196 0.119463265
0.29028267 -0.040629476 -0.13091625 0.1389661 -0.26050857 -0.3429913 -0.073558204 -0.04557487
-0.39448133 0.14863966 0.23491475 -0.070130676 0.07457057 0.2385276 -0.16090862 0.11757237
-0.3006362 -0.034186494 0.085040234 -0.098768495 0.28142637 0.070129566 -0.26778662 0.006128671
-0.17149481 -0.31037024 0.17103243 0.020680662 -0.25709823 0.11917851 -0.122179426 0.2103935
-0.09499419 0.33132938 0.07628278 -0.29512253 -0.20356491 -0.00325866 0.31059903 0.16495565
-0.016217202 0.18565847 0.13992727 0.24257338 -0.22051175 -0.050625313 -0.31472102 -0.12834407
-0.22905289 -0.33331427 0.14171243 -0.088344805 0.2836244 -0.35958704 0.016951252 0.2533304
0.06722695 0.26501247 0.34443852 -0.38681924 0.05126411 -0.24978712 0.14675504 -0.11533681
0.052799862 0.09042113 0.103132874 0.18713057 -0.051305946 -0.3618948 0.14502054 -0.27181593
0.12671922 -0.17194447 0.116230346 -0.30207145 -0.07212062 -0.17549014 -0.06337192 -0.12336244
0.3152189 0.10916476 0.11418032 0.2677647 -0.25385872 0.0855956 -0.25618958 0.3000085
0.13621852 0.09377046 0.15025558 -0.08387343 -0.0710978 0.048572738 0.0969795 0.17972702
-0.26920047 -0.004683594 -0.03416498 -0.13296194 -0.21789125 -0.31685832 -0.10513953 -0.28771624
0.14854433 -0.033634204 -0.1695145 0.06504379 0.2235059 0.120299555 -0.042087544 0.25986063
0.31513414 -0.105962895 0.30283335 -0.27275738 0.01963283 0.13330981 0.26114765 0.17880411
-0.0004132283 -0.19827946 -0.24705556 -0.009450004 0.324316 0.10740679 0.11954814 0.23795517
0.14925067 -0.04112787 -0.105927534 0.21974526 -0.056487586 0.32794386 0.19208866 -0.22185503
0.411052 -0.08824426 -0.19200988 0.33769175 -0.20795909 0.0007229407 0.15495217 0.28429762
-0.22163685 -0.10771413 -0.1323293 -0.21077117 0.060874324 0.09583754 0.06407111 0.19348991
-0.17857532 0.0500689 0.15803306 -0.21463473 -0.12915231 -0.089048274 0.15451542 -0.15034816
-0.20784976 -0.024497438 -0.20847157 -0.15837844 -0.23911637 0.22543086 0.27055007 -0.3000882
-0.28644726 0.044377714 -0.27494812 -0.2207973 -0.1661657 -0.06661146 0.26146844 0.19676296
-0.22619936 -0.29067346 -0.20887326 0.23767334 -0.12319995 0.25290886 -0.05544926 0.14476773
0.13057876 0.21661362 0.13118523 0.30388317 0.09815294 -0.108211294 0.00263436 0.22745867
00000000: 0cf5 823d 190f 3a3e c7e5 68be 5656 2d3e
00000010: d87b 433e 41a2 403e c839 b6bd 0f9b 03bd
00000020: b52c 2e3e 0e96 7fbe 71bb 3abe e4bc 2cbe
00000030: 85ab 02be edc5 59bd 28b3 c8be e699 5cbe
00000040: b0a0 3ebc 558e 923e aff4 163b a835 a3be
00000050: cc7f aa3d 07e5 2c3e 491f adbe 8e3b d73d
00000060: efae 683c 5f83 923d bd2a c03d acc7 bfbd
00000070: 3b2a 483c 351a cebd f5db 4c3e c07f 31bc
00000080: 9d07 223b 1d00 84be e628 8fbe 7491 b43c
00000090: e529 3b3e ef3e ff3d d1e5 ffbd e96f b13d
000000a0: bb57 8cbe d722 91be ddc1 76be 5922 773e
000000b0: 1db4 b6bd beb3 153b d6ac 59bc a51c 45be
000000c0: ea39 133d 9016 80be 4149 43be 515b 923e
000000d0: 52e8 62be 4af2 fabd e564 8d3d d2b1 6dbe
000000e0: d325 0c3e 9f1c e43b 1c30 853e 7a45 873e
000000f0: 682f 273e 5218 10be bffc 75be 28a9 f43d
00000100: ee9f 943e 186b 26bd e90e 06be 214d 0e3e
00000110: 6161 85be 8e9c afbe afa5 96bd b7ac 3abd
00000120: 75f9 c9be ff34 183e 7e8d 703e aca0 8fbd
00000130: 74b8 983d 9440 743e 3bc5 24be c8c9 f03d
00000140: fdec 99be 2307 0cbd 9329 ae3d 2347 cabd
00000150: 1e17 903e 17a0 8f3d 541b 89be 05d3 c83b
00000160: 569c 2fbe d9e8 9ebe 2023 2f3e 7e6a a93c
00000170: 61a2 83be dd13 f43d 3539 fabd 6571 573e
00000180: 508c c2bd 01a4 a93e 253a 9c3d 4d1a 97be
00000190: 5273 50be 3e8f 55bb d606 9f3e 22ea 283e
000001a0: f0d9 84bc 411d 3e3e 1849 0f3e 2865 783e
000001b0: d5cd 61be 7d5c 4fbd 1d23 a1be a16c 03be
000001c0: d78c 6abe 2ba8 aabe 101d 113e 1fee b4bd
000001d0: 3837 913e cb1b b8be 5add 8a3c 86b4 813e
000001e0: 48ae 893d b7af 873e 3f5a b03e 2c0d c6be
000001f0: 51fa 513d 32c8 7fbe f446 163e b535 ecbd
00000200: ab44 583d b72e b93d 5437 d33d 289f 3f3e
00000210: 2f26 52bd 464a b9be 4480 143e 752b 8bbe
00000220: afc2 013e 3612 30be 2d0a ee3d 1ca9 9abe
00000230: fab3 93bd b0b3 33be 23c9 81bd 72a5 fcbd
00000240: 5f64 a13e c691 df3d 5fd7 e93d 7418 893e
00000250: c5f9 81be bf4c af3d 482b 83be b79a 993e
00000260: de7c 0b3e ba0a c03d 99dc 193e d5c5 abbd
00000270: b99b 91bd 35f4 463d 309d c63d 5c0a 383e
00000280: a5d4 89be d678 99bb 94f0 0bbd 2d27 08be
00000290: e21e 5fbe 413b a2be 6553 d7bd 8b4f 93be
000002a0: 011c 183e 05c4 09bd 3695 2dbe ae35 853d
000002b0: bbde 643e 9d5f f63d fd63 2cbd 740c 853e
000002c0: 4359 a13e 1303 d9bd f90c 9b3e dba6 8bbe
000002d0: 07d5 a03c 5e82 083e 25b5 853e 6d18 373e
000002e0: 90a6 d8b9 c509 4bbe 22fc 7cbe 31d4 1abc
000002f0: bf0c a63e 17f8 db3d a8d5 f43d 85aa 733e
00000300: 2bd5 183e b375 28bd 89f0 d8bd e704 613e
00000310: 875f 67bd 42e8 a73e e4b2 443e f72d 63be
00000320: 6875 d23e 68b9 b4bd 3d9e 44be efe5 ac3e
00000330: 3af3 54be bb83 3d3a c8ab 1e3e 758f 913e
00000340: c5f4 62be 3a99 dcbd 5581 07be 66d4 57be
00000350: 5b57 793d 7946 c43d b737 833d 3822 463e
00000360: 73dc 36be 0c15 4d3d 6bd3 213e 35c9 5bbe
00000370: 8140 04be f15e b6bd 4a39 1e3e def4 19be
00000380: 91d6 54be daae c8bc 9279 55be f52d 22be
00000390: ecda 74be 59d7 663e 8a85 8a3e 29a5 99be
000003a0: 37a9 92be 68c5 353d 00c6 8cbe b018 62be
000003b0: 5727 2abe 976b 88bd 31df 853e 3b7c 493e
000003c0: cea0 67be 27d3 94be dfe2 55be a460 733e
000003d0: 4150 fcbd 457d 813e c31e 63bd fe3d 143e
000003e0: 70b6 053e f6cf 5d3e 6c55 063e 9396 9b3e
000003f0: 6904 c93d e29d ddbd 3aa5 2c3b edea 683e

SpectralMeanEstNet.SpectralGenMean.layers.0.0.bias f4 [18]
-0.020441387 -0.029558502 -0.0068741525 -0.013687952 0.19309023 -0.19017367 -0.03982903 -0.05456072
-0.05151509 -0.03847096 -0.062395632 -0.02305151 -0.21300873 0.12130284 -0.02735815 -0.038222626
-0.02852137 -0.01862007
00000000: b274 a7bc ac24 f2bc 9240 e1bb 6f43 60bc
00000010: 72b9 453e e3bc 42be c423 23bd 107b 5fbd
00000020: 7d01 53bd ba93 1dbd 9092 7fbd 85d6 bcbc
00000030: f61e 5abe a06d f83d 331e e0bc 548f 1cbd
00000040: a6a5 e9bc 1e89 98bc

SpectralMeanEstNet.SpectralGenMean.layers.1.0.weight f4 [22, 18]
-0.16965097 -0.0052440045 -0.35003605 -0.19967574 -0.15553619 -0.0796152 -0.30364418 -0.16609938
-0.17764895 -0.23388542 0.08512071 -0.18490735 0.10800409 0.19505605 -0.1591465 -0.103194535
0.10481328 -0.066174604 0.34381953 0.17308836 0.26926902 -0.14057317 -0.015353462 0.2382762
0.10969959 -0.2359275 0.1571243 0.1351603 0.037918553 0.24059087 0.17071782 -0.14047605
0.04710527 -0.08902265 0.24897155 -0.0073730787 0.037445597 0.1458688 0.30976537 0.23301852
-0.24847515 -0.14069273 0.34034595 -0.085434906 -0.02985062 0.022648126 0.33574477 0.1058129
0.22897671 -0.30367824 0.24379042 0.25698656 0.29426923 0.19704361 0.016474811 -0.14338094
0.14149493 0.22379841 -0.036933806 0.12066694 0.0872608 -0.023391673 0.14997913 0.25931475
0.14546362 0.0719221 0.09624592 0.028008604 -0.039082993 0.05308463 0.1507411 -0.080749
-0.08748255 -0.29968396 -0.2799438 -0.087089814 -0.05646267 0.042425994 -0.1750411 -0.14370075
-0.11615862 -0.09880403 -0.24428104 -0.036041625 0.056933027 -0.047711056 -0.10792782 0.044272177
0.03459279 -0.11220947 -0.060249638 -0.015884805 0.12886347 -0.18032616 -0.19310442 0.018079784
0.04830353 0.07169591 0.19456482 0.23926133 0.3363798 -0.029361755 -0.18278517 0.17108917
0.28928295 0.32049552 0.1925213 0.2731215 0.0017756497 -0.12317225 -0.2426242 -0.24460594
-0.09027483 -0.08013636 0.051040642 0.04681739 -0.1450686 -0.05336179 0.08778504 0.07042417
-0.017029492 0.006320899 -0.027210107 0.008038536 -0.20355198 0.078063086 0.10251585 -0.056540374
0.0063000373 -0.046940465 -0.16665041 -0.089312606 -0.22099869 0.18550225 0.01997227 0.090626866
-0.15089484 0.02234567 -0.18093936 0.0891539 -0.12914604 -0.18952726 0.22236231 -0.12948073
0.34821355 0.2330492 0.2955765 0.2835699 -0.029083014 0.0038876387 0.20064245 0.2727681
-0.06738148 -0.046583187 0.14661452 0.20345691 -0.27266544 0.32750407 0.2834093 0.31740144
0.024541268 -0.046945896 0.19191936 0.30359483 0.355435 -0.06716436 0.2905299 -0.041144904
-0.031802252 0.23741484 0.27527148 0.18110655 -0.060770832 0.39774427 -0.12831771 0.07770372
0.030280394 -0.13348408 0.081391595 0.21050656 0.16624351 0.050179172 0.31767762 0.05910014
-0.120067604 -0.017491793 0.08610719 0.25015005 0.3398327 0.16036224 0.34061635 0.33924827
0.10252528 0.15906814 0.16785197 0.13525227 0.35603362 0.060572747 -0.32267356 -0.29625934
0.013080154 -0.25551844 0.0033932833 -0.04505235 -0.32914802 -0.14829122 -0.06208869 -0.08859219
-0.0019749787 -0.1893576 -0.10740201 -0.033510886 -0.2561096 -0.12041516 -0.13018669 -0.040705595
-0.123343125 0.05731277 -0.047758054 -0.09722245 -0.10939063 0.10268215 -0.052709363 -0.25171727
-0.21944942 -0.03843507 -0.057681214 -0.20487653 -0.19815595 0.092695005 0.027910288 -0.15141721
-0.21234635 0.10967926 -0.09659603 0.2932782 -0.028309524 0.17231992 0.097833395 0.09488448
0.2579199 0.0037690965 -0.14117257 0.083025485 0.1294098 0.041129086 0.078919776 0.27993488
-0.022229174 0.16282456 0.18810739 0.24112447 -0.033317752 -0.2636329 -0.1030985 -0.019502003
00000000: fcb8 2dbe e6d5 abbb ed37 b3be cc77 4cbe
00000010: e144 1fbe 4b0d a3bd 4077 9bbe f515 2abe
00000020: 9be9 35be a97f 6fbe c453 ae3d 5a58 3dbe
00000030: 4031 dd3d c6bc 473e 4df7 22be a857 d3bd
00000040: 58a8 d63d 8d86 87bd 1d09 b03e 133e 313e
00000050: a1dd 893e 6af2 0fbe 168d 7bbc adfe 733e
00000060: 2eaa e03d fb96 71be 31e5 203e 7667 0a3e
00000070: 7c50 1b3d 745d 763e a7d0 2e3e f4d8 0fbe
00000080: 75f1 403d 8251 b6bd 66f2 7e3e de99 f1bb
00000090: 8e60 193d a15e 153e 9199 9e3e 689c 6e3e
000000a0: 4570 7ebe c111 10be d341 ae3e 7ff8 aebd
000000b0: 4a89 f4bc 9088 b93c bde6 ab3e 6fb4 d83d
000000c0: df78 6a3e b77b 9bbe 32a4 793e be93 833e
000000d0: 75aa 963e cdc5 493e 2ff6 863c 74d2 12be
000000e0: 0ce4 103e 692b 653e e747 17bd 3b20 f73d
000000f0: cab5 b23d e59f bfbc 2194 193e e7c4 843e
00000100: 6af4 143e e54b 933d 951c c53d 4d72 e53c
00000110: 7d15 20bd 456f 593d e05b 1a3e bb5f a5bd
00000120: 0d2a b3bd 2d70 99be cb54 8fbe 255c b2bd
00000130: 6745 67bd e1c6 2d3d f93d 33be 4a26 13be
00000140: 92e4 edbd c459 cabd cf24 7abe 62a0 13bd
00000150: 9b32 693d ab6c 43bd 4309 ddbd be56 353d
00000160: 2bb1 0d3d 14ce e5bd 53c8 76bd da20 82bc
00000170: c9f4 033e 6ca7 38be 2abd 45be 0e1c 943c
00000180: ecd9 453d 4ed5 923d 003c 473e ec00 753e
00000190: f939 ac3e 1088 f0bc 092c 3bbe 0032 2f3e
000001a0: e51c 943e fd17 a43e 4e24 453e 95d6 8b3e
000001b0: ebbc e83a bc41 fcbd 7a72 78be fb79 7abe
000001c0: 03e2 b8bd 881e a4bd fe0f 513d 97c3 3f3d
000001d0: dd8c 14be e491 5abd a5c8 b33d 8c3a 903d
000001e0: 6f81 8bbc 8b1f cf3b bbe7 debc 10b4 033c
000001f0: ee6f 50be 8adf 9f3d d4f3 d13d e196 67bd
00000200: 8b70 ce3b a544 40bd 68a6 2abe 87e9 b6bd
00000210: 7b4d 62be 4df4 3d3e e39c a33c 949a b93d
00000220: 2d84 1abe 440e b73c 2b48 39be 5296 b63d
00000230: dc3e 04be 6f13 42be f2b2 633e 9996 04be
00000240: 0c49 b23e 73a4 6e3e ce55 973e 1330 913e
00000250: 803f eebc c1c7 7e3b 3775 4d3e 43a8 8b3e
00000260: 4dff 89bd 03ce 3ebd 1e22 163e 0257 503e
00000270: ce9a 8bbe 9dae a73e 061b 913e 7182 a23e
00000280: c50a c93c 574a 40bd 8286 443e c870 9b3e
00000290: 94fb b53e 788d 89bd 56c0 943e 8f87 28bd
000002a0: 1443 02bd e01c 733e 62f0 8c3e ff73 393e
000002b0: d6ea 78bd 23a5 cb3e b865 03be 2123 9f3d
000002c0: 970e f83c 0db0 08be a3b0 a63d 088f 573e
000002d0: bd3b 2a3e ad88 4d3d a4a6 a23e fd12 723d
000002e0: 01e6 f5bd f34a 8fbc f758 b03d ab13 803e
000002f0: 8dfe ad3e 0036 243e 4465 ae3e f3b1 ad3e
00000300: c6f8 d13d c2e2 223e 63e1 2b3e 927f 0a3e
00000310: 0a4a b63e 211b 783d 7835 a5be 4eaf 97be
00000320: 244e 563c 50d3 82be d961 5e3b d088 38bd
00000330: 1786 a8be a7d9 17be b650 7ebd d26f b5bd
00000340: a56e 01bb f5e6 41be 96f5 dbbd b642 09bd
00000350: cc20 83be 399c f6bd a94f 05be e9ba 26bd
00000360: 529b fcbd ccc0 6a3d f39d 43bd 901c c7bd
00000370: 3208 e0bd 054b d23d c6e5 57bd 16e1 80be
00000380: 59b7 60be 186e 1dbd 2343 6cbd 27cb 51be
00000390: 65e9 4abe e1d6 bd3d 1ea4 e43c 1d0d 1bbe
000003a0: 5271 59be 859f e03d 24d4 c5bd 8f28 963e
000003b0: 60e9 e7bc a274 303e e05c c83d cb52 c23d
000003c0: 140e 843e f202 773b 8b8f 10be 4409 aa3d
000003d0: 0184 043e f976 283d b1a0 a13d a053 8f3e
000003e0: f519 b6bc 7bbb 263e 399f 403e 55e9 763e
000003f0: 3278 08bd e4fa 86be 4e25 d3bd aac2 9fbc

SpectralMeanEstNet.SpectralGenMean.layers.1.0.bias f4 [22]
0.16782601 0.010977278 0.049640793 0.15949245 0.10361364 0.004143608 -0.03977028 -0.008270601
-0.060627997 -0.10039145 0.20518081 -0.06290884 0.1194528 -0.009247766 0.15118286 -0.04735378
-0.11317514 0.07469092 -0.07676949 0.12003831 -0.060946375 0.15889063
00000000: 95da 2b3e 0bda 333c 2554 4b3d fd51 233e
00000010: 6333 d43d 1ac7 873b 29e6 22bd 6a81 07bc
00000020: 1055 78bd 089a cdbd eb1a 523e 5ad6 80bd
00000030: aba3 f43d f183 17bc aecf 1a3e 0af6 41bd
00000040: 5ec8 e7bd 8ef7 983d 5339 9dbd a5d6 f53d
00000050: e8a2 79bd 3ab4 223e

SpectralMeanEstNet.SpectralGenMean.layers.2.0.weight f4 [26, 22]
-0.017056834 0.12245043 0.24305712 0.19953008 -0.13375981 0.21666677 0.16542049 -0.07830739
0.095403574 0.121708296 0.11566835 -0.24191539 -0.20966107 0.2365392 0.040031217 0.13269241
0.017637195 0.24172653 0.16822813 -0.11184547 -0.0043062726 -0.16153818 -0.06425984 -0.06802935
-0.27440926 0.20667985 -0.045197476 -0.21138063 -0.12459454 0.0025184634 -0.21304525 -0.06854719
-0.017506076 -0.070961565 0.089898385 0.028652709 0.03575885 -0.39778265 0.100821815 -0.25660452
-0.21723402 0.21597147 -0.16153216 0.0856444 0.15019667 0.010356937 -0.1458614 -0.05018455
0.0748163 -0.24280743 -0.005046316 -0.15866928 -0.2295117 -0.36707407 -0.20443441 0.10066547
0.067904025 -0.2807784 0.18518516 -0.11584617 0.18089807 -0.11271084 -0.20560674 -0.039898418
0.0057507963 -0.052235786 -0.019659555 0.060022842 0.2971089 0.1125402 0.13376264 0.11864824
-0.18488495 0.18163423 0.12196812 0.3539434 0.23120679 -0.043437168 0.041569162 0.0037011385
0.16123427 0.038308736 0.12241649 -0.036630202 0.3730938 -0.16444053 -0.13855167 0.06376035
-0.10150731 0.27248207 0.01368506 -0.1296682 -0.07014891 -0.023944639 0.17180578 0.103411235
0.12504676 0.33200434 0.22468261 -0.18013862 0.04642613 0.019117657 -0.20036675 0.04362002
0.051547587 0.1999671 0.0026593674 -0.3418668 0.12205316 -0.15290126 0.14052954 -0.2129085
-0.060968313 -0.029739065 0.13067412 -0.20865433 -0.020166615 -0.10646111 -0.004251672 -0.16234356
-0.25903136 0.26221615 0.13145249 -0.308228 -0.016949726 -0.46763217 0.06549357 -0.03507093
-0.0021333946 0.03346493 0.1638575 -0.11906405 -0.13367224 -0.007100505 0.17237346 0.19188726
-0.11545101 0.14754447 -0.0701699 -0.12770215 0.17192759 -0.03510295 0.19616172 -0.15917897
0.17529684 0.14290743 -0.1801619 0.4015736 -0.094594315 -0.063195914 0.42111692 -0.08967356
-0.0013368654 -0.15567198 -0.047555827 0.33753702 0.010510647 -0.07453652 0.24559245 0.058291655
-0.08314054 0.16498 0.18594834 -0.0021255224 0.07869278 -0.031179728 -0.01664147 0.29320228
0.3033345 0.31738383 -0.13140158 0.04331887 0.03951804 -0.19519612 -0.10701943 0.22832309
0.12845963 -0.15259774 -0.366637 0.100204356 -0.025251806 -0.077788584 -0.111475885 -0.04032511
-0.13402966 -0.27411684 -0.13156633 0.15437502 0.07045397 -0.0015956503 -0.14256266 -0.059716556
-0.23668313 -0.2151161 -0.21653205 -0.08591318 0.18745437 -0.03681194 -0.09682665 0.22873336
0.13859947 0.15073013 0.100030795 0.10521625 -0.20279285 0.10587077 0.12184792 0.21680193
0.18454069 -0.17223239 -0.09579383 -0.03581484 0.031802755 0.1977611 -0.062251322 0.041281495
0.1896263 -0.112593316 0.18121667 0.11816388 0.26729846 -0.31332958 -0.35283333 0.16595192
0.2240297 0.04321568 -0.15633501 -0.16826713 -0.0024882073 -0.33417445 -0.1923892 0.12787458
0.23634158 -0.2305491 -0.033610895 -0.36473304 -0.1466583 -0.056111068 -0.2227139 0.23244278
-0.12383619 -0.044031452 -0.1962291 -0.23949425 -0.0020827162 -0.03725888 -0.1874569 -0.07154339
0.0784464 0.07002254 0.02097183 -0.3381762 0.025346676 -0.15882695 0.1592014 0.05461227
00000000: c6ba 8bbc 4bc7 fa3d f7e3 783e 9d51 4c3e
00000010: 55f8 08be e5dd 5d3e fd63 293e a05f a0bd
00000020: f362 c33d 3342 f93d 87e3 ec3d abb8 77be
00000030: 64b1 56be 5537 723e c6f7 233d 85e0 073e
00000040: e17b 903c 2987 773e ff43 2c3e 3d0f e5bd
00000050: a21b 8dbb 446a 25be aa9a 83bd f952 8bbd
00000060: 5f7f 8cbe e2a3 533e fd20 39bd 2a74 58be
00000070: 6c2b ffbd ce0c 253b 8928 5abe 7862 8cbd
00000080: e768 8fbc 4c54 91bd a51c b83d 16b9 ea3c
00000090: df77 123d 2baa cbbe ab7b ce3d ab61 83be
000000a0: 9872 5ebe a027 5d3e b068 25be 5566 af3d
000000b0: 28cd 193e 24b0 293c b15c 15be 518e 4dbd
000000c0: 4a39 993d 83a2 78be 915b a5bb 337a 22be
000000d0: 1d05 6bbe 22f1 bbbe 4157 51be b329 ce3d
000000e0: 4411 8b3d 30c2 8fbe 2ea1 3d3e c240 edbd
000000f0: 583d 393e f1d4 e6bd 938a 52be 866c 23bd
00000100: 2d71 bc3b 31f5 55bd 130d a1bc 83da 753d
00000110: a81e 983e 7a7b e63d 13f9 083e d9fd f23d
00000120: 7b52 3dbe 53fe 393e 6cca f93d 1238 b53e
00000130: 79c1 6c3e 2ceb 31bd 6d44 2a3d cd8e 723b
00000140: 991a 253e 9fe9 1c3d 7fb5 fa3d 8d09 16bd
00000150: 2706 bf3e 1963 28be 7de0 0dbe c994 823d
00000160: 11e3 cfbd c582 8b3e 4d37 603c bec7 04be
00000170: 3baa 8fbd 8c27 c4bc dbed 2f3e 45c9 d33d
00000180: 420c 003e 79fc a93e 3313 663e 4276 38be
00000190: 5329 3e3d a29c 9c3c f12c 4dbe e8aa 323d
000001a0: 9023 533d 2dc4 4c3e c848 2e3b 2a09 afbe
000001b0: 02f7 f93d 2692 1cbe fae6 0f3e b004 5abe
000001c0: e9b9 79bd 579f f3bc 70cf 053e 7ba9 55be
000001d0: 7534 a5bc 4808 dabd 9c51 8bbb 643d 26be
000001e0: c29f 84be 3241 863e 7b9b 063e 0fd0 9dbe
000001f0: 27da 8abc 7c6d efbe 7e21 863d 89a6 0fbd
00000200: 6cd0 0bbb 8612 093d 43ca 273e dad7 f3bd
00000210: 60e1 08be 5aab e8bb ab82 303e 187e 443e
00000220: 9471 ecbd e615 173e 3db5 8fbd 5ac4 02be
00000230: c90d 303e 1cc8 0fbd 9ede 483e d0ff 22be
00000240: 0481 333e 5356 123e 5c7c 38be 0e9b cd3e
00000250: aaba c1bd dc6c 81bd a39c d73e c5a6 b7bd
00000260: c239 afba 7a68 1fbe e6c9 42bd a7d1 ac3e
00000270: d934 2c3c 9aa6 98bd 967c 7b3e 3bc3 6e3d
00000280: 9645 aabd 84f0 283e 3e69 3e3e 594c 0bbb
00000290: ae29 a13d a16c ffbc b153 88bc 9c1e 963e
000002a0: a94e 9b3e 2280 a23e 238e 06be 216f 313d
000002b0: abdd 213d 7ee1 47be 012d dbbd 87cd 693e
000002c0: ec8a 033e 9542 1cbe d8b7 bbbe f137 cd3d
000002d0: e0dc cebc 9f4f 9fbd 784d e4bd f12b 25bd
000002e0: 123f 09be 0b59 8cbe 53b9 06be 7c14 1e3e
000002f0: 2c4a 903d 2425 d1ba f2fb 11be 5999 74bd
00000300: 105d 72be 6547 5cbe 94ba 5dbe 40f3 afbd
00000310: 0af4 3f3e 1ec8 16bd 0d4d c6bd 1439 6a3e
00000320: 05ed 0d3e 0059 1a3e f2dc cc3d 9e7b d73d
00000330: eea8 4fbe c6d2 d83d 678b f93d 5301 5e3e
00000340: 3cf8 3c3e b05d 30be 8e2f c4bd 95b2 12bd
00000350: 9b43 023d e381 4a3e 3efb 7ebd c916 293d
00000360: 662d 423e 5397 e6bd dd90 393e e8ff f13d
00000370: 58db 883e bc6c a0be 92a6 b4be 4def 293e
00000380: 0b68 653e ed02 313d 4916 20be 384e 2cbe
00000390: 3111 23bb ea18 abbe ad01 45be 8ef1 023e
000003a0: 8703 723e 1015 6cbe 94ab 09bd 4abe babe
000003b0: 982d 16be b8d4 65bd 1d0f 64be 7b05 6e3e
000003c0: d49d fdbd 535a 34bd 48f0 48be fb3d 75be
000003d0: 2e7e 08bb c49c 18bd b4f4 3fbe 5785 92bd
000003e0: 82a8 a03d fa67 8f3d 1dcd ab3c 6e25 adbe
000003f0: d5a3 cf3c 88a3 22be b105 233e 1eb1 5f3d

SpectralMeanEstNet.SpectralGenMean.layers.2.0.bias f4 [26]
-0.034339298 -0.1500189 0.1294358 -0.05677631 0.04660232 0.15302877 -0.05572415 -0.094807155
0.18550678 0.12239037 0.23321359 0.11350377 -0.041723005 0.09306523 0.069139145 0.0048774243
0.16063361 0.03603026 -0.16318808 0.11034988 -0.071740985 -0.08717782 -0.12369773 0.006982152
0.044854645 -0.020795492
00000000: 5da7 0cbd 8e9e 19be d18a 043e 478e 68bd
00000010: 13e2 3e3d 93b3 1c3e 023f 64bd 412a c2bd
00000020: 7df5 3d3e cda7 fa3d 8bcf 6e3e aa74 e83d
00000030: bee5 2abd fc98 be3d d398 8d3d cdd2 9f3b
00000040: 237d 243e 7794 133d c71a 27be 1eff e13d
00000050: f0ec 92bd 498a b2bd 3c55 fdbd 89ca e43b
00000060: 81b9 373d 4f5b aabc

SpectralMeanEstNet.SpectralGenMean.layers.3.0.weight f4 [30, 26]
-0.34762296 0.1185235 0.19173883 -0.05206204 -0.13021891 0.15221253 -0.2331795 0.0042067985
0.214524 -0.15834351 0.177832 -0.16597158 0.026857298 0.031802747 -0.22016342 0.033811506
-0.028911654 0.07870033 -0.02300252 0.13392924 -0.00799741 -0.1462906 -0.058255542 -0.15106277
0.2044548 0.15265723 0.14038053 0.031239133 -0.10511138 -0.07025904 -0.00013487604 -0.26050523
-0.14036992 0.12525752 -0.24401985 0.1340097 0.06237781 -0.048205428 0.13312311 -0.13543636
-0.0932146 0.18166912 0.186993 0.08559228 -0.2182414 -0.15444224 -0.17295738 -0.07572916
0.05070351 -0.12203743 -0.1838248 -0.18646549 0.21915491 0.07536246 0.117017925 0.20503253
0.11477983 -0.035298247 -0.048306335 -0.08148659 0.13576621 0.085854635 -0.15480223 -0.16829728
0.004039022 0.12150439 -0.09544176 0.165099 0.074532144 0.13776776 -0.085896246 -0.1256711
0.09523404 0.096594095 -0.16057889 -0.12847883 -0.013700685 -0.10055509 -0.21519873 0.11463112
0.09020375 0.02588725 -0.2149398 0.11276588 -0.121209286 0.081377074 0.111346036 0.08680476
-0.14149004 0.16517664 -0.04235951 -0.030199332 -0.22655255 0.11433794 -0.21962793 0.06317598
0.014363897 -0.19803953 0.075979605 -0.13300774 0.21941447 0.027180864 0.16147739 -0.03232436
-0.09012448 0.117644794 0.01202368 -0.14002503 0.069444686 0.10416252 -0.04986683 -0.14228019
0.03781076 -0.17004766 0.06372189 0.091622666 -0.018453319 0.11686056 0.15659057 0.19666944
-0.11332768 0.033851787 0.08137254 -0.10543088 -0.002084237 -0.059034515 -0.06231937 -0.0626218
-0.20719385 0.11384472 0.18260716 -0.06782807 -0.22221231 -0.0012576829 0.14888713 -0.06449987
0.12939556 -0.11345162 -0.084423915 0.1653658 -0.22390522 0.0060829353 -0.01759453 -0.043836206
0.012756493 0.18287645 -0.0011162137 -0.032601774 0.14828262 -0.08778155 -0.07729965 -0.0192747
-0.16706678 -0.22143161 -0.16709562 0.029640758 -0.09314927 0.027299657 -0.09738098 0.04374195
0.06497266 -0.17204441 -0.0043694037 0.044639915 -0.1503683 0.059090056 0.09951767 -0.10117197
-0.13865818 0.1638181 0.08327113 -0.11790499 -0.040808186 0.023843374 -0.21609761 -0.107522435
-0.20061816 -0.06141396 0.10575615 0.20347795 0.03108048 -0.23021728 0.096117884 -0.02689749
-0.010181977 0.107415274 0.26098 -0.01229692 0.22992973 0.1569363 0.016614376 0.14785784
-0.16772899 -0.17745033 0.1668778 -0.12609467 0.102809906 0.18746825 -0.07618402 0.019877465
-0.1307667 0.2014143 0.016230412 0.15374641 -0.29908517 -0.06835691 -0.112819664 0.043989908
0.15570256 0.16084568 -0.15083978 0.20516175 -0.06580345 -0.085464336 -0.010201854 0.04713187
0.10581737 0.05141731 -0.0847327 -0.012564728 0.10967571 -0.022267092 0.073715806 0.18938714
-0.07940273 -0.033710677 -0.19997638 0.14160845 0.019887269 -0.08139393 -0.28272516 0.0818183
-0.24294901 0.118644424 0.23782289 -0.08262725 -0.1658677 -0.061362624 -0.105255246 0.049453355
-0.024354994 -0.07987394 -0.183249 0.079679996 -0.17977321 -0.10797518 0.11356146 -0.107679546
-0.062188253 0.12143515 -0.21112815 -0.19627349 -0.14919911 -0.030463703 0.07180053 0.14765528
00000000: a3fb b1be 73bc f23d 2f57 443e 013f 55bd
00000010: 1b58 05be 9add 1b3e 9bc6 6ebe 2fd9 893b
00000020: 2eac 5b3e cd24 22be 9819 363e 74f4 29be
00000030: d603 dc3c 9943 023d 8572 61be ef7d 0a3d
00000040: 22d8 ecbc a32d a13d c86f bcbc bf24 093e
00000050: 9207 03bc 34cd 15be 5d9d 6ebd 33b0 1abe
00000060: 995c 513e 2d52 1c3e eabf 0f3e 36e9 ff3c
00000070: a344 d7bd f9e3 8fbd 836d 0db9 f160 85be
00000080: 22bd 0fbe 8243 003e 57e0 79be d739 093e
00000090: e07f 7f3d 0e73 45bd 6d51 083e d4af 0abe
000000a0: 4ce7 bebd 7807 3a3e 187b 3f3e 014b af3d
000000b0: ac7a 5fbe 1b26 1ebe bd1b 31be e417 9bbd
000000c0: 7cae 4f3d c3ee f9bd 923c 3cbe cff0 3ebe
000000d0: 256a 603e a257 9a3d 18a7 ef3d 0cf4 513e
000000e0: b011 eb3d e594 10bd dddc 45bd 71e2 a6bd
000000f0: 4c06 0b3e 8ed4 af3d 7a84 1ebe 1f56 2cbe
00000100: c659 843b 4bd7 f83d f876 c3bd b60f 293e
00000110: 4fa4 983d fe12 0d3e 5fea afbd edaf 00be
00000120: 100a c33d 20d3 c53d cb6e 24be f48f 03be
00000130: d778 60bc d4ef cdbd 0e5d 5cbe b8c3 ea3d
00000140: bebc b83d 8011 d43c 2e19 5cbe ccf1 e63d
00000150: 933c f8bd 06a9 a63d 6409 e43d b2c6 b13d
00000160: c4e2 10be 1124 293e 2a81 2dbd 9764 f7bc
00000170: 64fd 67be 032a ea3d 25e6 60be 6862 813d
00000180: 8d56 6b3c e0ca 4abe 329b 9b3d 2e33 08be
00000190: 30ae 603e 67aa de3c 545a 253e 8c66 04bd
000001a0: 2f93 b8bd c1ef f03d f8fe 443c b962 0fbe
000001b0: 0439 8e3d 2953 d53d 2941 4cbd e6b1 11be
000001c0: 75df 1a3d f920 2ebe 9f80 823d aaa4 bb3d
000001d0: 6a2b 97bc 9754 ef3d 4759 203e b763 493e
000001e0: 5818 e8bd 2ca8 0a3d a5a6 a63d 25ec d7bd
000001f0: b297 08bb 2dce 71bd 9942 7fbd dc3f 80bd
00000200: a02a 54be 6c27 e93d 5ffd 3a3e 71e9 8abd
00000210: a08b 63be d6d8 a4ba de75 183e 8218 84bd
00000220: 4580 043e 5359 e8bd 72e6 acbd a755 293e
00000230: 6947 65be 5c53 c73b 6722 90bc 988d 33bd
00000240: 9c00 513c f743 3b3e eb4d 92ba 7089 05bd
00000250: 66d7 173e d0c6 b3bd 474f 9ebd fae5 9dbc
00000260: 8e13 2bbe f8be 62be 1d1b 2bbe 2dd1 f23c
00000270: 0bc5 bebd 88a3 df3c ae6f c7bd c22a 333d
00000280: 6310 853d 692c 30be 372d 8fbb 58d8 363d
00000290: 26fa 19be 6a08 723d eccf cb3d 4033 cfbd
000002a0: 69fc 0dbe efbf 273e 0e8a aa3d 2c78 f1bd
000002b0: 7c26 27bd 2e53 c33c b148 5dbe b934 dcbd
000002c0: d96e 4dbe 348d 7bbd ae96 d83d 865c 503e
000002d0: 7e9c fe3c 14be 6bbe 74d9 c43d 2058 dcbc
000002e0: 4fd2 26bc 8afc db3d 2c9f 853e 0579 49bc
000002f0: b372 6b3e e9b3 203e df1a 883c 0c68 173e
00000300: 26c1 2bbe 8ab5 35be 04e2 2a3e f61e 01be
00000310: 008e d23d adf7 3f3e 5e06 9cbd 11d6 a23c
00000320: b5e7 05be 8d3f 4e3e a4f5 843c b36f 1d3e
00000330: b121 99be b5fe 8bbd ff0d e7bd c32e 343d
00000340: 7e70 1f3e bbb4 243e be75 1abe ec15 523e
00000350: f6c3 86bd ed07 afbd ad25 27bc 590d 413d
00000360: c7b6 d83d f59a 523d 5688 adbd 4adc 4dbc
00000370: a99d e03d 7a69 b6bc 50f8 963d b4ee 413e
00000380: e69d a2bd 3514 0abd 9cc6 4cbe ce01 113e
00000390: a0ea a23c dcb1 a6bd 5ac1 90be 5a90 a73d
000003a0: a0c7 78be d9fb f23d d887 733e 7a38 a9bd
000003b0: 39d9 29be 6057 7bbd 1090 d7bd 9a8f 4a3d
000003c0: 2084 c7bc f394 a3bd a0a5 3bbe 442f a33d
000003d0: 7816 38be 1722 ddbd e992 e83d 1887 dcbd
000003e0: 1cb9 7ebd feb2 f83d fa31 58be ebfb 48be
000003f0: a7c7 18be 048f f9bc 280c 933d f232 173e

SpectralMeanEstNet.SpectralGenMean.layers.3.0.bias f4 [30]
0.03704825 0.15126856 -0.043000285 -0.022136535 0.0085273 0.092254214 -0.06934436 -0.008456232
-0.207314 0.11847664 -0.095369145 -0.009528347 0.01878451 -0.051031772 0.15679632 -0.15861064
0.11946003 0.009599929 0.05825145 0.045875087 0.00751934 -0.10203003 -0.13032453 -0.16102359
0.09420858 0.06352146 0.08629991 -0.09952308 -0.028477982 0.03223869
00000000: e8bf 173d 25e6 1a3e 1121 30bd ae57 b5bc
00000010: 17b6 0b3c c7ef bc3d 6a04 8ebd 028c 0abc
00000020: 1f4a 54be e1a3 f23d e650 c3bd c91c 1cbc
00000030: f9e1 993c b106 51bd 378f 203e d46a 22be
00000040: 76a7 f43d 0549 1d3c 1399 6e3d 84e7 3b3d
00000050: cc64 f63b 1ff5 d0bd cb73 05be 5ee3 24be
00000060: 6ef0 c03d 8a17 823d 02be b03d c2d2 cbbd
00000070: a84a e9bc b70c 043d
