pths/net59.pth (torch_old, 34322 bytes, 28 tensors)

AbundanceEstNet.Encoder_0.layers.0.0.conv2d.weight f4 [4, 3, 1, 1]
-0.5146055 -0.31321144 -0.6046962 0.7385134 0.016426899 0.6839412 -0.7090929 -0.80292463
-0.6680341 0.6071143 0.16867104 0.5199763
00000000: 30bd 03bf 405d a0be 5fcd 1abf 370f 3d3f
00000010: b491 863c c516 2f3f 1d87 35bf 788c 4dbf
00000020: 4804 2bbf d86b 1b3f 1ab8 2c3e 2b1d 053f

AbundanceEstNet.Encoder_0.layers.0.0.conv2d.bias f4 [4]
-0.5402671 -0.22422428 -0.19856805 0.02126386
00000000: f24e 0abf 0d9b 65be 6c55 4bbe 8c31 ae3c

AbundanceEstNet.Encoder_1.layers.0.0.conv2d.weight f4 [8, 7, 1, 1]
-0.51781726 0.4760291 -0.38262743 0.44182447 0.60749143 0.43448237 0.41391784 0.3898965
-0.5195401 0.26602244 -0.4414767 0.006151309 0.011503084 -0.5574325 0.28420007 -0.059720658
0.20111114 -0.06667016 0.38330588 -0.1674829 -0.65327835 -0.07017081 -0.49304157 0.17010719
-0.3680594 -0.46912438 -0.3491195 0.10110492 -0.042741414 0.34393904 -0.20068263 0.34879798
0.57873154 0.5263985 0.39646348 -0.0017457502 0.5172438 -0.12942688 0.43716696 0.15754479
0.27299464 0.59848255 0.07505825 -0.44748202 0.101641335 0.3536993 -0.4345862 -0.31423005
-0.10525026 0.03786029 0.31826413 -0.14998512 -0.025607692 0.42794314 0.61529106 0.44746596
00000000: ac8f 04bf 16ba f33e bee7 c3be d136 e23e
00000010: 8f84 1b3f 7974 de3e 0aed d33e 84a0 c73e
00000020: 9400 05bf 1834 883e 3c09 e2be eb90 c93b
00000030: 6e77 3c3c e5b3 0ebf ac82 913e a69d 74bd
00000040: 14f0 4d3e 5d8a 88bd ab40 c43e a380 2bbe
00000050: 403d 27bf b7b5 8fbd f26f fcbe 9430 2e3e
00000060: 4872 bcbe 1231 f0be cbbf b2be 1910 cf3d
00000070: 9f11 2fbd c718 b03e bf7f 4dbe a695 b23e
00000080: c027 143f 0dc2 063f 43fd ca3e a8d1 e4ba
00000090: 176a 043f 7b88 04be 59d4 df3e 6c53 213e
000000a0: f4c5 8b3e 2736 193f 24b8 993d 5d1c e5be
000000b0: 5529 d03d 1318 b53e 1582 debe c3e2 a0be
000000c0: 738d d7bd 6413 1b3d 84f3 a23e b395 19be
000000d0: 39c7 d1bc 5d1b db3e b783 1d3f 421a e53e

AbundanceEstNet.Encoder_1.layers.0.0.conv2d.bias f4 [8]
-0.09420806 -0.25923952 0.23366094 0.022594057 0.10338796 -0.40736637 -0.051564198 0.17068258
00000000: 28f0 c0bd 0bbb 84be d044 6f3e 2c17 b93c
00000010: 11bd d33d 5392 d0be fb34 53bd 6ac7 2e3e

AbundanceEstNet.Encoder_2.layers.0.0.conv2d.weight f4 [16, 11, 1, 1]
-0.059354037 -0.008447347 0.30833673 -0.09273251 -0.2064266 -0.25552514 -0.2069137 0.23291278
0.17053582 -0.036972485 -0.52972937 0.048641067 0.20096658 0.32570395 -0.07374345 -0.09649345
0.20852436 0.28618518 0.10026429 -0.21013941 0.049759887 -0.3848363 0.4285566 -0.18558255
-0.4080013 -0.27574065 0.18257126 0.5113548 0.011760381 0.115937084 0.4838133 0.14720747
0.40768787 0.19320947 -0.080327764 -0.17460711 -0.35448343 0.15755299 0.32043296 0.15619238
-0.0030049752 0.30516073 0.5030373 0.0042161224 0.60661244 -0.162466 -0.5437573 -0.18553546
0.22095895 0.60299134 -0.2920618 0.17822471 0.2846371 0.054415666 0.070181884 0.19520606
0.07288392 -0.27530503 -0.2831803 0.071843065 0.22400574 -0.22349943 0.21354927 0.5244335
0.3023523 0.077832595 -0.41721815 0.07762304 -0.046414614 -0.13250865 -0.3377305 -0.27543017
0.12253948 0.09497686 -0.08487029 0.0025801554 -0.3639103 0.35257834 -0.30838856 -0.07509194
-0.0898893 0.4527639 -0.032359213 0.13064995 0.37518853 0.49221075 0.3303751 0.52491635
0.34747624 0.16900754 -0.12835462 -0.3141038 0.10802222 0.20793267 -0.2817599 -0.07855977
-0.16020174 0.04499123 0.39285788 -0.2529971 -0.067877114 0.3174788 0.20179285 -0.29682478
-0.41690916 -0.08904064 -0.1741435 0.10694883 0.04778323 -0.5671256 -0.48944753 -0.26748335
0.27169314 0.33248872 -0.30303723 -0.27198076 0.09626664 -0.24567138 0.18108486 -0.08156453
-0.27272877 0.44567007 -0.024816282 -0.4151273 -0.48932847 0.25272354 0.15137896 -0.21888228
0.16579393 0.53712296 0.28209442 0.28250223 0.00021391161 -0.19005711 0.21758042 -0.097808905
0.08626149 -0.17104268 0.0019551918 -0.0109554 -0.30054474 -0.37120938 -0.03961924 -0.32279068
0.3077342 -0.14287722 -0.032419868 -0.45840755 -0.011011436 0.12016979 -0.23795652 -0.29226813
-0.50950396 -0.1463338 0.3200159 -0.34272224 -0.12596528 -0.18523543 -0.050728578 0.3335778
-0.062200945 0.15213126 0.1138011 0.3393005 0.47546738 0.50295746 -0.26729813 -0.32962152
0.101017036 0.28042048 0.39004415 -0.22358654 0.35848635 -0.04338733 0.22070554 0.20398685
00000000: 381d 73bd be66 0abc 50de 9d3e 8bea bdbd
00000010: 7f61 53be 31d4 82be 2fe1 53be b080 6e3e
00000020: f1a0 2e3e 7670 17bd 589c 07bf db3b 473d
00000030: 2fca 4d3e abc2 a63e ce06 97bd 5c9e c5bd
00000040: 6987 553e dd86 923e 5d57 cd3d c92e 57be
00000050: 06d1 4b3d 4309 c5be c56b db3e 5a09 3ebe
00000060: 8ce5 d0be e12d 8dbe f6f3 3a3e 26e8 023f
00000070: 9dae 403c 6c70 ed3d 60b6 f73e 8ebd 163e
00000080: 77bc d03e b4d8 453e e282 a4bd 35cc 32be
00000090: da7e b5be 9255 213e ca0f a43e e5f0 1f3e
000000a0: 1eef 44bb 073e 9c3e 0dc7 003f 6627 8a3b
000000b0: f44a 1b3f 7d5d 26be ae33 0bbf 02fd 3dbe
000000c0: 1043 623e a45d 1a3f 2089 95be 8a80 363e
000000d0: f4bb 913e f6e2 5e3d 85bb 8f3d 19e4 473e
000000e0: 2a44 953d c8f4 8cbe 02fd 90be 7522 933d
000000f0: c361 653e 09dd 64be a9ac 5a3e 4641 063f
00000100: eccd 9a3e b266 9f3d 9e9d d5be d4f8 9e3d
00000110: 401d 3ebd 59b0 07be 03eb acbe 2f05 8dbe
00000120: fbf5 fa3d 3a83 c23d 79d0 adbd d317 293b
00000130: 7352 babe 2685 b43e 1be5 9dbe cec9 99bd
00000140: e217 b8bd abd0 e73e 188b 04bd 1ac9 053e
00000150: b618 c03e 0c03 fc3e ed26 a93e eb60 063f
00000160: 68e8 b13e 5010 2d3e 656f 03be 37d2 a0be
00000170: c13a dd3d 4dec 543e d542 90be f2e3 a0bd
00000180: ed0b 24be b948 383d ab24 c93e d688 81be
00000190: 2803 8bbd 958c a23e c9a2 4e3e 6bf9 97be
000001a0: 1e75 d5be f05a b6bd ac52 32be fd07 db3d
000001b0: 59b8 433d 252f 11bf de98 fabe 94f3 88be
000001c0: 5d1b 8b3e f63b aa3e b227 9bbe 1041 8bbe
000001d0: 7227 c53d 4791 7bbe 4f6e 393e 4e0b a7bd
000001e0: 1ba3 8bbe de2e e43e 844b cbbc 918b d4be
000001f0: 4389 fabe fb64 813e 1603 1b3e ad22 60be
00000200: e2c5 293e e480 093f ae6e 903e 22a4 903e
00000210: 764d 6039 559e 42be 67cd 5e3e 0950 c8bd
00000220: dda9 b03d d025 2fbe ad22 003b 477e 33bc
00000230: 00e1 99be 280f bebe c947 22bd d244 a5be
00000240: 568f 9d3e 684e 12be b2ca 04bd 65b4 eabe
00000250: 4f69 34bc 941b f63d e0aa 73be 2ba4 95be
00000260: da6e 02bf 87d8 15be 20d9 a33e 4a79 afbe
00000270: 0bfd 00be 5bae 3dbe c5c8 4fbd b6ca aa3e
00000280: 6bc6 7ebd 4cc8 1b3e 8d10 e93d ccb8 ad3e
00000290: 7670 f33e d2c1 003f 4ddb 88be 27c4 a8be
000002a0: 05e2 ce3d 4693 8f3e deb3 c73e dff3 64be
000002b0: 868b b73e eab6 31bd a200 623e eee1 503e

AbundanceEstNet.Encoder_2.layers.0.0.conv2d.bias f4 [16]
0.11512989 -0.28387272 0.22866465 0.27415356 -0.26543215 0.009653694 -0.16443276 0.2711228
0.18403608 0.27723536 0.116552554 0.027179206 0.18499306 -0.06452673 -0.018405141 0.13990058
00000000: 38c9 eb3d c457 91be 1127 6a3e db5d 8c3e
00000010: b9e6 87be 872a 1e3c 1061 28be 9cd0 8a3e
00000020: f473 3c3e cbf1 8d3e 1bb3 ee3d eda6 de3c
00000030: d26e 3d3e 9726 84bd 61c6 96bc 1942 0f3e

AbundanceEstNet.Encoder_3.layers.0.0.conv2d.weight f4 [24, 19, 1, 1]
0.102703385 -0.10346055 -0.046018623 -0.18335423 -0.22437699 -0.10221138 -0.1478138 -0.1882187
0.21206854 -0.16420648 0.27593917 -0.13102874 0.017195597 0.17423244 -0.005179233 -0.05164515
-0.20746662 -0.10934274 0.19902673 -0.37707257 0.14346175 0.1487545 0.10890417 0.30339012
0.2862679 -0.12341633 0.33033752 0.19285434 -0.22642998 -0.2593554 0.54758894 -0.01181236
-0.25045037 0.26696193 0.13838853 0.11325528 0.22236432 0.3659313 0.08746037 0.07752866
-0.18881671 0.19620596 -0.19958316 -0.14119035 -0.088044554 -0.14493483 0.070919774 -0.011709609
-0.08075683 -0.29156122 0.18482117 0.17359178 -0.010248217 -0.23114614 0.025791708 -0.050195158
-0.27397183 0.13896239 -0.021528687 -0.15102556 -0.07666076 -0.029961798 -0.25775075 -0.03254071
-0.15685531 -0.12059284 0.33991665 0.22633334 -0.27950832 0.23056021 -0.09248264 -0.41672388
-0.23563935 -0.08301374 -0.2959302 -0.035869226 -0.079891816 0.06671413 0.32390308 0.01863502
0.42134532 0.12082398 -0.100808956 0.26006958 -0.05053269 -0.06928171 -0.28534847 0.2996875
0.09311848 0.043585666 0.095326684 0.13500865 0.2363639 0.41744772 0.31791347 0.3739993
0.113824874 -0.26281115 0.14010842 -0.28173608 0.030984914 0.16762972 -0.17236985 -0.04464492
0.1788365 0.23807268 -0.38783914 0.090839215 0.17302015 -0.05880833 0.057333887 -0.053915866
-0.33932114 0.048799787 -0.34393734 -0.1843854 0.18892686 0.19469164 0.322316 0.29581264
-0.23646235 0.13877541 0.19345607 -0.24311061 -0.36265993 0.4188719 -0.18417382 -0.30461535
0.37235814 0.008327986 0.06381502 0.45050615 0.1306556 -0.22042885 0.25433066 -0.040485114
0.24657764 0.33618557 0.25548404 0.02416593 -0.075921305 0.16567984 -0.27604902 -0.22057422
-0.03165047 -0.022332106 -0.01684274 0.2432347 0.19639741 0.09560524 0.20517844 -0.14433329
-0.31789756 -0.108741805 0.14182621 0.22337958 0.069268726 0.19982757 -0.15350984 0.009507042
-0.029424954 -0.155511 -0.2324816 0.17825563 -0.16853075 -0.08052895 0.19822298 -0.1630599
0.25285316 0.29603022 -0.12788735 -0.2578295 -0.053999413 0.0036487165 0.22159734 -0.04752084
0.037133124 -0.086761825 0.077633545 -0.06868953 0.10420311 0.047048774 0.19693443 0.18962139
-0.24744776 0.3102907 -0.011468964 0.33648023 0.31735277 -0.09598283 -0.21321492 -0.14283425
0.36490002 0.06484499 0.3651084 0.42980573 -0.25510126 0.24480265 -0.12407737 -0.19624652
-0.27341637 0.08799885 -0.27691734 -0.33747396 0.04239181 -0.010417332 0.106696256 0.34462038
0.14885649 -0.34324792 -0.24567321 0.35684508 -0.08976206 0.04420109 0.06710963 -0.02055414
0.31022772 0.16018423 -0.1583283 -0.13059284 0.24718997 0.10210873 -0.16344708 0.04827138
0.17959096 0.16797566 0.19419871 0.2774483 -0.060302597 -0.0741041 0.14622019 0.2153677
-0.053619772 0.0061324085 -0.30715692 0.22064985 0.30805004 0.2580981 0.09705015 0.09166543
0.10553718 -0.35798314 0.12426082 0.05663013 0.0982689 0.2607979 0.051725365 -0.24686962
0.1895832 -0.26343748 -0.28090295 -0.048583813 -0.27700815 0.39960095 -0.15336125 -0.32303125
00000000: 2756 d23d 20e3 d3bd 067e 3cbd 36c1 3bbe
00000010: 15c3 65be 3354 d1bd 805c 17be 67bc 40be
00000020: 7f28 593e be25 28be e647 8d3e 662c 06be
00000030: c8dd 8c3c fd69 323e 8eb6 a9bb dd89 53bd
00000040: 2172 54be 16ef dfbd aacd 4b3e a80f c1be
00000050: a3e7 123e 1a53 183e 2609 df3d f355 9b3e
00000060: b591 923e b3c1 fcbd 0022 a93e 9c7b 453e
00000070: 43dd 67be 3bca 84be ca2e 0c3f a188 41bc
00000080: 083b 80be 3caf 883e b9b5 0d3e 62f2 e73d
00000090: 79b3 633e 595b bb3e 6c1e b33d 59c7 9e3d
000000a0: 2b59 41be 37ea 483e 875f 4cbe 3494 10be
000000b0: b450 b4bd cc69 14be 633e 913d a9d9 3fbc
000000c0: d663 a5bd 8347 95be c341 3d3e 0bc2 313e
000000d0: 23e8 27bc 93b1 6cbe 2249 d33c 7099 4dbd
000000e0: 0946 8cbe 284c 0e3e ee5c b0bc 72a6 1abe
000000f0: 5100 9dbd 7272 f5bc e8f7 83be 6849 05bd
00000100: ae9e 20be 61f9 f6bd 8e09 ae3e edc3 673e
00000110: b71b 8fbe fa17 6c3e 8a67 bdbd d55c d5be
00000120: 714b 71be 1c03 aabd 2a84 97be 9ceb 12bd
00000130: 529e a3bd 6ba1 883d a0d6 a53e 78a8 983c
00000140: 93ba d73e 9072 f73d ed74 cebd d727 853e
00000150: 5efb 4ebd 92e3 8dbd 3219 92be a470 993e
00000160: e7b4 be3d e286 323d a33a c33d b53f 0a3e
00000170: 6109 723e b5bb d53e 8ec5 a23e d67c bf3e
00000180: 041d e93d 2f8f 86be 9578 0f3e b63f 90be
00000190: 13d4 fd3c 20a7 2b3e b981 30be 97dd 36bd
000001a0: ea20 373e 53c9 733e da92 c6be e909 ba3d
000001b0: 322c 313e 01e1 70bd f0d6 6a3d e2d6 5cbd
000001c0: 80bb adbe 49e2 473d 8e18 b0be 87cf 3cbe
000001d0: 0b76 413e 3f5d 473e 9a06 a53e c174 973e
000001e0: 3023 72be 241b 0e3e 5919 463e fdf1 78be
000001f0: 90ae b9be 6176 d63e 1098 3cbe 8bf6 9bbe
00000200: baa5 be3e 1b72 083c 73b1 823d bea8 e63e
00000210: 95ca 053e 1ab8 61be a137 823e b8d3 25bd
00000220: d97e 7c3e 8420 ac3e cece 823e a1f7 c53c
00000230: a17c 9bbd faa7 293e 4c56 8dbe 35de 61be
00000240: eca3 01bd d2f1 b6bc c9f9 89bc 8412 793e
00000250: 671c 493e aecc c33d 4c1a 523e 1bcc 13be
00000260: 78c3 a2be 06b4 debd e43a 113e 9ebd 643e
00000270: c3dc 8d3d 999f 4c3e af31 1dbe 6dc3 1b3c
00000280: 9a0c f1bc 473e 1fbe a80f 6ebe a588 363e
00000290: 5393 2cbe 5dec a4bd f7fa 4a3e 2df9 26be
000002a0: f875 813e 4691 973e e7f4 02be 3a02 84be
000002b0: 7d2e 5dbd 4e1f 6f3b 6aea 623e 36a5 42bd
000002c0: e718 183d 2fb0 b1bd 56fe 9e3d 19ad 8cbd
000002d0: 7168 d53d 37b6 403d 2ea9 493e 1c2c 423e
000002e0: f262 7dbe 6cde 9e3e 52e8 3bbc 2347 ac3e
000002f0: 107c a23e a592 c4bd 0355 5abe 2443 12be
00000300: 2dd4 ba3e 73cd 843d 7def ba3e 7f0f dc3e
00000310: a29c 82be 8cad 7a3e 471c febd d9f4 48be
00000320: 3bfd 8bbe be38 b43d 1cc8 8dbe 63c9 acbe
00000330: 09a3 2d3d 75ad 2abc 9183 da3d 1572 b03e
00000340: d66d 183e 31be afbe c291 7bbe 66b4 b63e
00000350: 2cd5 b7bd 340c 353d c670 893d 2861 a8bc
00000360: 2bd6 9e3e 5607 243e d020 22be 21ba 05be
00000370: 5e1f 7d3e 621e d13d ac5e 27be 36b8 453d
00000380: b1e6 373e d001 2c3e 07dc 463e b40d 8e3e
00000390: dbff 76bd e4c3 97bd bfba 153e 5a89 5c3e
000003a0: 68a0 5bbd 5ff2 c83b ac43 9dbe 09f2 613e
000003b0: bcb8 9d3e 6f25 843e 3bc2 c63d 16bb bb3d
000003c0: e123 d83d 9149 b7be 757c fe3d fff4 673d
000003d0: 3441 c93d 4d87 853e fadd 533d 64cb 7cbe
000003e0: 1922 423e 47e1 86be 83d2 8fbe d2ff 46bd
000003f0: 03d4 8dbe 7f98 cc3e bb0a 1dbe 5a64 a5be

AbundanceEstNet.Encoder_3.layers.0.0.conv2d.bias f4 [24]
-0.10870544 -0.09632146 0.18657403 0.1271223 -0.0892386 -0.19637565 0.14940077 -0.18123747
-0.29088494 -0.14401695 0.08730175 0.12110056 0.085790716 -0.3825731 0.054499228 -0.21844734
0.122225195 -0.043302957 -0.15195847 -0.069920674 -0.19044544 0.21737838 -0.12807097 0.14345123
00000000: f5a0 debd 3044 c5bd 430d 3f3e 592c 023e
00000010: bac2 b6bd b316 49be 84fc 183e 5196 39be
00000020: dfee 94be 2e79 13be 43cb b23d 9203 f83d
00000030: 0bb3 af3d 9fe0 c3be 953a 5f3d a9b0 5fbe
00000040: 3451 fa3d 715e 31bd 009b 1bbe 9232 8fbd
00000050: 2104 43be 7098 5e3e 0925 03be e1e4 123e

AbundanceEstNet.Encoder_4.layers.0.0.conv2d.weight f4 [16, 27, 1, 1]
-0.19232722 0.12867932 -0.29273984 -0.071347505 0.086674586 -0.040669493 0.150074 0.37785694
0.065704904 0.24433847 -0.09854682 -0.10746657 -0.035750568 0.17624742 0.17300233 0.010158519
-0.20021148 -0.10361904 0.01950793 0.04022725 0.17903642 -0.11622958 -0.17800646 -0.067283906
0.18278691 0.16939043 0.025724893 0.19475979 0.009843801 0.12554246 0.09767462 0.18828712
0.095719405 -0.14730765 0.114605635 -0.12456719 -0.09512814 -0.11986741 -0.091096945 -0.18457091
0.17295296 -0.043460615 0.13398011 0.17574951 0.10309904 0.17532404 -0.010591749 -0.16893008
0.09690085 -0.16627957 0.03789383 -0.08444452 0.12487156 0.12511958 -0.0064124963 -0.066807196
0.1432877 -0.05911595 -0.15302227 -0.12274331 -0.18452494 0.14469025 0.14006893 -0.047214504
0.08509871 0.10232841 -0.085008964 0.036267772 -0.038301818 -0.08946854 -0.11924718 -0.09691414
-0.012601234 -0.026904704 -0.14416204 -0.17332774 -0.02433099 0.07645714 0.054128155 -0.13961348
0.09540488 -0.048368484 0.011406592 0.06137557 0.11072112 0.03869802 -0.10927274 -0.2635929
0.04638748 0.2199918 -0.11117823 0.05357247 -0.1738234 -0.23933227 0.25259635 -0.2166302
0.15667006 0.007708969 0.069193445 -0.082761824 0.11036841 0.20958203 0.029306363 0.25031906
0.14944665 0.07319679 0.10504793 0.13117774 0.13164024 0.11914262 -0.18897109 0.039143723
0.030741954 0.042384133 0.061825138 0.17127909 -0.12447705 -0.09354508 0.031934086 0.17711768
-0.12244699 -0.0044024745 0.018324729 -0.17755172 -0.20752856 -0.21457186 -0.12062611 -0.20258288
0.01982555 0.086204745 -0.134679 -0.13166824 -0.048759647 0.0920056 0.16395614 -0.08814947
-0.08949072 0.063002445 -0.17981164 0.11409483 -0.074305125 0.08664201 0.14890182 0.042927187
-0.18751857 -0.05643013 0.16418974 -0.17755006 0.16062978 -0.14637354 -0.041829187 0.13446943
-0.18166403 -0.17758204 -0.038707722 -0.1426336 -0.015648352 0.12565278 0.097545944 -0.17516299
-0.05045397 -0.1458704 -0.06550218 0.08134295 0.00806715 0.23539662 0.009309341 -0.0782307
0.00551529 -0.10447624 -0.15789959 -0.15078877 0.11448206 -0.15651622 0.088164605 -0.06614079
0.1119236 -0.06090414 0.06889796 -0.1509691 -0.07930309 -0.017645363 0.012296402 -0.029920435
0.021322755 0.009166475 0.07904452 -0.23925526 -0.18753684 0.10801198 -0.06394196 -0.08116823
0.043523032 0.121816926 -0.12706734 0.049344484 0.09920154 -0.08860913 -0.022516996 -0.14260706
-0.11901457 -0.16597742 0.20657216 0.1287204 0.07981198 0.14262693 0.12567139 0.09583042
0.25234747 0.10896999 -0.16759646 0.24815212 0.03821689 -0.09825422 0.020149851 -0.13445598
-0.01598543 0.023423625 -0.11701192 -0.062797286 -0.009364701 0.2604431 -0.12399605 0.07172156
0.087403335 -0.063060425 0.005389108 -0.21951161 -0.005147569 0.275621 0.115527205 0.025219379
-0.11294193 0.052456766 0.18100895 0.13071312 -0.10703427 0.15548111 -0.10395273 0.056971744
0.20202582 -0.08564139 -0.04165797 0.09249353 -0.008528927 0.040509287 0.10720598 -0.06603705
0.04053992 -0.12914276 0.029452192 -0.15956782 0.24191415 -0.051172663 0.0050650095 0.013234873
00000000: 6df1 44be 83c4 033e ffe1 95be a41e 92bd
00000010: 7282 b13d 0e95 26bd 00ad 193e 7776 c13e
00000020: 4b90 863d dd33 7a3e ead2 c9bd 6f17 dcbd
00000030: 306f 12bd 347a 343e 8627 313e eb6f 263c
00000040: 3d04 4dbe 3836 d4bd 18cf 9f3c 54c5 243d
00000050: 5355 373e c609 eebd 5347 36be 25cc 89bd
00000060: 7e2c 3b3e af74 2d3e 03bd d23c 1c6f 473e
00000070: e547 213c 348e 003e a209 c83d 57ce 403e
00000080: 8908 c43d d1d7 16be 5cb6 ea3d 151d ffbd
00000090: 8bd2 c2bd 0b7d f5bd 0991 babd 2800 3dbe
000000a0: 951a 313e c203 32bd 1532 093e aef7 333e
000000b0: 9725 d33d 2588 333e 0489 2dbc 02fc 2cbe
000000c0: f473 c63d 3145 2abe 9036 1b3d 40f1 acbd
000000d0: a9bc ff3d 591f 003e eb1f d2bb 36d2 88bd
000000e0: 03ba 123e 9123 72bd dfb1 1cbe d860 fbbd
000000f0: 1bf4 3cbe ae29 143e 3b6e 0f3e ff63 41bd
00000100: 3c48 ae3d 8f91 d13d 2e19 aebd 848d 143d
00000110: 5ee2 1cbd 483b b7bd de37 f4bd ec7a c6bd
00000120: 6875 4ebc 4167 dcbc 379f 13be d47c 31be
00000130: c951 c7bc 9095 9c3d 7cb5 5d3d d6f6 0ebe
00000140: a263 c33d 081e 46bd b7e2 3a3c f364 7b3d
00000150: c1c1 e23d d181 1e3d 63ca dfbd a6f5 86be
00000160: cc00 3e3d 8845 613e 69b1 e3bd ce6e 5b3d
00000170: c3fe 31be 8513 75be 4f54 813e 4fd4 5dbe
00000180: 1e6e 203e 859b fc3b 4bb5 8d3d 087f a9bd
00000190: d508 e23d ac9c 563e e613 f03c d229 803e
000001a0: 8b08 193e 33e8 953d 5e23 d73d 7553 063e
000001b0: b3cc 063e 0c01 f43d a381 41be 2b55 203d
000001c0: 8dd6 fb3c fc9a 2d3d 5b3c 7d3d c963 2f3e
000001d0: d3ed febd 9094 bfbd 51cd 023d 565e 353e
000001e0: 7dc5 fabd a242 90bb be1d 963c 1ed0 35be
000001f0: 5e82 54be bab8 5bbe d20a f7bd e371 4fbe
00000200: 3169 a23c 1d8c b03d 4be9 09be 0ad4 06be
00000210: 32b8 47bd 6f6d bc3d 1ee4 273e b687 b4bd
00000220: e946 b7bd 6d07 813d 8b20 38be 8daa e93d
00000230: 492d 98bd 5e71 b13d b879 183e 6bd4 2f3d
00000240: de04 40be 4823 67bd 5b21 283e afcf 35be
00000250: 227c 243e f2e2 15be 1555 2bbd 5bb2 093e
00000260: 2306 3abe 11d8 35be fd8b 1ebd 8b0e 12be
00000270: f930 80bc 1fab 003e 2bc6 c73d ed5d 33be
00000280: d2a8 4ebd 0d5f 15be 0226 86bd 2297 a63d
00000290: 142c 043c d00b 713e 3586 183c 6b37 a0bd
000002a0: 9bb9 b43b a4f7 d5bd 6eb0 21be 5f68 1abe
000002b0: 9275 ea3d ca45 20be a58f b43d d374 87bd
000002c0: 3338 e53d 9f76 79bd 601a 8d3d a597 1abe
000002d0: a969 a2bd 028d 90bc d976 493c b31b f5bc
000002e0: 0fad ae3c fc2e 163c 18e2 a13d 55ff 74be
000002f0: a809 40be 6335 dd3d 01f4 82bd 873b a6bd
00000300: 3545 323d 277b f93d f11d 02be 711d 4a3d
00000310: 2d2a cb3d b478 b5bd 9075 b8bc 9607 12be
00000320: e9bd f3bd fcf5 29be a787 533e 48cf 033e
00000330: 7774 a33d cb0c 123e 00b0 003e bd42 c43d
00000340: b033 813e a82b df3d 689e 2bbe 971b 7e3e
00000350: 5089 1c3d 8239 c9bd 4d11 a53c d4ae 09be
00000360: e0f3 82bc e7e2 bf3c f2a3 efbd dd9b 80bd
00000370: 676e 19bc cc58 853e a4f1 fdbd c1e2 923d
00000380: 8500 b33d d325 81bd 1d97 b03b a7c7 60be
00000390: f0ac a8bb 321e 8d3e 8799 ec3d df98 ce3c
000003a0: 194e e7bd e8dc 563d 695a 393e a9d9 053e
000003b0: c934 dbbd 7136 1f3e 2be5 d4bd 345b 693d
000003c0: dbdf 4e3e c164 afbd 8ca1 2abd 3f6d bd3d
000003d0: eabc 0bbc 11ed 253d cf8e db3d 6f3e 87bd
000003e0: 300d 263d 003e 04be b945 f13c bf65 23be
000003f0: 58b8 773e 6d9a 51bd 61f8 a53b 15d7 583c

AbundanceEstNet.Encoder_4.layers.0.0.conv2d.bias f4 [16]
-0.18225335 0.022149025 -0.13004123 0.0877003 0.025481667 -0.1615363 -0.15715352 0.08802856
0.04509419 -0.13349843 0.08419198 0.031922974 -0.08970303 0.05719053 -0.11075049 -0.1014685
00000000: 9fa0 3abe df71 b53c 8729 05be 379c b33d
00000010: eebe d03c c669 25be daec 20be 5148 b43d
00000020: afb4 383d d0b3 08be d86c ac3d aac1 023d
00000030: 39b6 b7bd 9e40 6a3d 27d1 e2bd b8ce cfbd

SpectralMeanEstNet.SpectralGenMean.layers.0.0.weight f4 [18, 16]
0.06786756 0.17092778 -0.22961654 0.16411448 0.19809899 0.18606132 -0.10130667 -0.032573294
0.15950958 -0.23525316 -0.1869289 -0.17297052 -0.11615639 -0.049965527 -0.3995642 -0.20792444
0.014584534 0.27836075 -0.0077135963 -0.30193907 0.08176297 0.1824172 -0.35978857 0.08035012
0.019600509 0.08267914 0.101498686 -0.09569363 0.03311734 -0.11343689 0.17669685 0.008017835
0.026515985 -0.26656634 -0.27191868 0.03901499 0.19409053 0.096245535 -0.1286618 0.090824686
-0.2876009 -0.27589506 -0.22600126 0.24411398 -0.08765077 0.0034030897 -0.017663624 -0.19243829
0.043366056 -0.2534545 -0.1964857 0.29090375 -0.21270001 -0.123607345 0.07439899 -0.23232353
0.123862304 0.0036178806 0.27281576 0.2842053 0.16949253 -0.14621414 -0.23154931 0.11605868
0.29578182 -0.050094027 -0.13601665 0.14763218 -0.2728915 -0.33533493 -0.09355323 -0.045967564
-0.4254425 0.15014908 0.22828797 -0.05881731 0.06627064 0.25105998 -0.16908874 0.10362968
-0.29190272 -0.09617364 0.14445567 -0.042006478 0.31474033 0.09828602 -0.31069997 -0.059562936
-0.19309023 -0.32091382 0.22801901 0.03622242 -0.272124 0.11674346 -0.16862877 0.24406515
-0.06475685 0.32281426 0.05468629 -0.2773344 -0.19453047 0.00069976115 0.32974178 0.16102105
-0.010257601 0.19915326 0.13499157 0.25379604 -0.20800209 -0.062042266 -0.32938564 -0.11665028
-0.2177042 -0.34720102 0.13468191 -0.07727775 0.28196168 -0.3535718 0.009631743 0.25098217
0.059105493 0.24651378 0.32937667 -0.38115355 0.038747117 -0.2721769 0.1404542 -0.11071156
0.045321185 0.07610893 0.09598491 0.206031 -0.063433304 -0.35473794 0.13973236 -0.27598333
0.10350605 -0.19229954 0.10599201 -0.29130283 -0.069259755 -0.19484262 -0.05507239 -0.11909272
0.33660513 0.09986457 0.12320278 0.2860988 -0.25521237 0.10007933 -0.25611717 0.28599864
0.1243014 0.102039576 0.14681298 -0.07795114 -0.07673361 0.049912952 0.094093844 0.17258415
-0.26847246 -0.0051001585 -0.0502261 -0.12621987 -0.21313392 -0.32180497 -0.11654889 -0.29942787
0.15018728 -0.02994219 -0.15925545 0.057655208 0.23508048 0.11866927 -0.058865014 0.2604632
0.33171317 -0.1107262 0.3011243 -0.2574374 0.022847794 0.13121435 0.2564934 0.18949863
-0.00020702026 -0.19958597 -0.2431236 0.00085802353 0.33665 0.07993973 0.10051189 0.23435748
0.14505991 -0.018392218 -0.094185725 0.22627497 -0.041368596 0.33885333 0.20463149 -0.21424897
0.4045704 -0.07471565 -0.18952547 0.34605706 -0.2247678 -0.0017575016 0.15003367 0.29188144
-0.20892653 -0.13060999 -0.1354578 -0.21236828 0.05648373 0.09947453 0.035593096 0.17393792
-0.18384688 0.035611033 0.16401008 -0.2285224 -0.14018656 -0.083638586 0.13331957 -0.1439034
-0.20011948 -0.02116669 -0.20545779 -0.14043239 -0.24226776 0.22364481 0.2634746 -0.30110347
-0.28838173 0.053691134 -0.26315033 -0.2385514 -0.16347405 -0.077969395 0.2539026 0.20516923
-0.22014913 -0.2796767 -0.19676656 0.2518049 -0.11400268 0.25109985 -0.04342559 0.14591038
0.13694145 0.22453775 0.14670382 0.30409697 0.096081175 -0.11186384 1.7220953e-05 0.24238792
00000000: 26fe 8a3d b107 2f3e 9920 6bbe a00d 283e
00000010: 76da 4a3e dc86 3e3e df79 cfbd 936b 05bd
00000020: 7b56 233e 34e6 70be 4a6a 3fbe 2f1f 31be
00000030: 67e3 edbd a7a8 4cbd ae93 ccbe 25ea 54be
00000040: f8f3 6e3c 4d85 8e3e 56c2 fcbb c297 9abe
00000050: 5873 a73d 93cb 3a3e 3536 b8be 9b8e a43d
00000060: 3f91 a03c ae53 a93d 8bde cf3d 06fb c3bd
00000070: 0ca6 073d 9a51 e8bd 05f0 343e 3d5d 033c
00000080: 0d38 d93c 627b 88be ed38 8bbe 2fce 1f3d
00000090: abbf 463e 611c c53d ebbf 03be 4b02 ba3d
000000a0: 6d40 93be 1e42 8dbe e06c 67be 04f9 793e
000000b0: 3f82 b3bd 5f06 5f3b 4eb3 90bc 8b0e 45be
000000c0: 9ba0 313d cac4 81be 8c33 49be 56f1 943e
000000d0: 08ce 59be d925 fdbd 7f5e 983d 38e6 6dbe
000000e0: 85ab fd3d f719 6d3b 82ae 8b3e 5b83 913e
000000f0: 738f 2d3e 29b9 15be 431b 6dbe 2cb0 ed3d
00000100: b770 973e 652f 4dbd f347 0bbe e42c 173e
00000110: 6fb8 8bbe 05b1 abbe d698 bfbd 7c48 3cbd
00000120: 99d3 d9be aec0 193e 52c4 693e 6bea 70bd
00000130: e7b8 873d ef8a 803e 9925 2dbe cc3b d43d
00000140: 4674 95be aff6 c4bd 30ec 133e fc0e 2cbd
00000150: a525 a13e 2e4a c93d 1114 9fbe 44f8 73bd
00000160: 72b9 45be d14e a4be d17d 693e f65d 143d
00000170: d653 8bbe 3217 ef3d 05ad 2cbe 37ec 793e
00000180: 3d9f 84bd e947 a53e bbfe 5f3d c6fe 8dbe
00000190: ff32 47be 2d70 373a ead3 a83e b4e2 243e
000001a0: 7f0f 28bc d5ee 4b3e 3b3b 0a3e 8ef1 813e
000001b0: 80fe 54be 0820 7ebd 3ca5 a8be 58e6 eebd
000001c0: daed 5ebe 55c4 b1be 0eea 093e cc43 9ebd
000001d0: 485d 903e 5d07 b5be 75ce 1d3c bc80 803e
000001e0: 9a18 723d 1c6e 7c3e 0fa4 a83e 8f26 c3be
000001f0: 4cb5 1e3d c55a 8bbe 3ad3 0f3e bebc e2bd
00000200: b5a2 393d 00df 9b3d bd93 c43d caf9 523e
00000210: 52e9 81bd 36a0 b5be 0016 0f3e b04d 8dbe
00000220: fbfa d33d 2cea 44be 5712 d93d a525 95be
00000230: 0fd8 8dbd d384 47be 9693 61bd e2e6 f3bd
00000240: 8257 ac3e cc85 cc3d bd51 fc3d 8b7b 923e
00000250: 32ab 82be 64f6 cc3d ca21 83be 6a6e 923e
00000260: bb91 fe3d 20fa d03d 2456 163e d9a4 9fbd
00000270: 8326 9dbd 8671 4c3d 46b4 c03d e6b9 303e
00000280: 3975 89be 3b1f a7bb e2b9 4dbd c83f 01be
00000290: c73f 5abe 9fc3 a4be 2fb1 eebd 9c4e 99be
000002a0: b2ca 193e 5349 f5bc dc13 23be de27 6c3d
000002b0: f0b8 703e e008 f33d 711c 71bd 6f5b 853e
000002c0: 4fd6 a93e 6bc4 e2bd f72c 9a3e d6ce 83be
000002d0: 4c2b bb3c 0e5d 063e 1a53 833e ee0b 423e
000002e0: 9413 59b9 4460 4cbe 65f5 78be fcec 603a
000002f0: 645d ac3e 71b7 a33d 2ed9 cd3d 68fb 6f3e
00000300: 968a 143e 47ab 96bc 72e4 c0bd a0b4 673e
00000310: 1e72 29bd 2f7e ad3e eb8a 513e 1564 5bbe
00000320: da23 cf3e 8504 99bd f712 42be 642e b13e
00000330: 8829 66be f85b e6ba 6da2 193e 7c71 953e
00000340: d6f0 55be a0be 05be 73b5 0abe 1277 59be
00000350: 7c5b 673d 4db9 cb3d 11ca 113d c81c 323e
00000360: 5b42 3cbe e0dc 113d 42f2 273e c701 6abe
00000370: 118d 0fbe b54a abbd ed84 083e 6a5b 13be
00000380: 1fec 4cbe c465 adbc 8763 52be 82cd 0fbe
00000390: 0a15 78be 2503 653e 25e6 863e 3c2a 9abe
000003a0: c5a6 93be 3ceb 5b3d a4bb 86be d146 74be
000003b0: be65 27be 6bae 9fbd 86ff 813e e217 523e
000003c0: c66e 61be c931 8fbe 2c7d 49be 92ec 803e
000003d0: 3d7a e9bd 2990 803e 08df 31bd 8869 153e
000003e0: 613a 0c3e 39ed 653e 8739 163e 99b2 9b3e
000003f0: 35c6 c43d de18 e5bd b775 9037 8a34 783e

SpectralMeanEstNet.SpectralGenMean.layers.0.0.bias f4 [18]
-0.014860376 -0.026826877 -0.011278838 -0.016409779 0.1870205 -0.15045133 -0.035838928 -0.056862693
-0.0487015 -0.034353495 -0.057250712 -0.027564876 -0.20534942 0.117454246 -0.023902277 -0.038400736
-0.023965543 -0.015192871
00000000: ef78 73bc 0ac4 dbbc e0ca 38bc cd6d 86bc
00000010: 4d82 3f3e ea0f 1abe d7cb 12bd dbe8 68bd
00000020: 397b 47bd 40b6 0cbd b97f 6abd bccf e1bc
00000030: 1e47 52be da8b f03d b5ce c3bc 174a 1dbd
00000040: 6353 c4bc 85eb 78bc

SpectralMeanEstNet.SpectralGenMean.layers.1.0.weight f4 [22, 18]
-0.17480044 -0.016624652 -0.33963704 -0.20388663 -0.15420644 -0.093415044 -0.29981974 -0.1519228
-0.17894804 -0.24420828 0.07839094 -0.1728197 0.09250283 0.20148717 -0.1607704 -0.110685356
0.10516214 -0.070169844 0.3346877 0.17310333 0.2642094 -0.13042723 0.0049130344 0.271452
0.10498399 -0.22884057 0.15896942 0.15392865 0.0354992 0.24129039 0.17491914 -0.1440503
0.0364896 -0.0844156 0.2525497 -0.011956818 0.02508691 0.13016416 0.3000188 0.24728563
-0.2370815 -0.13315356 0.33530822 -0.08545194 -0.02601549 0.020094618 0.34042478 0.10508049
0.24147902 -0.316228 0.23024611 0.2622509 0.2929784 0.1918706 -0.0026080867 -0.16651721
0.14777513 0.23933177 -0.014111241 0.14455165 0.07795211 -0.034058943 0.14592099 0.26183775
0.1525084 0.08412125 0.10444569 0.010394524 -0.05828583 0.05497102 0.14668141 -0.08772881
-0.0918021 -0.31532007 -0.27191776 -0.084590495 -0.05603597 0.021670673 -0.18690762 -0.13700402
-0.12027237 -0.110990606 -0.24586536 -0.032374803 0.045400415 -0.048173934 -0.11476328 0.03830581
0.020702774 -0.116906054 -0.07515087 -0.025688833 0.1165801 -0.17912526 -0.18595277 0.036498815
0.035746552 0.058809634 0.19181423 0.24001648 0.34689772 -0.03210534 -0.176876 0.16435622
0.28235614 0.31984615 0.18224631 0.27014828 0.0066763274 -0.11084291 -0.24945885 -0.266058
-0.11742205 -0.085957386 0.024989499 0.04735219 -0.14248048 -0.06675544 0.06560055 0.044903316
-0.03583907 0.015100286 -0.025915533 -0.0011976503 -0.1882862 0.073200405 0.104494244 -0.058895156
0.015544431 -0.030850403 -0.16439703 -0.06555692 -0.23729171 0.17269312 0.011438081 0.10450895
-0.14977728 0.014062328 -0.17531566 0.08631559 -0.13904716 -0.17479482 0.21069576 -0.14211854
0.3405152 0.22646703 0.2923138 0.29670224 -0.018681439 0.028649393 0.19180232 0.26368216
-0.066434264 -0.046534114 0.15484813 0.20460017 -0.26993278 0.31910142 0.27176824 0.32035762
0.012344361 -0.05575549 0.18337418 0.2958153 0.36371237 -0.048441857 0.30117765 -0.01855036
-0.046891253 0.22543953 0.26755568 0.18579921 -0.0523764 0.39323148 -0.122172266 0.06817589
0.01730099 -0.12075417 0.06755803 0.20485862 0.15910439 0.046645332 0.31742033 0.07062823
-0.10915211 0.008566726 0.082121864 0.23841375 0.33754584 0.16931431 0.34696737 0.33778074
0.11328199 0.15151443 0.159402 0.14143357 0.35293946 0.057401843 -0.31572193 -0.2928117
0.013251113 -0.2674664 -0.010522065 -0.06860461 -0.32413763 -0.13809602 -0.061653987 -0.09607653
-0.014456715 -0.19194032 -0.11515731 -0.025188368 -0.24529347 -0.12421409 -0.13027145 -0.041874215
-0.13221955 0.042533632 -0.038999666 -0.098597474 -0.11093405 0.08985634 -0.050654568 -0.24693705
-0.22433975 -0.04987899 -0.059522834 -0.19809316 -0.20289616 0.091198 0.025342928 -0.15916042
-0.21809371 0.10505882 -0.102227226 0.28839484 -0.034332402 0.18477392 0.10904497 0.12318731
0.25249335 -0.010084063 -0.13502559 0.091497965 0.13741803 0.035200935 0.09135896 0.27200103
-0.029374192 0.16742112 0.18657984 0.23506075 -0.035148136 -0.27097476 -0.10626479 -0.022064438
00000000: e3fe 32be 6c30 88bc e8e4 adbe a8c7 50be
00000010: 4be8 1dbe 6350 bfbd f981 99be a791 1bbe
00000020: 283e 37be bc11 7abe 6e8b a03d a6f7 30be
00000030: 2072 bd3d a752 4e3e ffa0 24be 01af e2bd
00000040: 405f d73d 35b5 8fbd 305c ab3e 0042 313e
00000050: 7446 873e b78e 05be 85fd a03b c2fb 8a3e
00000060: d901 d73d 2f55 6abe e1c8 223e 799f 1d3e
00000070: 9c67 113d d414 773e 011e 333e ec81 13be
00000080: 1e76 153d 16e2 acbd 324e 813e 88e6 43bc
00000090: 1083 cd3c c149 053e 109c 993e 7238 7d3e
000000a0: 7ec5 72be 6859 08be 85ad ab3e 6d01 afbd
000000b0: 701e d5bc 789d a43c 284c ae3e 7134 d73d
000000c0: 4746 773e a3e8 a1be a3c5 6b3e c045 863e
000000d0: 4401 963e ba79 443e 6fec 2abb 7d83 2abe
000000e0: 5d52 173e 6313 753e d632 67bc 5905 143e
000000f0: 5ba5 9f3d 6481 0bbd 506c 153e 990f 863e
00000100: 292b 1c3e c347 ac3d 9fe7 d53d cb4d 2a3c
00000110: 1fbd 6ebd 4b29 613d a733 163e 2aab b3bd
00000120: bd02 bcbd a271 a1be ce38 8bbe c83d adbd
00000130: f985 65bd b286 b13c b664 3fbe c84a 0cbe
00000140: 5c51 f6bd 0b4f e3bd 21c4 7bbe 719b 04bd
00000150: c9f5 393d 0852 45bd 0309 ebbd 8ee6 1c3d
00000160: dd98 a93c 716c efbd b3e8 99bd 6371 d2bc
00000170: 8cc1 ee3d 9d6c 37be 676a 3ebe c87f 153d
00000180: fa6a 123d 5fe2 703d f36a 443e e1c6 753e
00000190: 949c b13e e480 03bd fb1e 35be ff4c 283e
000001a0: fc90 903e e0c2 a33e c79e 3a3e e050 8a3e
000001b0: 18c5 da3b 9c01 e3bd 2472 7fbe c138 88be
000001c0: f97a f0bd 6d0a b0bd c7b6 cc3c 5ff4 413d
000001d0: 67e6 11be 13b7 88bd 9559 863d 8aec 373d
000001e0: fdcb 12bd 3167 773c d04c d4bc 7afa 9cba
000001f0: 19ce 40be 18ea 953d 1401 d63d 0c3c 71bd
00000200: 12ae 7e3c fcb9 fcbc b257 28be b542 86bd
00000210: 99fc 72be 77d6 303e ca66 3b3c ca08 d63d
00000220: 375f 19be ae65 663c f385 33be 3ac6 b03d
00000230: 6162 0ebe 6afd 32be a1c0 573e 8687 11be
00000240: 0258 ae3e f9e6 673e 28aa 953e 5be9 973e
00000250: d109 99bc 22b2 ea3c d467 443e 5901 873e
00000260: b00e 88bd 8e9a 3ebd 8290 1e3e b582 513e
00000270: a134 8abe 4361 a33e 3525 8b3e ea05 a43e
00000280: 0140 4a3c de5f 64bd 71c6 3b3e 1a75 973e
00000290: 8238 ba3e f86a 46bd f533 9a3e edf6 97bc
000002a0: 0b11 40bd 9fd9 663e 0ffd 883e 2642 3e3e
000002b0: a388 56bd a355 c93e 7435 fabd cd9f 8b3d
000002c0: ceba 8d3c f64d f7bd dd5b 8a3d 75c6 513e
000002d0: 43ec 223e 2d0f 3f3d eb84 a23e 89a5 903d
000002e0: 248b dfbd 745b 0c3c 822f a83d bc22 743e
000002f0: cfd2 ac3e bb60 2d3e b5a5 b13e 99f1 ac3e
00000300: 6300 e83d 9926 1b3e 473a 233e f6d3 103e
00000310: 7bb4 b43e 321e 6b3d 4ea6 a1be 6aeb 95be
00000320: 321b 593c 5bf1 88be bd64 2cbc 9380 8cbd
00000330: 5ef5 a5be 0b69 0dbe e488 7cbd c6c3 c4bd
00000340: dcdb 6cbc 018c 44be 99d7 ebbd d657 cebc
00000350: 362e 7bbe f563 febd e165 05be 4c84 2bbd
00000360: 9064 07be bf37 2e3d 1dbe 1fbd 79ed c9bd
00000370: 6431 e3bd 9a06 b83d 2a7b 4fbd 11dd 7cbe
00000380: 52b9 65be e94d 4cbd 37ce 73bd efd8 4abe
00000390: 03c4 4fbe 04c6 ba3d f99b cf3c f3fa 22be
000003a0: f553 5fbe 1429 d73d 825c d1bd 7da8 933e
000003b0: 22a0 0cbd 6035 3d3e f852 df3d a149 fc3d
000003c0: cf46 813e a037 25bc 2644 0abe 4963 bb3d
000003d0: 50b7 0c3e db2e 103d 681a bb3d b843 8b3e
000003e0: 25a2 f0bc 7170 2b3e c90e 3f3e c4b3 703e
000003f0: 7ef7 0fbd 34bd 8abe 5ba1 d9bd 7bc0 b4bc

SpectralMeanEstNet.SpectralGenMean.layers.1.0.bias f4 [22]
0.16774666 0.01687285 0.051834002 0.15699835 0.10072587 0.0051098396 -0.042204354 -0.007233836
-0.06316682 -0.10432982 0.20597763 -0.0646343 0.115308076 -0.008100629 0.15418917 -0.048398376
-0.09463081 0.07879331 -0.07836759 0.11830316 -0.06219746 0.16114472
00000000: c8c5 2b3e ee38 8a3c e44f 543d 2dc4 203e
00000010: 5d49 ce3d 7170 a73b 79de 2cbd d109 edbb
00000020: 9b5d 81bd dfaa d5bd cdeb 523e fd5e 84bd
00000030: a426 ec3d 80b8 04bc c4e3 1d3e 603d 46bd
00000040: cccd c1bd 635e a13d 307f a0bd ed48 f23d
00000050: c4c2 7ebd 1f03 253e

SpectralMeanEstNet.SpectralGenMean.layers.2.0.weight f4 [26, 22]
-0.01134107 0.123528615 0.23587336 0.20487076 -0.1255742 0.20299289 0.15704107 -0.091730565
0.08379478 0.11958248 0.11356854 -0.23931898 -0.20779116 0.23862883 0.045073263 0.12221668
-0.011215738 0.23803106 0.17060101 -0.10960307 -0.0029485782 -0.15869449 -0.06641002 -0.066251226
-0.26805967 0.20129773 -0.04976182 -0.19169465 -0.11993916 0.0150945075 -0.20314024 -0.071477346
-0.015190252 -0.07683634 0.09469864 0.030797807 0.034053005 -0.38388243 0.11758036 -0.24564652
-0.22800578 0.21751583 -0.1726742 0.08466522 0.14679746 -0.004076149 -0.15147428 -0.053671982
0.07311112 -0.23680025 -0.0014177742 -0.15529568 -0.22448018 -0.36817062 -0.20629965 0.10588209
0.068436384 -0.28563502 0.18063505 -0.11378525 0.19528206 -0.1208777 -0.20708546 -0.037563313
0.010780603 -0.055942725 -0.01718488 0.05983767 0.29068986 0.11638415 0.13935895 0.1065059
-0.19318908 0.16539337 0.11137843 0.34776106 0.2263367 -0.039278455 0.043081712 0.0063662436
0.1667523 0.0271803 0.09111888 -0.03903431 0.3727293 -0.16321598 -0.13568047 0.063911624
-0.10120541 0.27196026 0.008697463 -0.12540738 -0.067012504 -0.039525244 0.16576825 0.08603727
0.11570739 0.33207107 0.22039686 -0.17560957 0.04312783 0.021622786 -0.19819929 0.030862661
0.029039087 0.19342634 0.010264064 -0.34445992 0.12987183 -0.15319875 0.13598165 -0.22470699
-0.06527898 -0.03290667 0.12871724 -0.20416062 -0.017074922 -0.10275099 -0.0010474281 -0.1630345
-0.26108265 0.26668078 0.13033408 -0.31261158 -0.021781402 -0.46305412 0.0787506 -0.042103782
-0.0028753844 0.034080014 0.16776763 -0.12267345 -0.13620727 -0.0073365704 0.1694058 0.19466151
-0.11524919 0.13250495 -0.07326789 -0.14393362 0.16452715 -0.031759493 0.1918862 -0.15323268
0.16832823 0.1451271 -0.17982343 0.3893404 -0.108625464 -0.0717474 0.4288185 -0.09565433
0.009058298 -0.15815894 -0.041084085 0.33257076 0.00537304 -0.063565865 0.25845417 0.04092972
-0.091641076 0.14837605 0.17588164 -0.0016678851 0.08004266 -0.02624955 -0.016623713 0.291184
0.30916217 0.29989877 -0.15009773 0.030607628 0.053643502 -0.18866856 -0.09428639 0.23272258
0.12399465 -0.17278926 -0.37284648 0.098600164 -0.025201077 -0.07313697 -0.1121745 -0.044219285
-0.12854673 -0.28273726 -0.13392432 0.159369 0.07166115 -0.0045323325 -0.14347817 -0.05788608
-0.23575224 -0.22339153 -0.21858624 -0.082744375 0.19253972 -0.040830787 -0.095291264 0.22488809
0.1317441 0.15443087 0.10562564 0.08850964 -0.208246 0.085446104 0.10919943 0.2148429
0.17875768 -0.16636081 -0.09661165 -0.032027792 0.0339219 0.18253812 -0.08904659 0.032969356
0.19451909 -0.11262825 0.1887157 0.11707069 0.26243636 -0.32434455 -0.35839716 0.1618594
0.22055148 0.03659372 -0.15132752 -0.16194512 -0.0038196638 -0.33432958 -0.19545078 0.13450432
0.23196827 -0.23998822 -0.03920735 -0.36178833 -0.13389061 -0.06691093 -0.22013925 0.23109579
-0.11784718 -0.049071617 -0.19859312 -0.23861702 0.0026241133 -0.035988465 -0.19021575 -0.07905412
0.0787117 0.0781092 0.029998105 -0.3249647 0.028315723 -0.16152596 0.15408252 0.055539574
00000000: e5cf 39bc 92fc fc3d c988 713e a4c9 513e
00000010: 8696 00be 5edd 4f3e 60cf 203e 3cdd bbbd
00000020: 999c ab3d a9e7 f43d 9f96 e83d 0910 75be
00000030: 35c7 54be 1e5b 743e be9e 383d bd4c fa3d
00000040: 37c2 37bc 6abe 733e 08b2 2e3e 9377 e0bd
00000050: ef3c 41bb cf80 22be fa01 88bd b9ae 87bd
00000060: 1e3f 89be fe20 4e3e 0dd3 4bbd 9a4b 44be
00000070: aaa2 f5bd f44e 773c ff03 50be b762 92bd
00000080: 89e0 78bc 5f5c 9dbd 5cf1 c13d af4b fc3c
00000090: 2a7b 0b3d 3d8c c4be f9cd f03d c38a 7bbe
000000a0: 597a 69be 78bc 5e3e 81d1 30be f564 ad3d
000000b0: 1352 163e 3791 85bb 131c 1bbe 27d7 5bbd
000000c0: 48bb 953d c47b 72be 9cd4 b9ba d505 1fbe
000000d0: 22de 65be dc80 bcbe 3740 53be b6d8 d83d
000000e0: 6028 8c3d c13e 92be 65f8 383e 3e08 e9bd
000000f0: 05f8 473e ba8e f7bd 360e 54be fddb 19bd
00000100: 20a1 303c 3324 65bd 4ec7 8cbc 5818 753d
00000110: 4dd5 943e d05a ee3d 1db4 0e3e c41f da3d
00000120: 5cd3 45be e15c 293e 601a e43d bd0d b23e
00000130: cfc4 673e 72e2 20bd 7376 303d ec9b d03b
00000140: 1dc1 2a3e 38a9 de3c 899c ba3d 71e2 1fbd
00000150: 60d6 be3e 1722 27be d2ef 0abe 19e4 823d
00000160: c844 cfbd 603e 8b3e ce7f 0e3c cb6a 00be
00000170: da3d 89bd 39e5 21bd 27bf 293e 4f34 b03d
00000180: fff7 ec3d 3805 aa3e b7af 613e ffd2 33be
00000190: cfa6 303d 4522 b13c c1f4 4abe b1d3 fc3c
000001a0: 61e3 ed3c 8e11 463e 9b2a 283c 0d5d b0be
000001b0: 1ffd 043e 22e0 1cbe c63e 0b3e 9719 66be
000001c0: fcb0 85bd 25c9 06bd 74ce 033e 7b0f 51be
000001d0: b5e0 8bbc 1c6f d2bd db49 89ba 84f2 26be
000001e0: a0ac 85be 628a 883e 4c76 053e a00e a0be
000001f0: e96e b2bc 6e15 edbe ff47 a13d 0475 2cbd
00000200: f270 3cbb 7c97 0b3d 47cb 2b3e 383c fbbd
00000210: eb79 0bbe 9d67 f0bb b778 2d3e 5955 473e
00000220: c407 ecbd 61af 073e 7a0d 96bd 5663 13be
00000230: ce79 283e 3e16 02bd d17d 443e 07e9 1cbe
00000240: 3c5e 2c3e 339c 143e a223 38be a057 c73e
00000250: 0777 debd 4df0 92bd 198e db3e 6be6 c3bd
00000260: 4169 143c 6bf4 21be c947 28bd b746 aa3e
00000270: 5410 b03b d22e 82bd 1b54 843e eca5 273d
00000280: 51ae bbbd e4ef 173e 511a 343e f09c daba
00000290: 68ed a33d 4c09 d7bc 742e 88bc 1216 953e
000002a0: 814a 9e3e 558c 993e 38b3 19be d9bc fa3c
000002b0: 4ab9 5b3d 5532 41be 3919 c1bd d44e 6e3e
000002c0: e8f0 fd3d abef 30be bce5 bebe e2ee c93d
000002d0: 7d72 cebc d6c8 95bd bfbb e5bd 481f 35bd
000002e0: c1a1 03be f0c2 90be 7523 09be a131 233e
000002f0: 15c3 923d f683 94bb f1eb 12be f419 6dbd
00000300: 0969 71be c0c0 64be 12d5 5fbe e275 a9bd
00000310: 2229 453e 2f3e 27bd 1128 c3bd 1049 663e
00000320: ede7 063e 2023 1e3e 4152 d83d 8b44 b53d
00000330: 703e 55be 5efe ae3d f3a3 df3d c7ff 5b3e
00000340: 410c 373e 7d5a 2abe 54dc c5bd 932f 03bd
00000350: b1f1 0a3d 46eb 3a3e 0f5e b6bd e00a 073d
00000360: 0330 473e a4a9 e6bd b03e 413e c2c2 ef3d
00000370: 0f5e 863e 7d10 a6be d57f b7be 78be 253e
00000380: 3fd8 613e 4ce3 153d 9af5 1abe f1d4 25be
00000390: 5353 7abb 3f2d abbe 4024 48be 80bb 093e
000003a0: 1789 6d3e 79bf 75be e397 20bd 523c b9be
000003b0: 9f1a 09be 9908 89bd 2f6c 61be 60a4 6c3e
000003c0: dd59 f1bd 52ff 48bd ff5b 4bbe 0558 74be
000003d0: 51f9 2b3b a468 13bd ebc7 42be 20e7 a1bd
000003e0: 9a33 a13d b7f7 9f3d 96be f53c c661 a6be
000003f0: 60f6 e73c 1067 25be cfc7 1d3e 777d 633d

SpectralMeanEstNet.SpectralGenMean.layers.2.0.bias f4 [26]
-0.030891206 -0.15146883 0.12736095 -0.0557589 0.046620317 0.15065289 -0.057622038 -0.08743183
0.18455158 0.123265386 0.22979909 0.11361179 -0.041243322 0.09027111 0.07128298 0.0069801155
0.16386507 0.033921547 -0.16440225 0.10605651 -0.06641097 -0.09001928 -0.1246244 0.0046757027
0.04236636 -0.01907704
00000000: 8e0f fdbc a51a 1bbe e96a 023e 7263 64bd
00000010: f2f4 3e3d c044 1a3e 1605 6cbd 760f b3bd
00000020: 17fb 3c3e 9072 fc3d 7450 6b3e 4cad e83d
00000030: c2ee 28bd 0fe0 b83d d0fc 913d 74b9 e43b
00000040: 3fcc 273e 52f1 0a3d 1059 28be 2834 d93d
00000050: 7a02 88bd 075c b8bd 143b ffbd a336 993b
00000060: 5988 2d3d 7447 9cbc

SpectralMeanEstNet.SpectralGenMean.layers.3.0.weight f4 [30, 26]
-0.3516276 0.1187127 0.19262646 -0.05406321 -0.13132946 0.15645762 -0.23069748 0.002593413
0.21517672 -0.1609788 0.17746979 -0.16594894 0.02778031 0.03164329 -0.22311646 0.033160575
-0.029902896 0.081112966 -0.019823307 0.12964651 0.0012089174 -0.15017617 -0.054991297 -0.14977965
0.20238926 0.15345575 0.13212913 0.041120768 -0.10134337 -0.06913582 -0.005491213 -0.2566701
-0.1438944 0.110328555 -0.23906279 0.13544917 0.06425732 -0.05138136 0.1378842 -0.13802174
-0.09578377 0.17330222 0.19092673 0.09641301 -0.22526361 -0.15350758 -0.16662624 -0.08155324
0.046033032 -0.10991583 -0.17818521 -0.17881805 0.2089811 0.08319674 0.12136348 0.19438343
0.10296731 -0.033206776 -0.058796078 -0.087342784 0.13819277 0.08049499 -0.15309948 -0.16837704
0.012915457 0.11305356 -0.104562715 0.15603386 0.07202448 0.1360445 -0.08139386 -0.12945205
0.09505912 0.08904677 -0.15459046 -0.12577774 -0.009460318 -0.09210365 -0.20636097 0.10888483
0.093744844 0.041199896 -0.19966812 0.119228184 -0.102822684 0.080806516 0.10926306 0.09357224
-0.14410372 0.16507679 -0.051695596 -0.016455261 -0.21409766 0.12252178 -0.21668418 0.07124729
0.0063221557 -0.19436423 0.07291073 -0.12649943 0.20952494 0.020440325 0.16231559 -0.04143159
-0.09209808 0.117415294 0.012738338 -0.14336078 0.065218896 0.10388246 -0.053144775 -0.1407681
0.039755106 -0.1698007 0.06595194 0.09146164 -0.019182557 0.11229063 0.15309112 0.19570653
-0.11145237 0.032536805 0.08126865 -0.104863465 0.0025343932 -0.060468122 -0.061345715 -0.057358902
-0.20582023 0.11516269 0.1787299 -0.061490137 -0.21922277 -0.0015364015 0.14526461 -0.062606044
0.12535873 -0.12012529 -0.0813176 0.16646197 -0.22199 0.005204074 -0.013640752 -0.04541468
0.011140672 0.17807174 0.0004067242 -0.02917534 0.14445747 -0.08579274 -0.08012235 -0.021550922
-0.1698024 -0.21513276 -0.16140547 0.033911616 -0.1009266 0.029418692 -0.08601648 0.024624897
0.05055309 -0.1677701 -0.014363529 0.051239643 -0.13781333 0.048578303 0.110619396 -0.09215627
-0.1274001 0.15144047 0.07195491 -0.124381796 -0.044398513 0.007516478 -0.20229004 -0.11404459
-0.19627504 -0.06563976 0.11859509 0.21230093 0.04023974 -0.22141378 0.09343561 -0.022118371
-0.0068585505 0.10710537 0.25492916 -0.010125753 0.22764784 0.1499206 0.020406973 0.14905362
-0.16356695 -0.17494844 0.17043401 -0.12879118 0.10026631 0.1833898 -0.07330838 0.021420805
-0.13332969 0.20336504 0.015097838 0.15381484 -0.30031064 -0.06252324 -0.10665188 0.047793444
0.15647069 0.15714718 -0.148634 0.19307764 -0.069207616 -0.090857305 -0.0159417 0.057969056
0.10358837 0.04176033 -0.08093733 -0.010414956 0.11309068 -0.030876096 0.06865937 0.1901829
-0.093546405 -0.07711684 -0.18522766 0.13341688 0.021685628 -0.08302181 -0.26987988 0.07508368
-0.24081424 0.1199774 0.23138689 -0.074502185 -0.16412663 -0.061622098 -0.11034093 0.05133838
-0.027506888 -0.08983569 -0.1816058 0.07959526 -0.17968598 -0.11046797 0.11858315 -0.10924358
-0.064871214 0.11493083 -0.21041945 -0.1911217 -0.15200388 -0.030317882 0.069153935 0.14390972
00000000: 8808 b4be a51f f33d df3f 453e 6271 5dbd
00000010: 3b7b 06be 6d36 203e f63b 6cbe 40f6 293b
00000020: 4957 5c3e a0d7 24be a4ba 353e 85ee 29be
00000030: 8893 e33c 659c 013d a478 64be 62d3 073d
00000040: ebf6 f4bc 8e1e a63d 7d64 a2bc 0ec2 043e
00000050: 8974 9e3a c8c7 19be 8e3e 61bd d65f 19be
00000060: 213f 4f3e 8123 1d3e dc4c 073e 406e 283d
00000070: 1d8d cfbd 1597 8dbd a2ef b3bb 436a 83be
00000080: 0e59 13be f0f3 e13d e0cc 74be 30b3 0a3e
00000090: 5799 833d 4375 52bd 8431 0d3e 9255 0dbe
000000a0: 482a c4bd 2376 313e 4c82 433e 2f74 c53d
000000b0: 81ab 66be 1731 1dbe 12a0 2abe 6305 a7bd
000000c0: 228d 3c3d 8d1b e1bd 2f76 36be 141c 37be
000000d0: 24ff 553e 0d63 aa3d 6b8d f83d 730c 473e
000000e0: 86e0 d23d d403 08bd 28d4 70bd c6e0 b2bd
000000f0: 6882 0d3e 8fda a43d 1cc6 1cbe 086b 2cbe
00000100: 5a9b 533c a088 e73d fa24 d6bd 57c7 1f3e
00000110: 9281 933d 404f 0b3e d3b1 a6bd 148f 04be
00000120: 5bae c23d 275e b63d f64c 1ebe e1cb 00be
00000130: 73ff 1abc d7a0 bcbd 4a50 53be 02ff de3d
00000140: 4cfd bf3d 39c1 283d cd75 4cbe e82d f43d
00000150: b394 d2bd e37d a53d 50c5 df3d cda2 bf3d
00000160: ed8f 13be e409 293e c3be 53bd 2fcd 86bc
00000170: 6b3c 5bbe b3ec fa3d 75e2 5dbe 19ea 913d
00000180: 162a cf3b 6b07 47be 3952 953d 1189 01be
00000190: b58d 563e 7872 a73c 0f36 263e 2cb4 29bd
000001a0: eb9d bcbd 6e77 f03d 76b4 503c 2bcd 12be
000001b0: 7c91 853d 54c0 d43d 56ae 59bd 8325 10be
000001c0: 40d6 223d 3ce0 2dbe d011 873d 3e50 bb3d
000001d0: bd24 9dbc a1f8 e53d ebc3 1c3e 4b67 483e
000001e0: 2441 e4bd 5045 053d 2e70 a63d a8c2 d6bd
000001f0: 1018 263b 6cad 77bd a545 7bbd 2bf1 6abd
00000200: 8ac2 52be 6bda eb3d f904 373e 15dd 7bbd
00000210: ef7b 60be 1461 c9ba 3fc0 143e 9937 80bd
00000220: 0a5e 003e 3f04 f6bd d889 a6bd 0275 2a3e
00000230: 5951 63be f086 aa3b 767d 5fbc be04 3abd
00000240: 5d87 363c 7058 363e 993d d539 1f01 efbc
00000250: a9ec 133e 1bb4 afbd 3017 a4bd 8f8b b0bc
00000260: aee0 2dbe c34b 5cbe 7a47 25be e8e6 0a3d
00000270: 9bb2 cebd 78ff f03c 6929 b0bd 27ba c93c
00000280: c210 4f3d edcb 2bbe 0255 6bbc a9e0 513d
00000290: f01e 0dbe 0bfa 463d 6c8c e23d 6dbc bcbd
000002a0: 2c75 02be 3613 1b3e 195d 933d e2bb febd
000002b0: 37db 35bd ca4c f63b 1f25 4fbe 3690 e9bd
000002c0: 53fc 48be 236e 86bd fce1 f23d 6a65 593e
000002d0: 6dd2 243d 4bba 62be 2b5b bf3d 9631 b5bc
000002e0: b1bd e0bb 0f5a db3d 1386 823e 7ce6 25bc
000002f0: 841c 693e c984 193e 862c a73c 83a1 183e
00000300: 187e 27be af25 33be 4186 2e3e d6e1 03be
00000310: 6c58 cd3d 89ca 3b3e b422 96bd af7a af3c
00000320: 9487 08be ed3e 503e ec5c 773c a381 1d3e
00000330: 51c2 99be 2f0c 80bd 4d6c dabd 0fc3 433d
00000340: da39 203e 31eb 203e 8333 18be 25b6 453e
00000350: b9bc 8dbd 6513 babd 2b98 82bc f670 6d3d
00000360: 2426 d43d e10c 2b3d 79c2 a5bd 7ea3 2abc
00000370: 169c e73d deef fcbc 499d 8c3d 4ebf 423e
00000380: 4295 bfbd 6fef 9dbd 52ac 3dbe 6f9e 083e
00000390: 0fa6 b13c 5707 aabd b22d 8abe 79c5 993d
000003a0: 0298 76be b6b6 f53d aff0 6c3e 9a94 98bd
000003b0: d010 28be 7467 7cbd 6dfa e1bd 3148 523d
000003c0: 2056 e1bc c6fb b7bd dff6 39be d702 a33d
000003d0: 9aff 37be 083d e2bd b9db f23d 19bb dfbd
000003e0: 33db 84bd db60 eb3d 3278 57be 68b5 43be
000003f0: e8a6 1bbe 355d f8bc 94a0 8d3d 125d 133e

SpectralMeanEstNet.SpectralGenMean.layers.3.0.bias f4 [30]
0.034171097 0.15728518 -0.04515035 -0.020747941 0.0098678935 0.09631176 -0.07448803 -0.0043751695
-0.2241067 0.1204189 -0.098222665 -0.003274166 0.015087186 -0.04922642 0.15894689 -0.16055925
0.123744994 0.0048085037 0.055765692 0.044121772 0.009427834 -0.11573095 -0.13460413 -0.16724843
0.091399886 0.06451773 0.0886487 -0.095504306 -0.03161051 0.030432923
00000000: fef6 0b3d 5e0f 213e 93ef 38bd 96f7 a9bc
00000010: f2ac 213c 1a3f c53d 2e8d 98bd 955d 8fbb
00000020: 3a7c 65be 2f9e f63d f728 c9bd 6493 56bb
00000030: 3f30 773c a4a1 49bd f9c2 223e a569 24be
00000040: 046e fd3d a790 9d3b 916a 643d 08b9 343d
00000050: 3477 1a3c 5904 edbd aad5 09be 2c43 2bbe
00000060: dd2f bb3d df21 843d 738d b53d c397 c3bd
00000070: 067a 01bd 774e f93c
