pths/net69.pth (torch_old, 34322 bytes, 28 tensors)

AbundanceEstNet.Encoder_0.layers.0.0.conv2d.weight f4 [4, 3, 1, 1]
0	0xbf00abc5	-0.502621
1	0xbea1e0ff	-0.3161697
2	0xbf1de721	-0.616808
3	0x3f45d89c	0.77283645
4	0x3d5e6594	0.05429609
5	0x3f2f478f	0.68468565
6	0xbf34f228	-0.70682
7	0xbf501418	-0.8128066
8	0xbf2e02b1	-0.67972857
9	0x3f1e08cc	0.6173217
10	0x3e3f72db	0.18696158
11	0x3f07b6ed	0.530135

AbundanceEstNet.Encoder_0.layers.0.0.conv2d.bias f4 [4]
0	0xbf0ace46	-0.54221
1	0xbe6b7f2e	-0.22997734
2	0xbe4db321	-0.20087864
3	0x3cc6301c	0.024192862

AbundanceEstNet.Encoder_1.layers.0.0.conv2d.weight f4 [8, 7, 1, 1]
0	0xbf06123a	-0.5237156
1	0x3f017dde	0.50582683
2	0xbec7958e	-0.3898129
3	0x3ee5c3e2	0.4487601
4	0x3f1bba9b	0.6083161
5	0x3ee40c25	0.44540516
6	0x3ed98066	0.42480773
7	0x3eca67f3	0.39532432
8	0xbf0d5f39	-0.55223423
9	0x3e8c6f2f	0.27428576
10	0xbee696fa	-0.4503706
11	0x3a254d6b	0.00063057867
12	0xbb1d3faa	-0.0023994246
13	0xbf1187a9	-0.56847626
14	0x3e8d0212	0.27540642
15	0xbd9f4035	-0.077759184
16	0x3e3a5022	0.1819463
17	0xbd24f2d1	-0.04027063
18	0x3ef2a965	0.47394863
19	0xbdf12444	-0.11774495
20	0xbf2cbe71	-0.6747809
21	0xbd8aa260	-0.06769252
22	0xbf066b5a	-0.52507555
23	0x3e34d37b	0.17658798
24	0xbec1326c	-0.3773378
25	0xbef1e675	-0.47246137
26	0xbeba2787	-0.36358282
27	0x3dafae49	0.08578164
28	0xbd3d2635	-0.046179015
29	0x3ebfdfc6	0.37475413
30	0xbe523a68	-0.20530093
31	0x3eb514fc	0.35367572
32	0x3f12b9f4	0.5731499
33	0x3f0885d1	0.5332919
34	0x3ed18335	0.40920416
35	0xbc64f2d7	-0.013973913
36	0x3f0f291d	0.5592211
37	0xbe1bee47	-0.15227614
38	0x3eebd258	0.46058917
39	0x3e505df9	0.20348348
40	0x3ea223bc	0.31667888
41	0x3f19ec58	0.60126257
42	0x3da67ce8	0.08129293
43	0xbef67488	-0.4813578
44	0x3de6bd2d	0.11266551
45	0x3eaf332a	0.34218723
46	0xbee6a8ba	-0.45050603
47	0xbeac0dd5	-0.33604303
48	0xbde76ff7	-0.113006525
49	0x3cfe8438	0.031068906
50	0x3eb2666f	0.34843776
51	0xbe22aba1	-0.15885784
52	0xbc8855f4	-0.016642548
53	0x3edde14b	0.43335947
54	0x3f211d7e	0.62935627
55	0x3eeab35c	0.45839965

AbundanceEstNet.Encoder_1.layers.0.0.conv2d.bias f4 [8]
0	0xbdb729bb	-0.08943506
1	0xbe8632ec	-0.26210725
2	0x3e744773	0.2385538
3	0x3cb9a483	0.022661453
4	0x3dd80481	0.10547734
5	0xbeced3db	-0.40396008
6	0xbd5ddcea	-0.05416576
7	0x3e340bbf	0.17582606

AbundanceEstNet.Encoder_2.layers.0.0.conv2d.weight f4 [16, 11, 1, 1]
0	0xbce849d7	-0.028355522
1	0xbc60ec63	-0.013728234
2	0x3eaf3367	0.34218904
3	0xbe112ce0	-0.14177275
4	0xbe3d0eae	-0.18462631
5	0xbe918f29	-0.28429535
6	0xbe749067	-0.2388321
7	0x3e7f9fb7	0.2496327
8	0x3e7e1686	0.2481328
9	0x3be9f490	0.00713975
10	0xbf0c87bb	-0.5489461
11	0x3d14b75c	0.036307678
12	0x3e5566df	0.20840023
13	0x3ebc6e79	0.36803034
14	0xbd6de0f2	-0.058075853
15	0xbdd77406	-0.105201766
16	0x3e20c1c5	0.15698917
17	0x3e986b8c	0.29769552
18	0x3dbc8fbd	0.092071034
19	0xbe59e6c3	-0.21279435
20	0x3d2184eb	0.0394334
21	0xbecaed3c	-0.3963412
22	0x3ee11dd2	0.43968064
23	0xbe47a1d4	-0.19495326
24	0xbedbc648	-0.42924714
25	0xbe9497a3	-0.2902194
26	0x3e444ea7	0.19170628
27	0x3f0e8122	0.5566579
28	0xb8c4ca92	-9.38374e-05
29	0x3e005280	0.12531471
30	0x3ef87c5e	0.48532385
31	0x3e2148f5	0.15750487
32	0x3ed6f4ee	0.41983742
33	0x3e51509d	0.20440908
34	0xbdb2c94b	-0.087298
35	0xbe5b5efc	-0.21422952
36	0xbebd631c	-0.36989677
37	0x3e29e8ec	0.16592759
38	0x3ebd3011	0.36950734
39	0x3e1336d3	0.14376383
40	0x3ba72039	0.005100277
41	0x3e9deade	0.30843252
42	0x3f03cef7	0.5148768
43	0x3c68e5a3	0.014214906
44	0x3f1e0b09	0.6173559
45	0xbe244110	-0.16040444
46	0xbf351a17	-0.70742935
47	0xbe5187f5	-0.2046202
48	0x3e679223	0.2261434
49	0x3f284280	0.6572647
50	0xbe9c717c	-0.30555332
51	0x3e39d405	0.18147285
52	0x3e966259	0.29371908
53	0x3d9024ff	0.070383064
54	0x3d914bd6	0.07094543
55	0x3e525b99	0.20542754
56	0x3d8118d3	0.06303563
57	0xbe968414	-0.29397643
58	0xbe96f315	-0.29482332
59	0x3da5ccc7	0.08095699
60	0x3e893597	0.26798698
61	0xbe718398	-0.23585355
62	0x3e649c74	0.22325307
63	0x3f06a315	0.52592593
64	0x3ea0175d	0.31267825
65	0x3db62fe4	0.08895853
66	0xbedd3a02	-0.4320832
67	0x3db8cdb1	0.090236075
68	0xbcba3498	-0.022730157
69	0xbde9f6be	-0.114240155
70	0xbeb36207	-0.35035726
71	0xbea6ccad	-0.3257803
72	0x3e0d8ac6	0.13822469
73	0x3da83672	0.082135096
74	0xbdb6eab2	-0.08931483
75	0xbc3f538a	-0.011677632
76	0xbec24cc0	-0.3794918
77	0x3eba9c95	0.36447588
78	0xbea3e60c	-0.3201145
79	0xbdb1a30e	-0.08673678
80	0xbdd5fd44	-0.10448697
81	0x3eed38e1	0.46332458
82	0x3be7ec6b	0.0070777438
83	0x3df276e0	0.1183908
84	0x3ec5cb36	0.386316
85	0x3efcb497	0.4935653
86	0x3eae72d2	0.34071976
87	0x3f0a0b94	0.53923917
88	0x3eb92ab6	0.36165398
89	0x3e1d68f5	0.15372069
90	0xbe102301	-0.14075853
91	0xbea8c070	-0.32959318
92	0x3df8c960	0.12147784
93	0x3e803465	0.25039974
94	0xbe97e7f3	-0.2966915
95	0xbd836d98	-0.06417388
96	0xbe22401e	-0.15844771
97	0x3d6f37bb	0.058402758
98	0x3ed28a80	0.41121292
99	0xbe671449	-0.22566332
100	0xbd967a9f	-0.07347607
101	0x3eb1f124	0.34754288
102	0x3e231cbf	0.15928935
103	0xbe8e3785	-0.27776733
104	0xbee10222	-0.4394694
105	0xbdeda43b	-0.1160359
106	0xbe234cff	-0.1594734
107	0x3e30af08	0.17254269
108	0x3da6cc22	0.08144404
109	0xbf14c1c7	-0.5810818
110	0xbf016f24	-0.5056021
111	0xbe7f56b4	-0.24935418
112	0x3e868c1c	0.2627877
113	0x3eb4b930	0.35297537
114	0xbea3d6cc	-0.31999815
115	0xbe9433f0	-0.28945875
116	0x3de834d5	0.11338202
117	0xbe86f9ac	-0.2636236
118	0x3e313156	0.17303976
119	0xbdc8a444	-0.09796956
120	0xbe95d47e	-0.2926368
121	0x3ee8d92f	0.45478198
122	0xbd02f953	-0.031976055
123	0xbee0ad94	-0.4388243
124	0xbf006a9d	-0.5016268
125	0x3e85111a	0.2598961
126	0x3e481bd5	0.19541867
127	0xbe6a8302	-0.22901538
128	0x3e314922	0.17313054
129	0x3f09a165	0.53761894
130	0x3e94edc5	0.29087654
131	0x3e95a91d	0.29230586
132	0x3caab377	0.020837529
133	0xbe4cea8f	-0.20011352
134	0x3e74520d	0.23859425
135	0xbdf3347b	-0.11875244
136	0x3dcfe050	0.10150206
137	0xbe2ed0e6	-0.17071876
138	0xbc83bd16	-0.016081374
139	0x3ade4745	0.0016958496
140	0xbe874176	-0.2641713
141	0xbeb74da9	-0.35801437
142	0xbd09a769	-0.03360692
143	0xbeac1037	-0.3360612
144	0x3ea36e63	0.31920156
145	0xbdf5d330	-0.120031714
146	0xbc832300	-0.0160079
147	0xbef07838	-0.4696672
148	0xbd7289c7	-0.059213426
149	0x3e09959c	0.13435978
150	0xbe7f79eb	-0.24948852
151	0xbe9750df	-0.29553887
152	0xbf05a15c	-0.5219934
153	0xbe2462e0	-0.16053343
154	0x3ea92219	0.33033827
155	0xbeb50ac4	-0.35359776
156	0xbe1219a7	-0.14267598
157	0xbe495164	-0.19659954
158	0xbd27aafd	-0.04093455
159	0x3ec10d77	0.37705585
160	0xbd9acfd4	-0.07559171
161	0x3e26aad1	0.16276099
162	0x3deda6f7	0.11604112
163	0x3eb3559d	0.35026255
164	0x3ef90c4a	0.48642188
165	0x3f032bd8	0.51238775
166	0xbe8c8857	-0.2744777
167	0xbeb6058f	-0.35551116
168	0x3db4e5a7	0.08832865
169	0x3e93350d	0.28751412
170	0x3edf952a	0.4366849
171	0xbe6e7737	-0.23287664
172	0x3ebb372b	0.36565527
173	0xbd382298	-0.044954866
174	0x3e6aff78	0.22949016
175	0x3e5d4aa8	0.2161051

AbundanceEstNet.Encoder_2.layers.0.0.conv2d.bias f4 [16]
0	0x3df80a89	0.121113844
1	0xbe91518c	-0.28382528
2	0x3e6f1065	0.23346098
3	0x3e8ca72e	0.27471298
4	0xbe901f95	-0.28149095
5	0x3c85d65a	0.016337562
6	0xbe2fa9d2	-0.17154625
7	0x3e8edf13	0.27904567
8	0x3e4856ed	0.1956441
9	0x3e90f43f	0.28311345
10	0x3dce1eda	0.10064478
11	0x3cf59a6b	0.029980859
12	0x3e4457f4	0.19174176
13	0xbd919ff7	-0.07110589
14	0xbc1d0078	-0.009582631
15	0x3e113b8e	0.14182875

AbundanceEstNet.Encoder_3.layers.0.0.conv2d.weight f4 [24, 19, 1, 1]
0	0x3ddec80b	0.10877999
1	0xbdcc82c1	-0.09985877
2	0xbd58d5f0	-0.0529384
3	0xbe423fa3	-0.18969588
4	0xbe76a90f	-0.24087928
5	0xbddfb236	-0.10922663
6	0xbe10ec54	-0.14152652
7	0xbe45c75c	-0.19314331
8	0x3e523872	0.20529345
9	0xbe2e46bb	-0.17019169
10	0x3e8f1cc7	0.27951643
11	0xbe0c5644	-0.13704783
12	0x3c3d4a46	0.011553353
13	0x3e37c8a1	0.17947628
14	0xbc51b5e9	-0.012799718
15	0xbd6f2a97	-0.058390226
16	0xbe55fcbb	-0.2089719
17	0xbde93849	-0.11387689
18	0x3e481d23	0.19542365
19	0xbecc85c8	-0.39945817
20	0x3e0fd22f	0.14045022
21	0x3e1f9b5f	0.15586613
22	0x3deb2c17	0.11483019
23	0x3ea6c9d0	0.32575846
24	0x3e96366b	0.29338393
25	0xbe04b345	-0.12959011
26	0x3eab5c50	0.33468866
27	0x3e4d36cf	0.20040439
28	0xbe604f31	-0.21905209
29	0xbe88d37f	-0.2672386
30	0x3f0dc33d	0.55376035
31	0xbbd9e383	-0.006649436
32	0xbe827afc	-0.25484455
33	0x3e8d61ee	0.27613777
34	0x3e151301	0.1455803
35	0x3de45ef9	0.11150927
36	0x3e68a177	0.22717844
37	0x3ebe8576	0.37211198
38	0x3dad9cbe	0.08477162
39	0x3dac6bc1	0.0841899
40	0xbe4d0796	-0.20022425
41	0x3e40ca1a	0.18827096
42	0xbe5eb18d	-0.21747418
43	0xbe1dd880	-0.1541462
44	0xbd9f7ca3	-0.077874444
45	0xbe1d1041	-0.15338232
46	0x3d748ac8	0.059702665
47	0xbc7680b9	-0.015045338
48	0xbd96990f	-0.07353412
49	0xbe9bc4f1	-0.30423692
50	0x3e35868e	0.1772711
51	0x3e3b005c	0.18261856
52	0xbcdcbe61	-0.026946248
53	0xbe774865	-0.2414871
54	0x3cc463da	0.023973394
55	0xbd62831d	-0.05530082
56	0xbe918ea3	-0.28429136
57	0x3e12671f	0.1429715
58	0xbc7f93f7	-0.015599242
59	0xbe2a04cd	-0.16603394
60	0xbdb20b28	-0.08693534
61	0xbd781f5e	-0.06057679
62	0xbe8dcdf0	-0.2769618
63	0xbca449f7	-0.0200548
64	0xbe2b0cdb	-0.16704123
65	0xbe0a03e1	-0.13478042
66	0x3eae6df7	0.34068272
67	0x3e753b6e	0.23948452
68	0xbe983908	-0.2973101
69	0x3e67cc0c	0.22636431
70	0xbda5cc49	-0.08095605
71	0xbee09b6a	-0.43868572
72	0xbe7ff856	-0.24997076
73	0xbdb4f78d	-0.08836279
74	0xbe9e0d2b	-0.3086942
75	0xbd51ddf6	-0.05123707
76	0xbdd7a304	-0.1052914
77	0x3d83c947	0.06434875
78	0x3ea9fe4d	0.3320183
79	0x3cca9a68	0.02473183
80	0x3ee4d030	0.44690084
81	0x3e05214f	0.13000987
82	0xbddc6fd2	-0.107635155
83	0x3e8785ec	0.26469362
84	0xbd2c5cf1	-0.042080823
85	0xbd933592	-0.07187952
86	0xbe99c188	-0.30030465
87	0x3e9d88c1	0.30768397
88	0x3dc01813	0.09379592
89	0x3d1e01c2	0.038575895
90	0x3ddaf20a	0.106906965
91	0x3e12aac0	0.14322948
92	0x3e70f931	0.23532559
93	0x3ed8a67d	0.4231452
94	0x3ea6a683	0.32548913
95	0x3ec925ab	0.3928655
96	0x3df44079	0.1192636
97	0xbe8c4a4d	-0.27400437
98	0x3e062775	0.13100989
99	0xbe9eaaa6	-0.3098957
100	0x3c991d9d	0.018690879
101	0x3e361ab6	0.17783627
102	0xbe38427c	-0.17994112
103	0xbd680ff5	-0.056655843
104	0x3e37105c	0.17877334
105	0x3e81e493	0.253697
106	0xbecc24a1	-0.39871696
107	0x3daf97d1	0.085738786
108	0x3e397c71	0.18113877
109	0xbd9732aa	-0.0738271
110	0x3d3caf08	0.04606536
111	0xbd5f6c0b	-0.054546397
112	0xbeb13e31	-0.3461776
113	0x3d21c9a7	0.03949895
114	0xbebba1b6	-0.36646813
115	0xbe420799	-0.18948211
116	0x3e4d03ad	0.20020933
117	0x3e509ec9	0.20373072
118	0x3eb3ad8c	0.35093343
119	0x3e9ddcd5	0.30832544
120	0xbe7c7469	-0.24653782
121	0x3e15d51d	0.14632078
122	0x3e5254a8	0.20540106
123	0xbe7aff0d	-0.24511357
124	0xbec27550	-0.37980127
125	0x3edc2abc	0.43001354
126	0xbe38b7c5	-0.18038853
127	0xbea015f3	-0.31266746
128	0x3ec67127	0.38758203
129	0x3ca16d22	0.019705359
130	0x3d840845	0.0644689
131	0x3eeaa4f7	0.45828983
132	0x3e10443a	0.14088526
133	0xbeb57bcf	-0.3544602
134	0x3e895c2d	0.26828137
135	0xbd264a13	-0.040597986
136	0x3e79443f	0.2434244
137	0x3eb6c5c8	0.3569777
138	0x3e84fcd6	0.2597415
139	0x3cddb037	0.027061565
140	0xbda5f311	-0.08103002
141	0x3e268d6c	0.16264886
142	0xbe9f133d	-0.31069365
143	0xbe6b4f00	-0.22979355
144	0xbceff00f	-0.029289274
145	0xbd8885f9	-0.06666178
146	0xbc62bb59	-0.0138386125
147	0x3e7d7013	0.24749784
148	0x3e491d73	0.1964014
149	0x3dc2ee25	0.09518079
150	0x3e563e66	0.2092224
151	0xbe166348	-0.1468631
152	0xbecbcce7	-0.39804766
153	0xbdba3b9b	-0.090934
154	0x3e136c53	0.14396791
155	0x3e658d6b	0.22417228
156	0x3dbe3df7	0.092891626
157	0x3e55bf63	0.2087379
158	0xbe1c419f	-0.15259407
159	0x3bd86e5d	0.006604953
160	0xbd02a80a	-0.031898536
161	0xbe2f44cf	-0.17116092
162	0xbe785eed	-0.24254961
163	0x3e3c06aa	0.18361917
164	0xbe6959d1	-0.22788168
165	0xbda6c081	-0.08142186
166	0x3e5114ce	0.20418093
167	0xbe24bdbf	-0.16088007
168	0x3e8665d1	0.26249555
169	0x3e9d1f6c	0.30688035
170	0xbe0b66e3	-0.13613467
171	0xbe8d6d15	-0.27622285
172	0xbd81976a	-0.06327708
173	0x3c9f82e5	0.019471595
174	0x3e714943	0.23563103
175	0xbc7dfafe	-0.015501736
176	0x3d5cd22e	0.05391138
177	0xbdd018de	-0.10160993
178	0x3db7fb56	0.089834854
179	0xbd5300db	-0.051514488
180	0x3dd9fe88	0.10644251
181	0x3ce7a8c0	0.028278708
182	0x3e592dcc	0.21208876
183	0x3e4cc98f	0.19998764
184	0xbe85309c	-0.2601365
185	0x3ea8ae50	0.3294549
186	0x3b927b9c	0.004470302
187	0x3eaeacde	0.34116262
188	0x3ea8ad14	0.32944548
189	0xbda7d291	-0.08194459
190	0xbe6d9dd0	-0.23204732
191	0xbe1c67ad	-0.15273924
192	0x3ec3eb17	0.38265297
193	0x3da38be2	0.07985665
194	0x3ecdffc6	0.40234202
195	0x3ee63d62	0.44968706
196	0xbe8b216b	-0.27173933
197	0x3e842da1	0.25816062
198	0xbdd6b3d0	-0.10483515
199	0xbe4acd37	-0.19804846
200	0xbe9812cd	-0.29701844
201	0x3dd8b023	0.105804704
202	0xbe893c1d	-0.26803675
203	0xbeb41588	-0.35172677
204	0x3d865cc3	0.06560662
205	0x3bf61c51	0.0075107
206	0x3de421b6	0.11139242
207	0x3eb6ee09	0.3572848
208	0x3e28ac10	0.16471887
209	0xbebd4d80	-0.3697319
210	0xbe7ce260	-0.2469573
211	0x3eba49cc	0.36384428
212	0xbdae0ed1	-0.0849892
213	0x3d8be41b	0.06830617
214	0x3d9a5a50	0.07536757
215	0xbcd62975	-0.026142815
216	0x3ea0a660	0.31376934
217	0x3e2b2cc9	0.16716303
218	0xbe26ac09	-0.16276564
219	0xbe133300	-0.14374924
220	0x3e823d13	0.2543722
221	0x3dce5036	0.10073893
222	0xbe2b67fe	-0.16738889
223	0x3d710e5a	0.058851577
224	0x3e3f1eb5	0.18664058
225	0x3e2a9065	0.16656645
226	0x3e4babc4	0.19889742
227	0x3e916840	0.2839985
228	0xbd4c26a8	-0.049841553
229	0xbdd132f0	-0.10214794
230	0x3e3f3a29	0.1867453
231	0x3e802fb5	0.25036398
232	0xbb4ee337	-0.0031568536
233	0x3d51086f	0.051033434
234	0xbeb22103	-0.3479081
235	0x3e826642	0.25468642
236	0x3eb3a05e	0.35083288
237	0x3e881ae9	0.2658303
238	0x3d9871ae	0.07443558
239	0x3e07ad2a	0.1324965
240	0x3e08cc81	0.13359262
241	0xbeca8101	-0.39551547
242	0x3e326af1	0.17423607
243	0x3dc545c7	0.096324496
244	0x3dead111	0.114656575
245	0x3e916a64	0.28401482
246	0x3da5944f	0.08084928
247	0xbe81c329	-0.25344208
248	0x3e5cc125	0.21558054
249	0xbe988ee4	-0.29796517
250	0xbe9ed5cd	-0.31022492
251	0xbdb93967	-0.09044152
252	0xbea11d98	-0.3146789
253	0x3edeba80	0.43501663
254	0xbe3a5e17	-0.18199955
255	0xbeb85feb	-0.3601068

AbundanceEstNet.Encoder_3.layers.0.0.conv2d.bias f4 [24]
0	0xbde73c46	-0.11290793
1	0xbdbee444	-0.09320882
2	0x3e38fdb4	0.1806553
3	0x3dfb4631	0.12269247
4	0xbdb42217	-0.087955646
5	0xbe4d7519	-0.200642
6	0x3e1cd91c	0.15317196
7	0xbe4be576	-0.19911751
8	0xbe9e929c	-0.3097123
9	0xbe0aac73	-0.13542347
10	0x3dc388af	0.09547555
11	0x3df821f2	0.121158496
12	0x3de11f0d	0.109922506
13	0xbeceecfe	-0.40415186
14	0x3d7ca4a6	0.06168046
15	0xbe57939a	-0.210524
16	0x3def389f	0.116807215
17	0xbd3dd62e	-0.046346836
18	0xbe25eab0	-0.16202807
19	0xbd950ccf	-0.07277834
20	0xbe5295c6	-0.20564947
21	0x3e5f1ae9	0.21787609
22	0xbe084df9	-0.13310994
23	0x3e0c88b9	0.1372403

AbundanceEstNet.Encoder_4.layers.0.0.conv2d.weight f4 [16, 27, 1, 1]
0	0xbe314b89	-0.1731397
1	0x3de56c66	0.11202316
2	0xbe8d5e19	-0.27610853
3	0xbd5d3136	-0.05400201
4	0x3d8fa983	0.07014754
5	0xbcbcba1f	-0.023037968
6	0x3e080601	0.1328354
7	0x3ebb5c98	0.3659408
8	0x3d6fec32	0.058574863
9	0x3e64a380	0.22327995
10	0xbded05ad	-0.11573348
11	0xbe00b1c1	-0.12567808
12	0xbd73dfa4	-0.059539452
13	0x3e4a94a6	0.19783267
14	0x3e1fe6ec	0.15615433
15	0x3ce51fe3	0.027969306
16	0xbe3be14d	-0.18347664
17	0xbdacf752	-0.0844561
18	0x3bc2ea0b	0.0059483103
19	0x3d722459	0.059116695
20	0x3e2c7277	0.1684054
21	0xbdcadf35	-0.099058546
22	0xbe2421d0	-0.16028523
23	0xbd4cf5d3	-0.050039124
24	0x3e306192	0.1722472
25	0x3e21dd7b	0.15807144
26	0x3c345c9e	0.01100841
27	0x3e476f1c	0.19475979
28	0x3c2147e5	0.009843801
29	0x3e008e34	0.12554246
30	0x3dc809a2	0.09767462
31	0x3e40ce57	0.18828712
32	0x3dc40889	0.095719405
33	0xbe16d7d1	-0.14730765
34	0x3deab65c	0.114605635
35	0xbdff1d15	-0.12456719
36	0xbdc2d28b	-0.09512814
37	0xbdf57d0b	-0.11986741
38	0xbdba9109	-0.091096945
39	0xbe3d0028	-0.18457091
40	0x3e311a95	0.17295296
41	0xbd3203c2	-0.043460615
42	0x3e093215	0.13398011
43	0x3e33f7ae	0.17574951
44	0x3dd32597	0.10309904
45	0x3e338825	0.17532404
46	0xbc2d8904	-0.010591749
47	0xbe2cfc02	-0.16893008
48	0x3dc673f4	0.09690085
49	0xbe2a4531	-0.16627957
50	0x3d1b3690	0.03789383
51	0xbdacf140	-0.08444452
52	0x3dffbca9	0.12487156
53	0x3e001f59	0.12511958
54	0xbbd21feb	-0.0064124963
55	0xbd88d236	-0.066807196
56	0x3e12ba03	0.1432877
57	0xbd722391	-0.05911595
58	0xbe1cb1df	-0.15302227
59	0xbdfb60d8	-0.12274331
60	0xbe3cf41b	-0.18452494
61	0x3e1429ae	0.14469025
62	0x3e0f6e3b	0.14006893
63	0xbd4163ff	-0.047214504
64	0x3dae483c	0.08509871
65	0x3dd1918f	0.10232841
66	0xbdae192e	-0.085008964
67	0x3d148d84	0.036267772
68	0xbd1ce25e	-0.038301818
69	0xbdb73b48	-0.08946854
70	0xbdf437de	-0.11924718
71	0xbdc67aec	-0.09691414
72	0xbc4e7568	-0.012601234
73	0xbcdc6741	-0.026904704
74	0xbe139f37	-0.14416204
75	0xbe317cd4	-0.17332774
76	0xbcc751c9	-0.02433099
77	0x3d9c9590	0.07645714
78	0x3d5db57c	0.054128155
79	0xbe0ef6d6	-0.13961348
80	0x3dc363a2	0.09540488
81	0xbd461e08	-0.048368484
82	0x3c3ae2b7	0.011406592
83	0x3d7b64f3	0.06137557
84	0x3de2c1c1	0.11072112
85	0x3d1e81d1	0.03869802
86	0xbddfca63	-0.10927274
87	0xbe86f5a6	-0.2635929
88	0x3d3e00cc	0.04638748
89	0x3e614588	0.2199918
90	0xbde3b169	-0.11117823
91	0x3d5b6ece	0.05357247
92	0xbe31fec3	-0.1738234
93	0xbe751385	-0.23933227
94	0x3e81544f	0.25259635
95	0xbe5dd44f	-0.2166302
96	0x3e206e1e	0.15667006
97	0x3bfc9b85	0.007708969
98	0x3d8db54b	0.069193445
99	0xbda97f08	-0.082761824
100	0x3de208d5	0.11036841
101	0x3e569cac	0.20958203
102	0x3cf013e6	0.029306363
103	0x3e8029d2	0.25031906
104	0x3e19088b	0.14944665
105	0x3d95e833	0.07319679
106	0x3dd7235e	0.10504793
107	0x3e065375	0.13117774
108	0x3e1aa726	0.15102825
109	0x3dc9b747	0.098494105
110	0xbe3df41b	-0.1855015
111	0x3d4f1e77	0.050566163
112	0x3c1fd2b3	0.009754824
113	0x3d81d08e	0.06338607
114	0x3d25fd70	0.0405249
115	0x3e1c6753	0.1527379
116	0xbe0b8856	-0.13626227
117	0xbdf86493	-0.12128558
118	0x3c26af5e	0.010173647
119	0x3e2137ab	0.15743892
120	0xbe1373c6	-0.14399633
121	0x3c6a69ac	0.014307421
122	0xbb173155	-0.0023070176
123	0xbe296299	-0.16541518
124	0xbe4ce91d	-0.200108
125	0xbe43715b	-0.1908621
126	0xbe0dfe1c	-0.13866466
127	0xbe37ee66	-0.17962036
128	0x3b5ea9de	0.003397576
129	0x3dc82e97	0.09774511
130	0xbdeb041b	-0.114753924
131	0xbdff654a	-0.12470491
132	0xbd6d1221	-0.057878617
133	0x3dac3c83	0.08409979
134	0x3e2018af	0.15634416
135	0xbdb487b6	-0.08814947
136	0xbdb746e9	-0.08949072
137	0x3d81076d	0.063002445
138	0xbe38208b	-0.17981164
139	0x3de9aa8d	0.11409483
140	0xbd982d49	-0.074305125
141	0x3db1715e	0.08664201
142	0x3e1879b8	0.14890182
143	0x3d2fd46b	0.042927187
144	0xbe4004de	-0.18751857
145	0xbd672348	-0.05643013
146	0x3e28215b	0.16418974
147	0xbe35cfaf	-0.17755006
148	0x3e247c22	0.16062978
149	0xbe15e2f2	-0.14637354
150	0xbd2b5515	-0.041829187
151	0x3e09b25b	0.13446943
152	0xbe3a0623	-0.18166403
153	0xbe35d811	-0.17758204
154	0xbd1e8bfd	-0.038707722
155	0xbe120e8b	-0.1426336
156	0xbc8030f9	-0.015648352
157	0x3e00ab1f	0.12565278
158	0x3dc7c62b	0.097545944
159	0xbe335ded	-0.17516299
160	0xbd4ea8d2	-0.05045397
161	0xbe155f0d	-0.1458704
162	0xbd862602	-0.06550218
163	0x3da69722	0.08134295
164	0x3c042c14	0.00806715
165	0x3e710bd0	0.23539662
166	0x3c188635	0.009309341
167	0xbda0376b	-0.0782307
168	0x3bb4b99b	0.00551529
169	0xbdd5f7a4	-0.10447624
170	0xbe21b06e	-0.15789959
171	0xbe1a685f	-0.15078877
172	0x3dea7592	0.11448206
173	0xbe2045ca	-0.15651622
174	0x3db48fa5	0.088164605
175	0xbd8774d3	-0.06614079
176	0x3de53833	0.1119236
177	0xbd79769f	-0.06090414
178	0x3d8d1a60	0.06889796
179	0xbe1a97a5	-0.1509691
180	0xbda269a9	-0.07930309
181	0xbc908d02	-0.017645363
182	0x3c4976d9	0.012296402
183	0xbcf51bb3	-0.029920435
184	0x3caead0f	0.021322755
185	0x3c162efc	0.009166475
186	0x3da1e218	0.07904452
187	0xbe74ff55	-0.23925526
188	0xbe4009a8	-0.18753684
189	0x3ddd3563	0.10801198
190	0xbd82f401	-0.06394196
191	0xbda63b87	-0.08116823
192	0x3d324535	0.043523032
193	0x3df97b27	0.121816926
194	0xbe021df1	-0.12706734
195	0x3d4a1d71	0.049344484
196	0x3dcb2a2d	0.09920154
197	0xbdb578b4	-0.08860913
198	0xbcb87590	-0.022516996
199	0xbe120796	-0.14260706
200	0xbdf3bde9	-0.11901457
201	0xbe29f5fc	-0.16597742
202	0x3e5387a7	0.20657216
203	0x3e03cf48	0.1287204
204	0x3da37477	0.07981198
205	0x3e120ccb	0.14262693
206	0x3e00b000	0.12567139
207	0x3dc442bd	0.09583042
208	0x3e8133b0	0.25234747
209	0x3ddf2ba8	0.10896999
210	0xbe2b9e68	-0.16759646
211	0x3e7e1b97	0.24815212
212	0x3d1c8950	0.03821689
213	0xbdc93982	-0.09825422
214	0x3ca5114d	0.020149851
215	0xbe09aed4	-0.13445598
216	0xbc82f3e0	-0.01598543
217	0x3cbfe2e7	0.023423625
218	0xbdefa3f2	-0.11701192
219	0xbd809bdd	-0.062797286
220	0xbc196e67	-0.009364701
221	0x3e8558cc	0.2604431
222	0xbdfdf1a4	-0.12399605
223	0x3d92e2c1	0.07172156
224	0x3db30085	0.087403335
225	0xbd8125d3	-0.063060425
226	0x3bb0971d	0.005389108
227	0xbe60c7a7	-0.21951161
228	0xbba8acf0	-0.005147569
229	0x3e8d1e32	0.275621
230	0x3dec9987	0.115527205
231	0x3cce98df	0.025219379
232	0xbde74e19	-0.11294193
233	0x3d56dce8	0.052456766
234	0x3e395a69	0.18100895
235	0x3e05d9a9	0.13071312
236	0xbddb34c9	-0.10703427
237	0x3e1f3671	0.15548111
238	0xbdd4e52b	-0.10395273
239	0x3d695b34	0.056971744
240	0x3e4edfdb	0.20202582
241	0xbdaf64c1	-0.08564139
242	0xbd2aa18c	-0.04165797
243	0x3dbd6d3f	0.09249353
244	0xbc0bbcea	-0.008528927
245	0x3d25ed11	0.040509287
246	0x3ddb8ecf	0.10720598
247	0xbd873e6f	-0.06603705
248	0x3d260d30	0.04053992
249	0xbe043e00	-0.12914276
250	0x3cf145b9	0.029452192
251	0xbe2365bf	-0.15956782
252	0x3e77b858	0.24191415
253	0xbd519a6d	-0.051172663
254	0x3ba5f861	0.0050650095
255	0x3c58d715	0.013234873

AbundanceEstNet.Encoder_4.layers.0.0.conv2d.bias f4 [16]
0	0xbe4ed483	-0.20198254
1	0x3cb571df	0.022149025
2	0xbe052987	-0.13004123
3	0x3db39c37	0.0877003
4	0x3c755817	0.014974616
5	0xbe2569c6	-0.1615363
6	0xbe20ecda	-0.15715352
7	0x3db44851	0.08802856
8	0x3d38b4af	0.04509419
9	0xbe08b3d0	-0.13349843
10	0x3dbfbda9	0.09362347
11	0x3d02c1aa	0.031922974
12	0xbdc75797	-0.09733503
13	0x3d2f4ae4	0.04279603
14	0xbdf28f75	-0.118437685
15	0xbdcfceb8	-0.1014685

SpectralMeanEstNet.SpectralGenMean.layers.0.0.weight f4 [18, 16]
0	0x3d80e654	0.062939316
1	0x3e2cc207	0.1687089
2	0xbe655cad	-0.22398634
3	0x3e29362f	0.16524576
4	0x3e2ca518	0.16859853
5	0x3e3f9a4b	0.18711202
6	0xbdc52cb1	-0.09627665
7	0xbc8b9785	-0.017040024
8	0x3e346fdf	0.176208
9	0xbe5c3763	-0.21505503
10	0xbe52a323	-0.20570044
11	0xbe45ac7b	-0.19304077
12	0xbde56e35	-0.11202661
13	0xbd51b84c	-0.05120115
14	0xbecb255a	-0.39676934
15	0xbe63125d	-0.22174974
16	0x3cf98903	0.03046084
17	0x3e9468de	0.28986257
18	0xbc17a535	-0.009255697
19	0xbe9d3516	-0.30704564
20	0x3d82273d	0.0635514
21	0x3e3f93d9	0.18708743
22	0xbeb559e3	-0.3542014
23	0x3d985405	0.074379005
24	0x3d3eb82a	0.04656235
25	0x3d9bc822	0.07606532
26	0x3dbf4009	0.093383856
27	0xbdebe7ef	-0.11518847
28	0x3d5d8fe5	0.054092307
29	0xbe0139be	-0.12619683
30	0x3e25354d	0.16133614
31	0x3c5ba842	0.013406815
32	0x3ccf2a48	0.025288716
33	0xbe86896b	-0.26276717
34	0xbe8ab4a3	-0.2709094
35	0x3d201393	0.039081167
36	0x3e260482	0.16212657
37	0x3d999fee	0.07501207
38	0xbde0a84a	-0.109695986
39	0x3ddf2b31	0.1089691
40	0xbe8dcbf7	-0.27694675
41	0xbe8c1806	-0.27362078
42	0xbe739ab2	-0.2378948
43	0x3e70da36	0.23520741
44	0xbdb0dbbd	-0.08635662
45	0xbb0ae222	-0.0021191915
46	0xbcbd042a	-0.023073275
47	0xbe5c3931	-0.21506192
48	0x3d776534	0.06039925
49	0xbe765ee3	-0.24059634
50	0xbe460215	-0.19336732
51	0x3e8ed749	0.27898625
52	0xbe67b51d	-0.22627683
53	0xbdfcf5fc	-0.12351605
54	0x3da9da14	0.08293548
55	0xbe62e1fd	-0.2215652
56	0x3e03beab	0.12865703
57	0x3b3a3010	0.0028409995
58	0x3e891d1e	0.26780027
59	0x3e8cc293	0.27492198
60	0x3e3a357d	0.18184467
61	0xbe19c3cd	-0.15016098
62	0xbe598096	-0.21240458
63	0x3dc7dc38	0.097588
64	0x3e988572	0.2978931
65	0xbd387d8d	-0.04504161
66	0xbe141a3d	-0.14463134
67	0x3df9ab91	0.12190927
68	0xbe8eabcb	-0.27865443
69	0xbeb17cad	-0.34665433
70	0xbda8e0a0	-0.08245969
71	0xbd174c3c	-0.036937937
72	0xbedc8477	-0.43069813
73	0x3e259b69	0.16172566
74	0x3e65b772	0.2243326
75	0xbd89625b	-0.06708213
76	0x3dad3024	0.08456448
77	0x3e90277e	0.2815513
78	0xbe31b23a	-0.17353144
79	0x3da83bf3	0.082145594
80	0xbe9382fd	-0.28810874
81	0xbdb7fd5f	-0.089838736
82	0x3e232ff0	0.15936255
83	0xbd5ef3d9	-0.05443177
84	0x3e912c7f	0.2835426
85	0x3de3c72d	0.11121974
86	0xbe99a137	-0.3000581
87	0xbd2044c5	-0.039128084
88	0xbe2d3694	-0.16915351
89	0xbeaa5c9d	-0.33273783
90	0x3e76ac03	0.24089055
91	0x3ca678d6	0.020321291
92	0xbe9cb3cb	-0.3060592
93	0x3dffb958	0.124865234
94	0xbe4c30bb	-0.19940464
95	0x3e89e136	0.26929635
96	0xbd54193b	-0.051781874
97	0x3ea0cc01	0.31405643
98	0x3d476f8e	0.04869037
99	0xbe905bf5	-0.28195158
100	0xbe59946b	-0.21248023
101	0x3b545bd2	0.0032403362
102	0x3eb116b2	0.34587628
103	0x3e3b640c	0.18299884
104	0xbc13dfd1	-0.00902553
105	0x3e4692bb	0.1939191
106	0x3e0477d8	0.12936342
107	0x3e747f5a	0.23876706
108	0xbe5054df	-0.20344876
109	0xbd37961a	-0.044820882
110	0xbeacbb81	-0.33736804
111	0xbe0d11f0	-0.13776374
112	0xbe4e4cdb	-0.20146506
113	0xbeb32592	-0.349896
114	0x3df6e364	0.1205509
115	0xbdb13123	-0.0865195
116	0x3e92df32	0.2868591
117	0xbeb980ae	-0.36230987
118	0x3cc72dbc	0.0243138
119	0x3e8482f1	0.2588115
120	0x3da04f47	0.07827621
121	0x3e8106a2	0.25200373
122	0x3e966f1d	0.29381648
123	0xbecd85bd	-0.40141097
124	0x3d094c13	0.033519816
125	0xbe88b441	-0.26700023
126	0x3e05d51b	0.13069575
127	0xbdd45285	-0.10367302
128	0x3d31f0bb	0.04344247
129	0x3d86753a	0.06565328
130	0x3da866a4	0.08222702
131	0x3e4c6515	0.19960435
132	0xbd8ca2bb	-0.06866976
133	0xbeb57661	-0.35441878
134	0x3e1577f7	0.14596544
135	0xbe893928	-0.2680142
136	0x3de5bf07	0.11218076
137	0xbe44d81e	-0.19223067
138	0x3db6c596	0.08924405
139	0xbe9ae751	-0.30254605
140	0xbd845cc0	-0.06463003
141	0xbe45c55a	-0.19313565
142	0xbd3377f2	-0.04381556
143	0xbdf885ac	-0.12134871
144	0x3eaa37f3	0.3324581
145	0x3ddc45e5	0.10755519
146	0x3e02de73	0.1278017
147	0x3e950190	0.29102755
148	0xbe862bdf	-0.26205346
149	0x3de794d5	0.11307684
150	0xbe780f90	-0.24224687
151	0x3e92fae1	0.2870703
152	0x3e0e50cf	0.13898014
153	0x3de5467d	0.11195085
154	0x3e12f0fb	0.14349739
155	0xbdac424a	-0.08411081
156	0xbd87f312	-0.06638159
157	0x3d4fbdff	0.050718304
158	0x3dc2400a	0.09484871
159	0x3e21f880	0.15817451
160	0xbe832c11	-0.25619557
161	0xbbfa154a	-0.0076319324
162	0xbd40ae68	-0.047041327
163	0xbe0f3fe3	-0.13989215
164	0xbe58e6d2	-0.21181801
165	0xbea3c026	-0.31982535
166	0xbe04a91f	-0.1295514
167	0xbe973df0	-0.29539442
168	0x3e1de20c	0.15418261
169	0xbd181e4e	-0.037138276
170	0xbe3e1dc3	-0.1856604
171	0x3d0ba756	0.03409513
172	0x3e77c1a4	0.24194962
173	0x3e0ca508	0.1373483
174	0xbd76350f	-0.060109194
175	0x3e7d90d7	0.24762283
176	0x3eac523a	0.33656484
177	0xbde115c3	-0.10990479
178	0x3e997f62	0.29979998
179	0xbe849348	-0.25893617
180	0x3c9190f3	0.017769312
181	0x3dfc2d3d	0.12313316
182	0x3e85b059	0.26111105
183	0x3e467158	0.19379175
184	0x3c32802e	0.010894818
185	0xbe39f6ca	-0.18160549
186	0xbe75701f	-0.23968552
187	0xbc5a055b	-0.013306941
188	0x3ebd07c1	0.36919978
189	0x3da54522	0.08069827
190	0x3db15e42	0.086605564
191	0x3e6454d5	0.22297986
192	0x3e268a47	0.16263686
193	0xbc4a0c3f	-0.012332021
194	0xbda8ff04	-0.08251765
195	0x3e661d82	0.22472194
196	0xbd12ab7b	-0.035808068
197	0x3ea9bb73	0.33150825
198	0x3e4d9b25	0.20078714
199	0xbe5c0c3f	-0.21489047
200	0x3ed7454b	0.42045054
201	0xbd897d8d	-0.067134
202	0xbe28f5e1	-0.16500045
203	0x3eb054a2	0.3443957
204	0xbe6689b2	-0.22513464
205	0xbc939a87	-0.01801802
206	0x3e300215	0.17188294
207	0x3e90a10d	0.28247872
208	0xbe519c34	-0.20469743
209	0xbdfb7169	-0.12277491
210	0xbe07df6b	-0.13268821
211	0xbe538f39	-0.20660104
212	0x3d548d6a	0.051892675
213	0x3dc3638e	0.09540473
214	0x3ceeebc6	0.02916516
215	0x3e2ad087	0.1668111
216	0xbe3a1682	-0.18172649
217	0xbb79172c	-0.0038008196
218	0x3e1487c4	0.14504915
219	0xbe73ffc3	-0.23828034
220	0xbe0472af	-0.12934373
221	0xbd985c8a	-0.074395254
222	0x3de2e482	0.11078741
223	0xbe10eca6	-0.14152774
224	0xbe570222	-0.20996907
225	0xbccc56b0	-0.02494368
226	0xbe649b1b	-0.22324793
227	0xbe12a8e4	-0.14322239
228	0xbe7c693a	-0.24649516
229	0x3e62f307	0.2216302
230	0x3e887ae4	0.26656258
231	0xbe9836fe	-0.29729456
232	0xbe85454b	-0.2602943
233	0x3d82e40c	0.06391153
234	0xbe8ea202	-0.27857977
235	0xbe8a7e55	-0.2704951
236	0xbe30a59a	-0.17250672
237	0xbdb24b06	-0.08705716
238	0x3e809432	0.25113064
239	0x3e3e70d9	0.18597735
240	0xbe5d2f45	-0.21600063
241	0xbe8984e1	-0.2685919
242	0xbe3cf2d5	-0.18452008
243	0x3e858f02	0.2608567
244	0xbde49287	-0.111607604
245	0x3e8478a7	0.258733
246	0xbcffa0fc	-0.031204693
247	0x3e25f611	0.16207148
248	0x3e1d5654	0.15364963
249	0x3e671481	0.22566415
250	0x3e04f4de	0.12984034
251	0x3e90b821	0.2826548
252	0x3dd7e477	0.10541623
253	0xbdf54eef	-0.11977946
254	0x3c2d16cc	0.010564517
255	0x3e666ca7	0.22502385

SpectralMeanEstNet.SpectralGenMean.layers.0.0.bias f4 [18]
0	0xbc2a9a59	-0.010412776
1	0xbcf7b5ba	-0.030238021
2	0xbc578908	-0.013155229
3	0xbcc17bde	-0.023618635
4	0x3e40d7eb	0.18832366
5	0xbe04639c	-0.12928623
6	0xbd07866a	-0.03308717
7	0xbd72b5c8	-0.05925539
8	0xbd3e03fa	-0.04639051
9	0xbcdd9f01	-0.027053358
10	0xbd8098c3	-0.06279137
11	0xbcaeb8e1	-0.021328392
12	0xbe529888	-0.20565999
13	0x3df88542	0.12134792
14	0xbc9f496a	-0.019444186
15	0xbd4371fb	-0.047716122
16	0xbcb763e4	-0.022386499
17	0xbc84cb5a	-0.016210247

SpectralMeanEstNet.SpectralGenMean.layers.1.0.weight f4 [22, 18]
0	0xbe3ed02e	-0.18634102
1	0xbc705089	-0.014667639
2	0xbea96838	-0.33087325
3	0xbe42a7e8	-0.19009364
4	0xbe19aeae	-0.15008041
5	0xbdbb325b	-0.09140464
6	0xbe9951d0	-0.2994523
7	0xbe176492	-0.14784458
8	0xbe34d9d9	-0.17661227
9	0xbe806e3e	-0.25084108
10	0x3d9eb27c	0.07748887
11	0xbe397784	-0.18111998
12	0x3d9b6b43	0.07588818
13	0x3e4e5fd0	0.20153737
14	0xbe2eb2f6	-0.17060456
15	0xbdd12a02	-0.102130905
16	0x3de35318	0.11099833
17	0xbd936816	-0.07197587
18	0x3ea9bf4c	0.3315376
19	0x3e3a7e12	0.18212155
20	0x3e80aaff	0.2513046
21	0xbe094af8	-0.13407505
22	0x3c867d34	0.016417123
23	0x3e8b17b4	0.27166522
24	0x3e014395	0.12623437
25	0xbe621325	-0.22077616
26	0x3e1f7e31	0.15575482
27	0x3e26727c	0.1625461
28	0x3d17c321	0.037051324
29	0x3e79a744	0.24380213
30	0x3e38ada6	0.18034992
31	0xbe04cdd9	-0.1296915
32	0x3d19f1ba	0.037584044
33	0xbdb381b3	-0.087649725
34	0x3e7d063c	0.2470941
35	0x3a6ddb45	0.0009073506
36	0x3c65da8f	0.014029159
37	0x3e06a183	0.1314755
38	0x3e91ee1c	0.28501976
39	0x3e7254ca	0.23665157
40	0xbe7b811f	-0.24560975
41	0xbe14ab4b	-0.14518468
42	0x3eac5d0e	0.33664745
43	0xbd9efd0a	-0.07763107
44	0xbd1693d3	-0.03676207
45	0x3cddbd85	0.027067909
46	0x3eb03abb	0.34419808
47	0x3dd6c1c6	0.10486178
48	0x3e841823	0.25799665
49	0xbea2bfb9	-0.31786898
50	0x3e71399f	0.23557137
51	0x3e8328aa	0.25616962
52	0x3e900ba8	0.28133893
53	0x3e4d01da	0.20020238
54	0xbc45914d	-0.012058568
55	0xbe2f07f2	-0.17092875
56	0x3e0895b6	0.1333836
57	0x3e6e10ad	0.23248549
58	0xbc3c0644	-0.011476103
59	0x3e152f10	0.14568734
60	0x3da41304	0.080114394
61	0xbd025469	-0.03181878
62	0x3e0a0f91	0.134825
63	0x3e83671b	0.256646
64	0x3e22b3fd	0.15888973
65	0x3db445bf	0.088023655
66	0x3df8166d	0.121136524
67	0x3bf2ba4e	0.007407463
68	0xbd86b461	-0.06577373
69	0x3d55038b	0.052005332
70	0x3e0c3789	0.1369306
71	0xbda40699	-0.08009071
72	0xbdce5a00	-0.1007576
73	0xbea078f9	-0.31342295
74	0xbe893c5d	-0.26803866
75	0xbd90d248	-0.07071358
76	0xbd62b854	-0.05535157
77	0x3ca6624e	0.020310547
78	0xbe4a1a09	-0.19736494
79	0xbe0cef2c	-0.13763112
80	0xbdf82207	-0.12115865
81	0xbdf302c9	-0.118657656
82	0xbe798bc4	-0.24369723
83	0xbd3bff2f	-0.04589766
84	0x3d36849f	0.04456007
85	0xbd5d85f4	-0.054082826
86	0xbdfe6b1e	-0.12422775
87	0x3d456806	0.048194908
88	0x3c6c1221	0.014408619
89	0xbdfb4fc2	-0.12271072
90	0xbd60254b	-0.054723065
91	0xbced08e9	-0.028934913
92	0x3def3f33	0.11681976
93	0xbe40103b	-0.18756191
94	0xbe420339	-0.18946542
95	0x3d255a66	0.040369414
96	0x3d262934	0.040566638
97	0x3d6540f7	0.05597016
98	0x3e3fc466	0.18727264
99	0x3e73bb60	0.23801947
100	0x3eb56032	0.35424954
101	0xbd092108	-0.033478767
102	0xbe20cd0c	-0.15703219
103	0x3e29830d	0.16553898
104	0x3e95295f	0.29133126
105	0x3ea16591	0.31522802
106	0x3e2d915c	0.16949981
107	0x3e8f7d4c	0.2802528
108	0x3bd46f57	0.0064829993
109	0xbe016826	-0.12637386
110	0xbe73195e	-0.23740146
111	0xbe87cda5	-0.26524082
112	0xbdf79c7a	-0.120903924
113	0xbdabd4d8	-0.08390206
114	0x3cf094b9	0.029367791
115	0x3bae08ec	0.005311122
116	0xbe04f939	-0.12985696
117	0xbd972325	-0.0737975
118	0x3d212ee2	0.03935135
119	0x3d04e2c7	0.032442834
120	0xbd2b7b15	-0.041865427
121	0x3b49e9b1	0.0030809457
122	0xbc965ca3	-0.01835472
123	0xbc852464	-0.016252704
124	0xbe3f9a8b	-0.18711297
125	0x3d2e2602	0.042516716
126	0x3dcfedec	0.10152802
127	0xbd8b2625	-0.06794385
128	0x3b48451d	0.0030558773
129	0xbd0759c8	-0.033044606
130	0xbe2c0370	-0.16798186
131	0xbda4ae75	-0.080410875
132	0xbe6d94e6	-0.23201331
133	0x3e297788	0.16549504
134	0x3b86ba73	0.004111582
135	0x3de2a14f	0.110659234
136	0xbe1a9c9f	-0.15098809
137	0x3c6f7cb9	0.014617139
138	0xbe28ac6e	-0.16472027
139	0x3da6ca32	0.081440344
140	0xbe0a52bb	-0.13508122
141	0xbe3007ef	-0.17190526
142	0x3e4ee842	0.20205787
143	0xbe0c2173	-0.13684635
144	0x3eadfc28	0.33981442
145	0x3e6db19f	0.23212288
146	0x3e9074b3	0.28214034
147	0x3e913cf3	0.28366813
148	0xbc9c4c6c	-0.01907941
149	0x3ccfaf27	0.025352074
150	0x3e49c927	0.1970564
151	0x3e86e5ef	0.263473
152	0xbd904fa5	-0.07046441
153	0xbd33f453	-0.043934178
154	0x3e2251ae	0.15851471
155	0x3e57fca6	0.21092471
156	0xbe886ea2	-0.26646906
157	0x3ea48b78	0.32137656
158	0x3e8e3df5	0.27781644
159	0x3e9f50e8	0.31116414
160	0x3b20d1cd	0.0024539114
161	0xbd4e48f4	-0.050362542
162	0x3e36aafa	0.1783866
163	0x3e97c1f4	0.29640162
164	0x3eb4635d	0.35232058
165	0xbd6fc788	-0.058539897
166	0x3e9d0ac0	0.30672264
167	0xbd001aa2	-0.0312754
168	0xbd0b1812	-0.033958502
169	0x3e685741	0.22689535
170	0x3e853d83	0.26023492
171	0x3e34fbf1	0.17674233
172	0xbd1712da	-0.036883213
173	0x3eca2569	0.39481667
174	0xbdfb86bd	-0.12281559
175	0x3d913716	0.07090585
176	0x3c994170	0.01870796
177	0xbe081410	-0.13288903
178	0x3d5fc5ef	0.054632124
179	0x3e637905	0.22214134
180	0x3e21749a	0.15767136
181	0x3d533780	0.0515666
182	0x3e9d0c07	0.3067324
183	0x3d6e55eb	0.058187407
184	0xbddee730	-0.10883939
185	0x3be53450	0.0069947615
186	0x3dbb3d76	0.09142582
187	0x3e765b1f	0.24058197
188	0x3eaa1d85	0.33225647
189	0x3e2c7262	0.16840509
190	0x3eb51aa8	0.353719
191	0x3eaebce9	0.34128502
192	0x3dfbcc7c	0.12294862
193	0x3e1f5e64	0.15563351
194	0x3e2ab3e5	0.16670187
195	0x3e08a6cd	0.1334488
196	0x3eb0dd97	0.3454406
197	0x3d8e245b	0.06940528
198	0xbea1f254	-0.31630194
199	0xbe979f2b	-0.29613623
200	0x3cbdd86f	0.023174493
201	0xbe81f6c7	-0.2538359
202	0xbc39a5fd	-0.011331079
203	0xbd8927e9	-0.066970654
204	0xbeaa723b	-0.33290276
205	0xbe1027f7	-0.14077745
206	0xbd678630	-0.056524456
207	0xbdc29631	-0.09501303
208	0xbcbde9ed	-0.023182834
209	0xbe4ab792	-0.19796589
210	0xbe005760	-0.12533331
211	0xbcec2a06	-0.028828632
212	0xbe807672	-0.25090367
213	0xbded65a5	-0.11591653
214	0xbdfeadcc	-0.12435493
215	0xbd663651	-0.056204144
216	0xbe10026a	-0.14063421
217	0x3ce517a7	0.02796538
218	0xbd08198b	-0.033227485
219	0xbda8a133	-0.08233871
220	0xbde09d59	-0.10967512
221	0x3db094b8	0.08622116
222	0xbd7106a3	-0.05884422
223	0xbe75aa98	-0.23990858
224	0xbe697851	-0.22799803
225	0xbd69e0cd	-0.057099152
226	0xbd75d0d9	-0.060013626
227	0xbe50af06	-0.20379266
228	0xbe51527f	-0.20441626
229	0x3dac564e	0.08414899
230	0x3c0a3dcb	0.008437584
231	0xbe14f3ef	-0.14546178
232	0xbe5c20d6	-0.21496901
233	0x3dd400df	0.10351729
234	0xbdc1a84f	-0.094559304
235	0x3e9652ec	0.2936014
236	0xbd0ed498	-0.034870714
237	0x3e2e10d4	0.16998607
238	0x3de3015e	0.11084245
239	0x3e0577b1	0.1303394
240	0x3e85b66e	0.26115745
241	0xbc24360c	-0.010022651
242	0xbe0f582b	-0.13998477
243	0x3db7138d	0.08939276
244	0x3e1393f4	0.14411908
245	0x3d3c7802	0.046012886
246	0x3dcc7332	0.09982909
247	0x3e8d6397	0.27615044
248	0xbcb54e18	-0.022131965
249	0x3e1f1418	0.15535009
250	0x3e37bba1	0.17942668
251	0x3e7bdd45	0.24596126
252	0xbd4daa92	-0.050211497
253	0xbe895e55	-0.26829782
254	0xbde6ade9	-0.112636395
255	0xbcc79518	-0.024363086

SpectralMeanEstNet.SpectralGenMean.layers.1.0.bias f4 [22]
0	0x3e2c48a8	0.16824591
1	0x3cb38ff6	0.021919232
2	0x3d3c6757	0.04599699
3	0x3e1ad1ea	0.15119138
4	0x3dc7e5bc	0.09760615
5	0x3bc958dd	0.0061446265
6	0xbd2b4b3e	-0.041819803
7	0xbbdd7e7b	-0.0067594624
8	0xbd83fbec	-0.06444535
9	0xbdd28ef6	-0.10281174
10	0x3e51be3d	0.20482726
11	0xbd8379ec	-0.06419739
12	0x3de9d030	0.11416662
13	0xbc1e4b8b	-0.009661566
14	0x3e19052f	0.14943384
15	0xbd3c8a53	-0.046030354
16	0xbd8e7dc2	-0.0695758
17	0x3d9fe4d9	0.07807321
18	0xbda4dbdd	-0.08049748
19	0x3defb065	0.117035665
20	0xbd800c6f	-0.062523715
21	0x3e222eee	0.15838215

SpectralMeanEstNet.SpectralGenMean.layers.2.0.weight f4 [26, 22]
0	0xbbf09aa0	-0.0073426515
1	0x3df4215d	0.11920426
2	0x3e699f7b	0.22814743
3	0x3e4c76fd	0.19967265
4	0xbdfea283	-0.124333404
5	0x3e4e3d8c	0.20140666
6	0x3e2ef3c8	0.17085183
7	0xbddf6ce8	-0.10909444
8	0x3da0d6e9	0.07853491
9	0x3dee675a	0.116408065
10	0x3de45056	0.11148135
11	0xbe74a577	-0.23891245
12	0xbe4dbd90	-0.20091844
13	0x3e7473d0	0.23872304
14	0x3d45facf	0.048334893
15	0x3df6f3bd	0.12058208
16	0x3b94c3c4	0.0045399386
17	0x3e6e7904	0.23288351
18	0x3e229a25	0.15879114
19	0xbdd63f93	-0.104613446
20	0xba407dc2	-0.0007342958
21	0xbe237a95	-0.1596473
22	0xbd8d3987	-0.06895738
23	0xbd7f5c68	-0.062343985
24	0xbe8aa7cc	-0.27081144
25	0x3e52000c	0.2050783
26	0xbd4f4784	-0.050605312
27	0xbe46c120	-0.19409609
28	0xbe0c6482	-0.13710216
29	0x3d14e7a6	0.03635373
30	0xbe4a0d61	-0.19731666
31	0xbd892995	-0.06697384
32	0xbc6b14b9	-0.014348202
33	0xbd9f268d	-0.07771025
34	0x3dbee89a	0.09321709
35	0x3ce7629e	0.028245267
36	0x3cefb1f2	0.029259656
37	0xbebe7825	-0.37201038
38	0x3dd62a35	0.10457269
39	0xbe7a9676	-0.24471459
40	0xbe5ddef2	-0.21667078
41	0x3e5bcd49	0.21465029
42	0xbe355d1a	-0.17711297
43	0x3dad7128	0.084688485
44	0x3e1433c4	0.14472872
45	0xbc805262	-0.015664283
46	0xbe1b96cc	-0.15194243
47	0xbd548711	-0.051886622
48	0x3d967c36	0.0734791
49	0xbe777952	-0.24167374
50	0xbc3fdbbb	-0.011710103
51	0xbe1844e1	-0.14870025
52	0xbe61f498	-0.22065961
53	0xbebdefe5	-0.37097088
54	0xbe55c719	-0.20876731
55	0x3ddeae15	0.10873047
56	0x3d870778	0.065932214
57	0xbe917c2f	-0.28415057
58	0x3e35d987	0.17758761
59	0xbded852f	-0.115976684
60	0x3e32bff6	0.1745604
61	0xbdfe28a2	-0.12410094
62	0xbe4a22e9	-0.1973988
63	0xbd1f7d36	-0.03893777
64	0x3c854275	0.01626704
65	0xbd63cee9	-0.055617247
66	0xbc79e4d4	-0.015252311
67	0x3d54e753	0.05197842
68	0x3e90e05b	0.2829617
69	0x3de00b67	0.10939675
70	0x3e0e5410	0.13899255
71	0x3dd7e21f	0.10541176
72	0xbe37d0f2	-0.179508
73	0x3e160ab7	0.14652525
74	0x3ddc4aac	0.1075643
75	0x3eae99e9	0.341018
76	0x3e62cf90	0.22149491
77	0xbd1b59fb	-0.03792761
78	0x3d4699d3	0.048486542
79	0x3c00ceb1	0.007861779
80	0x3e2cb791	0.168669
81	0x3cccfc2f	0.025022594
82	0x3dd7d846	0.10539298
83	0xbd33e03e	-0.043915026
84	0x3eb83ce1	0.35983947
85	0xbe24135f	-0.16023014
86	0xbe058302	-0.13038257
87	0x3d7bdbf5	0.061489064
88	0xbdca6c95	-0.09883992
89	0x3e87a590	0.26493502
90	0x3bfb8461	0.007675693
91	0xbe06027d	-0.13086887
92	0xbd8939ff	-0.06700515
93	0xbd158f10	-0.03651339
94	0x3e39f8f6	0.18161377
95	0x3d853bc6	0.065055415
96	0x3de7cbe8	0.11318189
97	0x3ea7d7bb	0.32781777
98	0x3e5f5204	0.2180863
99	0xbe33fd49	-0.1757709
100	0x3d412872	0.047157712
101	0x3ce1ad55	0.027548471
102	0xbe469edf	-0.19396542
103	0x3cc106c3	0.023562795
104	0x3d37fc5e	0.04491841
105	0x3e44fdda	0.19237462
106	0xbb17b296	-0.0023147217
107	0xbeaef70d	-0.3417286
108	0x3e0a73ef	0.13520788
109	0xbe1d5205	-0.15363319
110	0x3e0949f5	0.13407119
111	0xbe6fb969	-0.23410572
112	0xbd859760	-0.06523013
113	0xbd005096	-0.031326853
114	0x3e0427ec	0.12905854
115	0xbe55c3c6	-0.20875463
116	0xbcd6b360	-0.02620858
117	0xbdc4678d	-0.09590063
118	0x3b1aca9d	0.0023619302
119	0xbe2ab148	-0.1666919
120	0xbe86e04e	-0.26343006
121	0x3e89a65f	0.26884744
122	0x3e02ccda	0.12773457
123	0xbe9effb4	-0.3105446
124	0xbcc530cf	-0.024071125
125	0xbeee5865	-0.46551815
126	0x3d71b4be	0.05901026
127	0xbd2fde2d	-0.042936493
128	0x3b893c57	0.0041881013
129	0x3d045e08	0.032316238
130	0x3e3096b4	0.17244989
131	0xbdf9b9c8	-0.12193638
132	0xbe0a9a29	-0.1353537
133	0xbc483525	-0.012219702
134	0x3e3036d2	0.17208412
135	0x3e417545	0.18892391
136	0xbdeda3fb	-0.116035424
137	0x3e0c856f	0.13722776
138	0xbd67e9d2	-0.056619473
139	0xbe2a1763	-0.16610484
140	0x3e26deea	0.16295972
141	0xbd0e9153	-0.03480656
142	0x3e424f00	0.18975449
143	0xbe1ca3c5	-0.15296848
144	0x3e2d76fd	0.16939922
145	0x3e1c979e	0.15292212
146	0xbe341447	-0.1758586
147	0x3ec22bfa	0.37924176
148	0xbdbc073f	-0.091810696
149	0xbd8e95cd	-0.06962166
150	0x3ed41833	0.41424713
151	0xbdc272d1	-0.09494556
152	0x3c6f4a66	0.01460514
153	0xbe22a044	-0.15881449
154	0xbd24e7a3	-0.04025997
155	0x3ea76794	0.3269621
156	0x3c055695	0.008138319
157	0xbd8d6174	-0.06903353
158	0x3e83e959	0.25763968
159	0x3d354c8e	0.04426246
160	0xbd96dff0	-0.073669314
161	0x3e01e8e9	0.12686504
162	0x3e2d2656	0.16909155
163	0xbbb17f95	-0.0054168203
164	0x3d9e8395	0.07739941
165	0xbcc283f6	-0.023744565
166	0xbc862098	-0.016372964
167	0x3e966c23	0.29379377
168	0x3e9e2ccb	0.3089355
169	0x3e92f1cc	0.287001
170	0xbe0a74fd	-0.1352119
171	0x3ce3b944	0.027798302
172	0x3d319a82	0.04336024
173	0xbe40697c	-0.18790239
174	0xbdb1cfd7	-0.086822204
175	0x3e6c682b	0.23086612
176	0x3df76f8d	0.120818235
177	0xbe450993	-0.19241934
178	0xbec161bd	-0.3776988
179	0x3dcc892c	0.09987101
180	0xbcca3317	-0.024682565
181	0xbdafa233	-0.08575859
182	0xbe000d62	-0.12505105
183	0xbd2cf83f	-0.042228933
184	0xbe003f99	-0.1252426
185	0xbe961e8c	-0.2932018
186	0xbe0f394c	-0.13986701
187	0x3e2757cc	0.16342086
188	0x3d8ccffe	0.06875609
189	0xbad3d1c8	-0.0016160542
190	0xbe1762fe	-0.14783856
191	0xbd6f3a4b	-0.058405202
192	0xbe886ace	-0.26643986
193	0xbe6a76c4	-0.22896868
194	0xbe53982a	-0.20663515
195	0xbdaf2094	-0.08551136
196	0x3e4f9066	0.20269927
197	0xbd27c53e	-0.04095959
198	0xbdc0db38	-0.09416813
199	0x3e5abc84	0.21360976
200	0x3e02c738	0.12771308
201	0x3e15abf7	0.1461638
202	0x3dd5a433	0.10431709
203	0x3db5ea59	0.08882589
204	0xbe42ea1b	-0.19034617
205	0x3d824f44	0.06362775
206	0x3dd8cce3	0.10585954
207	0x3e57a003	0.21057133
208	0x3e319ebf	0.17345713
209	0xbe284d52	-0.16435745
210	0xbdbd88a5	-0.092545785
211	0xbcd747db	-0.02627938
212	0x3d10d493	0.035358977
213	0x3e318221	0.17334796
214	0xbd97edbf	-0.07418393
215	0x3ceb75a6	0.028742623
216	0x3e38cd5f	0.18047093
217	0xbde149c8	-0.11000401
218	0x3e49f497	0.1972221
219	0x3deb31b5	0.1148409
220	0x3e84f232	0.2596603
221	0xbea6fc48	-0.3261435
222	0xbeb61382	-0.35561758
223	0x3e28fac5	0.16501911
224	0x3e61e285	0.22059067
225	0x3ce18a9b	0.027531913
226	0xbe2464b1	-0.16054036
227	0xbe238c98	-0.15971601
228	0xbbd96953	-0.00663487
229	0xbeaaa976	-0.33332413
230	0xbe492d63	-0.1964622
231	0x3e0cb379	0.13740338
232	0x3e68b2dd	0.22724481
233	0xbe7733ce	-0.24140856
234	0xbd2f845b	-0.042850833
235	0xbeba14f9	-0.36344126
236	0xbe1f291f	-0.1554303
237	0xbd91286d	-0.07087789
238	0xbe56ca84	-0.20975691
239	0x3e688703	0.22707753
240	0xbdecb050	-0.115570664
241	0xbd4b5c5b	-0.049648624
242	0xbe4cdfaa	-0.20007196
243	0xbe68e513	-0.22743635
244	0x3ca8b3f1	0.020593615
245	0xbcf931aa	-0.03041919
246	0xbe41d0cf	-0.1892731
247	0xbd9db3d9	-0.07700319
248	0x3d96548b	0.07340344
249	0x3d9617cc	0.07328758
250	0x3ce4fe4f	0.027953295
251	0xbea5cd29	-0.32383087
252	0x3d039f94	0.032134607
253	0xbe2582ef	-0.16163228
254	0x3e17bf61	0.14819099
255	0x3d6a1b8d	0.05715518

SpectralMeanEstNet.SpectralGenMean.layers.2.0.bias f4 [26]
0	0xbcf93e49	-0.030425208
1	0xbe1ae315	-0.15125687
2	0x3e017b8f	0.1264479
3	0xbd6c88c5	-0.05774762
4	0x3d3b6b6f	0.045756754
5	0x3e19594b	0.14975469
6	0xbd748132	-0.059693523
7	0xbdb85a8f	-0.09001648
8	0x3e3b1d38	0.18272865
9	0x3df7181a	0.12065144
10	0x3e6b28bb	0.22964756
11	0x3deaf802	0.11473085
12	0xbd2c4e39	-0.042066786
13	0x3db5c88c	0.08876142
14	0x3d9331c3	0.07187226
15	0x3bc846b9	0.0061119464
16	0x3e2cee22	0.16887715
17	0x3cf3390b	0.029690286
18	0xbe259667	-0.16170655
19	0x3dc56645	0.09638647
20	0xbd8543f5	-0.065071024
21	0xbdc00c25	-0.093773164
22	0xbdf99a94	-0.121876866
23	0x3b9c4173	0.0047685443
24	0x3d2a7200	0.041612625
25	0xbca02b38	-0.019551858

SpectralMeanEstNet.SpectralGenMean.layers.3.0.weight f4 [30, 26]
0	0xbeb4627f	-0.35231397
1	0x3df3dd7c	0.11907479
2	0x3e43a7a5	0.1910692
3	0xbd580dc7	-0.052747514
4	0xbe0a3ed2	-0.13500527
5	0x3e2432ac	0.16034955
6	0xbe65d524	-0.22444588
7	0x3ba057a5	0.0048932605
8	0x3e5c93e6	0.21540794
9	0xbe24c522	-0.16090825
10	0x3e35b283	0.17743878
11	0xbe2ad2ec	-0.16682023
12	0x3cf0f931	0.029415699
13	0x3ced129a	0.028939534
14	0xbe62eb95	-0.2216018
15	0x3d060d18	0.03272733
16	0xbcef3009	-0.02919771
17	0x3da38da5	0.07986001
18	0xbc9f8f40	-0.019477487
19	0x3e0457e1	0.12924148
20	0xbc8a1066	-0.016853523
21	0xbe15675d	-0.14590211
22	0xbd67e376	-0.056613408
23	0xbe16e8ca	-0.1473724
24	0x3e4ffc2a	0.20311037
25	0x3e1cec8e	0.15324613
26	0x3e04652f	0.12929223
27	0x3d44f1e6	0.048082255
28	0xbdc8d144	-0.09805539
29	0xbd941568	-0.072306454
30	0xbc1347bd	-0.008989272
31	0xbe8263e4	-0.25466835
32	0xbe1a803a	-0.15087977
33	0x3dcc9062	0.09988476
34	0xbe766be2	-0.24064592
35	0x3e05a90a	0.13052765
36	0x3d7d026f	0.0617699
37	0xbd69cd65	-0.057080645
38	0x3e137cbf	0.14403056
39	0xbe0f7eef	-0.14013265
40	0xbdcad008	-0.0990296
41	0x3e2b6265	0.16736753
42	0x3e3cd549	0.18440737
43	0x3dce52a3	0.100743555
44	0xbe62da3a	-0.2215356
45	0xbe2234e9	-0.15840496
46	0xbe1fb0ee	-0.15594837
47	0xbdb0fde1	-0.086421736
48	0x3d506590	0.050878108
49	0xbdde7781	-0.10862637
50	0xbe32a050	-0.17443967
51	0xbe306c64	-0.17228848
52	0x3e4819f2	0.19541147
53	0x3db9089e	0.09034847
54	0x3e00b295	0.12568124
55	0x3e3ab39e	0.18232581
56	0x3dbdcc82	0.092675224
57	0xbd0059f0	-0.03133577
58	0xbd92771e	-0.07151626
59	0xbdbb010a	-0.091310576
60	0x3e0d9fbe	0.13830468
61	0x3d945458	0.0724265
62	0xbe1cd751	-0.15316512
63	0xbe2ab12e	-0.16669151
64	0x3cc81ed8	0.02442877
65	0x3dddf614	0.10837951
66	0xbdeaaee8	-0.11459142
67	0x3e160d9f	0.14653634
68	0x3d8646f4	0.06556502
69	0x3e08d50a	0.13362518
70	0xbd96da6e	-0.07365881
71	0xbe0b2492	-0.13588169
72	0x3dca4144	0.0987573
73	0x3d9e5548	0.0773111
74	0xbe16a67a	-0.14711943
75	0xbe01051d	-0.12599607
76	0xbc0b9635	-0.008519699
77	0xbdaf3ac7	-0.08556133
78	0xbe432ff9	-0.19061269
79	0x3dcd77ed	0.1003264
80	0x3db65e7f	0.089047424
81	0x3d62a134	0.055329517
82	0xbe3d8dff	-0.18511198
83	0x3df54cd9	0.11977548
84	0xbdcc754a	-0.099833086
85	0x3dc0a322	0.09406115
86	0x3dd9a97e	0.10628031
87	0x3dceb353	0.10092797
88	0xbe14c892	-0.14529637
89	0x3e2c0887	0.16800128
90	0xbd6b7a1f	-0.05748951
91	0xbc11201e	-0.008857755
92	0xbe4cd0e5	-0.20001562
93	0x3e08cc7d	0.13359256
94	0xbe5eaeeb	-0.21746413
95	0x3d89fa52	0.06737198
96	0x3b03bf69	0.0020103103
97	0xbe415724	-0.18880898
98	0x3d7aa70e	0.061194472
99	0xbdedafa0	-0.116057634
100	0x3e500c8c	0.20317286
101	0x3c98255d	0.018572504
102	0x3e256d3b	0.1615495
103	0xbd61a20d	-0.055086184
104	0xbdcb1d10	-0.099176526
105	0x3df8423d	0.12122009
106	0x3c860d2c	0.016363703
107	0xbe181345	-0.148511
108	0x3d6b91c3	0.057512056
109	0x3dd857ab	0.10563596
110	0xbd4c65ca	-0.04990176
111	0xbe17251c	-0.1476025
112	0x3d29bade	0.041437976
113	0xbe3024c0	-0.17201519
114	0x3d87b644	0.06626561
115	0x3db5113f	0.0884118
116	0xbc92c7f0	-0.017917603
117	0x3ddc5f17	0.107603244
118	0x3e16e507	0.14735804
119	0x3e434d4f	0.1907246
120	0xbde1409e	-0.10998653
121	0x3d0d61a3	0.03451694
122	0x3da56fcb	0.080779634
123	0xbdd95d67	-0.10613518
124	0x3c0066f9	0.007837051
125	0xbd8390a3	-0.06424072
126	0xbd77cd51	-0.06049854
127	0xbd5f6807	-0.054542568
128	0xbe4fc8ad	-0.20291395
129	0x3df9b7b9	0.121932454
130	0x3e371785	0.17880066
131	0xbd728091	-0.05920464
132	0xbe5bea05	-0.2147599
133	0xbbc8c7e6	-0.0061273454
134	0x3e139e03	0.14415745
135	0xbd7c0894	-0.06153162
136	0x3dea35fc	0.11436078
137	0xbdf99bab	-0.121878944
138	0xbda5a8df	-0.0808885
139	0x3e26fbc6	0.16306981
140	0xbe614283	-0.21998028
141	0x3c267825	0.010160481
142	0xbc171a9c	-0.009222653
143	0xbd3919d7	-0.04519066
144	0x3bf4a8bb	0.0074664033
145	0x3e33e036	0.17565998
146	0xbba6a0dc	-0.005085094
147	0xbd0788c1	-0.033089403
148	0x3e1930fc	0.14960092
149	0xbdb30be2	-0.08742501
150	0xbd968a5e	-0.0735061
151	0xbcccd879	-0.025005566
152	0xbe27cb56	-0.1638616
153	0xbe5c1003	-0.21490483
154	0xbe21d536	-0.1580399
155	0x3d12479c	0.035712823
156	0xbdcbe3e4	-0.09955576
157	0x3cce3139	0.025169956
158	0xbda8a415	-0.08234421
159	0x3c969cca	0.01838531
160	0x3d4c57cd	0.04988842
161	0xbe2d291a	-0.1691021
162	0xbc2bebe9	-0.010493257
163	0x3d6218ed	0.055199552
164	0xbe048779	-0.12942304
165	0x3d3f9bbd	0.046779383
166	0x3df3081d	0.11866782
167	0xbdb1bcba	-0.08678575
168	0xbdfe0316	-0.12402932
169	0x3e1ce2a9	0.15320839
170	0x3d9047d3	0.070449494
171	0xbdfac9b0	-0.122455
172	0xbd2d6119	-0.042328928
173	0x3ba016ff	0.004885554
174	0xbe4ca1c5	-0.19983585
175	0xbde81863	-0.113327764
176	0xbe48e0d3	-0.19617014
177	0xbd83bc2c	-0.06432375
178	0x3df52641	0.11970187
179	0x3e5d7067	0.2162491
180	0x3d288110	0.04113871
181	0xbe600f40	-0.21880817
182	0x3dba9e84	0.09112266
183	0xbc9257ec	-0.01786419
184	0xbbba9be9	-0.0056948555
185	0x3dcf5be1	0.101249464
186	0x3e8040a5	0.2504932
187	0xbc3ba78a	-0.011453519
188	0x3e602b3d	0.21891494
189	0x3e14e813	0.14541654
190	0x3c8e75f1	0.017390223
191	0x3e12a2c6	0.14319906
192	0xbe28b8bd	-0.16476722
193	0xbe30b396	-0.17256007
194	0x3e35d5de	0.17757365
195	0xbe04bb69	-0.12962116
196	0x3dc2e858	0.09516972
197	0x3e372c21	0.17887928
198	0xbda30ff4	-0.07962027
199	0x3c8bdc59	0.017072843
200	0xbe009d0b	-0.12559907
201	0x3e4b5aaf	0.19858812
202	0x3cb25226	0.021767687
203	0x3e19a172	0.15002993
204	0xbe95dace	-0.29268497
205	0xbd86e6ed	-0.06587014
206	0xbdd95287	-0.10611444
207	0x3d52d3b0	0.051471412
208	0x3e164704	0.14675528
209	0x3e244241	0.16040899
210	0xbe138271	-0.14405228
211	0x3e4018c0	0.18759441
212	0xbd9634ab	-0.07334264
213	0xbdb65084	-0.08902076
214	0xbc1ff321	-0.009762556
215	0x3d6cc707	0.057806995
216	0x3dea4b42	0.114401355
217	0x3d19e5e6	0.037572764
218	0xbd9d977f	-0.07694911
219	0xbc8b8622	-0.017031733
220	0x3dee75ab	0.11643537
221	0xbd0e5729	-0.03475109
222	0x3d83f2ed	0.06442819
223	0x3e3f061a	0.18654671
224	0xbdba9ae8	-0.09111577
225	0xbd86656a	-0.06562312
226	0xbe3dd635	-0.18538745
227	0x3e02bdcb	0.12767713
228	0x3c9f5e1f	0.01945406
229	0xbdb66647	-0.089062266
230	0xbe8ac3f8	-0.27102637
231	0x3da88652	0.082287446
232	0xbe772bb4	-0.24137765
233	0x3dffb0a2	0.12484862
234	0x3e6ca705	0.23110588
235	0xbd91d712	-0.071210995
236	0xbe27666f	-0.16347669
237	0xbd85df4d	-0.06536732
238	0xbde55065	-0.11196975
239	0x3d4ef969	0.050530825
240	0xbd1ae586	-0.037816547
241	0xbdbc3ad5	-0.09190909
242	0xbe3e44bc	-0.18580908
243	0x3d9a75b6	0.07541983
244	0xbe39ab96	-0.18131861
245	0xbddfbb22	-0.109243646
246	0x3dfdf81f	0.12400841
247	0xbddfa040	-0.10919237
248	0xbd8b3976	-0.06798069
249	0x3de56508	0.11200911
250	0xbe5f398f	-0.217993
251	0xbe492a3f	-0.19645022
252	0xbe1533d8	-0.14570558
253	0xbd086d00	-0.033307076
254	0x3d98434c	0.07434711
255	0x3e1023bc	0.14076132
