pths/net79.pth (torch_old, 34322 bytes, 28 tensors)

AbundanceEstNet.Encoder_0.layers.0.0.conv2d.weight f4 [4, 3, 1, 1]
000000 82 2b fb be ca 27 a2 be ef f4 20 bf ff 7e 4c 3f
       -0.4905663 -0.31670982 -0.6287374 0.7988128
000010 32 2a a9 3d 14 17 2e 3f 8e 1d 34 bf 83 ad 51 bf
       0.08260001 0.68003964 -0.70357597 -0.8190538
000020 0c 75 30 bf 45 f4 1f 3f 19 dd 4c 3e 60 67 09 3f
       -0.689286 0.624821 0.20006217 0.5367336

AbundanceEstNet.Encoder_0.layers.0.0.conv2d.bias f4 [4]
000000 64 34 0c bf 69 b7 77 be 4b 00 52 be 17 d0 df 3c
       -0.5476744 -0.24191059 -0.20507924 0.027320905

AbundanceEstNet.Encoder_1.layers.0.0.conv2d.weight f4 [8, 7, 1, 1]
000000 58 8a 07 bf 47 87 07 3f 3c 48 ca be 4b e0 e7 3e
       -0.5294547 0.5294079 -0.39508235 0.4528831
000010 43 1d 1b 3f 2f 25 e7 3e 30 05 de 3e a4 1e cd 3e
       0.60591525 0.45145556 0.43363333 0.4006244
000020 06 0c 14 bf c9 73 8f 3e e2 5f e9 be 71 9e 14 39
       -0.57830846 0.28018025 -0.45580965 0.00014173404
000030 65 6a 2b bc 01 e7 13 bf cf 9e 8e 3e 9e 76 e0 bd
       -0.010462378 -0.5777436 0.27855536 -0.109601244
000040 17 17 35 3e e8 a7 f6 bc 92 d8 09 3f 29 49 b0 bd
       0.1768459 -0.03010936 0.53846085 -0.08607704
000050 21 ea 34 bf 0b 81 90 bd c0 c9 0d bf 76 87 35 3e
       -0.7066975 -0.07055863 -0.5538597 0.17727455
000060 68 f7 c2 be 2f 11 f2 be 6b a0 be be 14 71 9b 3d
       -0.3807938 -0.47278735 -0.37231764 0.07589927
000070 86 20 50 bd 2b 43 cc 3e c7 0b 56 be f7 78 b6 3e
       -0.050812267 0.39894995 -0.2090293 0.35639164
000080 b7 8d 10 3f b0 25 09 3f a6 5a d7 3e 58 6e a5 bc
       0.5646624 0.5357313 0.42061347 -0.020194218
000090 0d 5e 18 3f 99 86 2b be 3c f6 f3 3e 80 e9 75 3e
       0.5951851 -0.16750564 0.476488 0.24014854
0000a0 d9 11 b3 3e 66 71 19 3f 5c e7 ae 3d a5 0b 02 bf
       0.34974554 0.5993866 0.08540222 -0.5079902
0000b0 c5 53 f5 3d 95 b2 ab 3e fc b8 ec be 12 df b3 be
       0.119788684 0.33534685 -0.46234882 -0.35131127
0000c0 16 b0 ed bd 21 15 d4 3c 13 3f be 3e b3 33 28 be
       -0.11605851 0.025888981 0.37157497 -0.16425972
0000d0 71 c9 47 bc ba 33 de 3e 4b 19 23 3f 78 5d ee 3e
       -0.0121940235 0.4339884 0.6371047 0.46555686

AbundanceEstNet.Encoder_1.layers.0.0.conv2d.bias f4 [8]
000000 8f b9 aa bd 44 a1 88 be 37 68 6e 3e 8f 45 e1 3c
       -0.08336174 -0.26685536 0.23281942 0.027498988
000010 1e ee e1 3d 74 37 cf be 4a 6e 67 bd c8 50 39 3e
       0.110317454 -0.40471995 -0.056501664 0.18097222

AbundanceEstNet.Encoder_2.layers.0.0.conv2d.weight f4 [16, 11, 1, 1]
000000 48 b5 8b bc ed de 89 bb c7 b9 bd 3e 13 2f 2e be
       -0.017054215 -0.004207483 0.370558 -0.17010145
000010 f9 e9 37 be cb 04 a3 be c9 69 82 be df 38 80 3e
       -0.17960347 -0.31839594 -0.25471333 0.2504339
000020 62 2a 9d 3e 13 37 0f 3d 08 46 15 bf 59 d7 e2 3c
       0.30696398 0.034964632 -0.58309984 0.027690576
000030 d3 82 5a 3e 4c 8e d5 3e 77 e9 3c bd c2 48 e2 bd
       0.21338968 0.41710126 -0.046121087 -0.11049034
000040 4d 2a da 3d 4d 6c 9c 3e 2a 90 b2 3d 34 22 57 be
       0.106525995 0.30551377 0.08718903 -0.21009141
000050 f4 15 0a 3d 1e 7e d0 be 44 f8 e4 3e e1 17 51 be
       0.033712342 -0.4072122 0.44720662 -0.20419265
000060 52 3e e3 be bf c3 99 be 2d aa 4b 3e 40 ff 17 3f
       -0.44383484 -0.30032155 0.19889136 0.59373856
000070 b2 ae 18 bc cf 92 08 3e 88 58 f7 3e d4 69 27 3e
       -0.009318994 0.13337253 0.4830973 0.16348964
000080 94 a9 dc 3e fa 43 57 3e ea f6 ba bd 51 99 7d be
       0.43098128 0.21022025 -0.09129126 -0.24765517
000090 52 40 c2 be ee 0a 2e 3e e5 bb d0 3e b5 ed 0b 3e
       -0.37939698 0.16996357 0.40768352 0.13664897
0000a0 bc b6 16 3c 64 f6 9c 3e 89 3d 05 3f 85 92 ae 3c
       0.009198841 0.3065673 0.5204702 0.0213101
0000b0 b9 33 20 3f bf 10 23 be ae 6c 53 bf 74 62 61 be
       0.6257892 -0.15924357 -0.8258771 -0.22010213
0000c0 d3 fb 6b 3e d5 68 33 3f 97 7c a2 be 29 c6 3c 3e
       0.23045282 0.70081836 -0.3173568 0.18434967
0000d0 8f ab 9a 3e 72 8b a9 3d 48 15 91 3d 34 ef 58 3e
       0.30209014 0.0827855 0.07084137 0.21184999
0000e0 6a 3c 5d 3d 03 fa 9c be fb a7 9a be 1d 80 b3 3d
       0.054012693 -0.30659494 -0.30206284 0.0876467
0000f0 7c f4 9a 3e 4f cc 7a be ee 98 6c 3e 89 0c 06 3f
       0.30264652 -0.24492 0.23105213 0.5236288
000100 42 fe a2 3e ae ca c9 3d c1 97 e1 be 0d d7 ca 3d
       0.31834608 0.09853111 -0.44061092 0.09904299
000110 05 2a 7c ba 3e e2 d1 bd 13 2b b7 be d7 07 bc be
       -0.00096192985 -0.102482304 -0.3577505 -0.3672473
000120 17 79 17 3e 2c eb 97 3d 8e c2 b2 bd 39 ff 98 bc
       0.14792286 0.07417902 -0.087285146 -0.018676387
000130 37 89 c8 be 06 aa be 3e 20 c0 a9 be 76 8c bf bd
       -0.39167187 0.37239093 -0.33154392 -0.09352963
000140 2c d1 ea bd 8d 82 f1 3e 64 a2 22 3d 41 34 df 3d
       -0.114656776 0.47169915 0.03970565 0.108986385
000150 95 b7 ca 3e 2e 2d fb 3e 35 55 b1 3e 68 74 0d 3f
       0.39593187 0.49057907 0.3463532 0.55255747
000160 3f 5d bd 3e 70 d8 0e 3e c2 44 15 be f2 8d ad be
       0.36985204 0.13949752 -0.1457701 -0.33897358
000170 26 77 06 3e a6 fe 90 3e d6 41 9d be 21 fd 56 bd
       0.13131389 0.2831928 -0.3071429 -0.052487496
000180 78 e0 26 be 74 98 84 3d 98 b0 da 3e 91 a1 40 be
       -0.16296566 0.064743906 0.42712855 -0.18811633
000190 e0 58 a5 bd 18 2b c0 3e 5f 95 d4 3d a3 c1 81 be
       -0.08073592 0.37532878 0.10380053 -0.25343046
0001a0 9a 4c e7 be 9e 56 1a be 1e 6a 10 be ec d1 7e 3e
       -0.4517563 -0.15072104 -0.1410298 0.24884766
0001b0 fa 48 01 3e bb 3f 17 bf e0 69 04 bf 63 97 71 be
       0.12625495 -0.5908162 -0.5172405 -0.23592906
0001c0 cb 96 82 3e f1 c9 bf 3e 65 35 aa be 07 6b 9d be
       0.2550567 0.37458757 -0.33243862 -0.30745718
0001d0 16 32 02 3e 9a c8 8d be 83 98 2a 3e f4 07 e1 bd
       0.12714419 -0.2769211 0.16659741 -0.10987845
0001e0 99 04 9d be 53 cd eb 3e bd d8 21 bd bf 42 e8 be
       -0.3066757 0.46055087 -0.03951334 -0.45363423
0001f0 f2 4e 02 bf a4 ef 87 3e bf 4f 6b 3e 1e 81 72 be
       -0.5090171 0.2655002 0.2297964 -0.23682067
000200 25 eb 37 3e e2 e7 08 3f 3d 60 97 3e 11 2f 9a 3e
       0.17960794 0.53478825 0.2956561 0.30114034
000210 10 48 fe 3c 55 59 52 be 69 51 84 3e 0c aa 01 be
       0.031040221 -0.2054189 0.2584336 -0.12662524
000220 2a 76 e0 3d 8f 4f 3d be e1 6e c9 bc ad a1 07 3c
       0.10960038 -0.1848738 -0.024589004 0.008278293
000230 1e a6 78 be 5a 5e b4 be 5a d2 fc bc 52 13 b0 be
       -0.24282119 -0.35228235 -0.030862022 -0.3438974
000240 9a 02 a8 3e e4 6f d0 bd 41 80 ba bb aa 27 f4 be
       0.32814485 -0.101775914 -0.0056915586 -0.4768651
000250 55 5c c7 bd 51 22 13 3e 80 cd 83 be 1a 49 96 be
       -0.09734408 0.1436856 -0.25742722 -0.29352647
000260 50 45 07 bf 85 06 30 be f4 2d ac 3e 5c 93 b9 be
       -0.5284014 -0.17189987 0.3362881 -0.3624524
000270 a5 cf 1d be f5 14 50 be e6 3c 0d bd 76 44 d2 3e
       -0.15411241 -0.20320494 -0.034481905 0.41067857
000280 bb 4c ad bd 50 80 2e 3e 82 53 e9 3d a3 34 b6 3e
       -0.08461901 0.17041135 0.11392881 0.35587034
000290 7d 89 fd 3e e5 a8 04 3f 89 5a 90 be 4b f9 be be
       0.49518958 0.5182021 -0.28194073 -0.3729957
0002a0 19 62 a3 3d c9 f5 95 3e 51 44 f2 3e c8 8d 75 be
       0.07977695 0.29289082 0.47317746 -0.23979867
0002b0 17 62 be 3e 53 32 4d bd c5 7f 6f 3e c4 81 68 3e
       0.37184212 -0.05009682 0.23388584 0.22705752

AbundanceEstNet.Encoder_2.layers.0.0.conv2d.bias f4 [16]
000000 bc ba e9 3d 75 02 90 be a7 2e 76 3e 8e 64 8c 3e
       0.1141257 -0.28126875 0.24041234 0.27420467
000010 6b 49 96 be ba 07 c8 3c e2 e1 34 be 67 dd 93 3e
       -0.29352888 0.024417747 -0.17664292 0.28879854
000020 15 a2 56 3e b6 e0 92 3e 5e 88 b5 3d 29 c6 12 3d
       0.20960267 0.28687066 0.088639006 0.03583351
000030 1d 4a 48 3e 82 4d 9e bd c2 ab 7c ba 56 3f 16 3e
       0.19559522 -0.07729627 -0.0009638631 0.14672598

AbundanceEstNet.Encoder_3.layers.0.0.conv2d.weight f4 [24, 19, 1, 1]
000000 8d 4c 08 3e 4a 15 d2 bd 88 ef 55 bd 44 50 40 be
       0.13310452 -0.10257967 -0.052230388 -0.18780619
000010 88 5c 80 be 1f f9 dc bd dc ea 12 be 97 e7 42 be
       -0.25070596 -0.107897036 -0.14347404 -0.19033657
000020 82 a0 53 3e 39 d1 2a be ff f9 8f 3e 21 08 0b be
       0.20666698 -0.16681375 0.2812042 -0.1357732
000030 90 85 81 3c 83 6c 34 3e 9b de 53 bc 67 c4 6b bd
       0.015810758 0.17619519 -0.012931491 -0.05756035
000040 c1 e3 4f be e5 39 e5 bd 53 57 47 3e 59 d1 d1 be
       -0.20301725 -0.11192683 0.19466905 -0.40980032
000050 3e d6 07 3e 7f 22 28 3e f3 52 fb 3d 99 ba b0 3e
       0.1326532 0.16419409 0.12271681 0.34517363
000060 96 6a 99 3e d1 ea 0c be a2 9e ae 3e cd 4e 57 3e
       0.2996413 -0.1376145 0.34105402 0.21026154
000070 50 07 4e be 28 8d 8c be 67 3e 0f 3f b3 32 01 3c
       -0.20119977 -0.27451444 0.55954593 0.007885623
000080 93 4e 85 be 55 c1 91 3e 21 75 1d 3e eb 3b dd 3d
       -0.2603651 0.28467813 0.15376712 0.10802444
000090 35 c6 6b 3e a9 6f c2 3e df 70 97 3d 84 a5 be 3d
       0.23024829 0.37975815 0.07394575 0.09308913
0000a0 22 20 5a be 1e 35 36 3e b0 cd 69 be ce dc 2a be
       -0.2130132 0.177937 -0.2283237 -0.16685793
0000b0 77 65 86 bd 50 2c 28 be bc 15 3e 3d 63 63 c1 bc
       -0.06562322 -0.16423154 0.046407446 -0.023606962
0000c0 9f 27 88 bd f5 0d a2 be e4 1d 29 3e 86 c7 46 3e
       -0.06648182 -0.31651273 0.16515309 0.1941205
0000d0 07 d9 29 bd b1 8d 81 be cf f4 a0 3c 56 46 7d bd
       -0.04146674 -0.25303414 0.019647984 -0.061834656
0000e0 e4 41 96 be bb 8b 17 3e 6e a7 47 bc 53 4a 34 be
       -0.29347146 0.14799397 -0.012185914 -0.17606477
0000f0 db 53 bf bd fb 9e b0 bd ec 3a 94 be 9a c2 48 bc
       -0.09342166 -0.08624073 -0.28951204 -0.012253428
000100 21 f6 30 be f1 47 13 be 31 7a af 3e c8 15 81 3e
       -0.1728139 -0.14382912 0.34272912 0.2521193
000110 94 46 9e be 5b d3 65 3e 09 95 98 bd 09 39 e8 be
       -0.30913222 0.22443907 -0.07450301 -0.45356014
000120 58 c3 84 be d3 f6 b8 bd 72 c9 a1 be 59 f0 80 bd
       -0.25930285 -0.09031453 -0.31599003 -0.06295843
000130 8e 63 fb bd d0 db 70 3d 15 1c ae 3e 65 1f 01 3d
       -0.12274848 0.05880338 0.340058 0.03152408
000140 fb 2b f0 3e 56 50 0c 3e b0 35 eb bd 68 2b 8a 3e
       0.46908554 0.1370252 -0.114848495 0.2698624
000150 de 61 07 bd da 79 89 bd 77 ab 9f be 05 cd a0 3e
       -0.033052318 -0.067126945 -0.31185505 0.31406417
000160 61 df ce 3d ae b4 0a 3d e1 51 ee 3d a4 c1 1a 3e
       0.101012 0.033863716 0.11636711 0.1511293
000170 40 81 6d 3e b9 37 da 3e 64 a2 aa 3e e6 35 d2 3e
       0.23193836 0.42620638 0.3332702 0.41056746
000180 66 ba ff 3d 60 c5 90 be b0 a5 fd 3d 6e 1e ab be
       0.124867246 -0.28275585 0.12385118 -0.33421654
000190 7c 57 2f 3c 58 20 3e 3e 8f de 3d be c6 cc 87 bd
       0.01070201 0.18567026 -0.1854193 -0.06630854
0001a0 f4 5b 34 3e d0 22 88 3e be d9 cf be 7a 80 a2 3d
       0.17613202 0.2658906 -0.40595812 0.07934661
0001b0 54 c6 3e 3e eb 05 ad bd 13 8e 19 3d 1f c1 53 bd
       0.18630344 -0.084483944 0.03748901 -0.051697847
0001c0 a4 d0 b2 be 93 15 01 3d 61 aa c3 be e5 e2 48 be
       -0.34924805 0.031514715 -0.38215926 -0.19617803
0001d0 5a 56 56 3e e8 8b 58 3e 44 2c bf 3e e2 f1 a1 3e
       0.20931378 0.2114712 0.3733846 0.31629854
0001e0 4b 7d 82 be 17 35 1c 3e 40 d8 5c 3e 76 d9 76 be
       -0.25486216 0.15254627 0.21566868 -0.24106392
0001f0 00 e0 c8 be a2 f4 df 3e e2 1e 30 be 97 05 a3 be
       -0.39233398 0.43741328 -0.17199281 -0.31840202
000200 d6 df cb 3e b0 b4 ea 3c 05 5e 7b 3d 53 89 ec 3e
       0.3981921 0.028650612 0.06136896 0.4619852
000210 96 76 19 3e e1 8b d9 be cd c3 8c 3e 07 36 24 bd
       0.14986643 -0.42489532 0.27493134 -0.040090587
000220 1a ef 78 3e 77 ee bc 3e 4d 54 86 3e b7 18 e7 3c
       0.2430996 0.36900684 0.2623619 0.028210027
000230 aa b0 aa bd 55 fb 24 3e cf e6 a5 be 25 2e 6f be
       -0.08334477 0.161115 -0.32402655 -0.23357446
000240 1b b2 e4 bc 0e b0 b0 bd a6 2f 50 bc 7b 6d 7f 3e
       -0.027916959 -0.0862733 -0.012706673 0.24944107
000250 f3 88 49 3e 7a 7c c5 3d 13 c7 59 3e 26 85 19 be
       0.19681148 0.09642883 0.21267347 -0.14992198
000260 57 ad f2 be 24 e2 a1 bd d9 2c 18 3e ba 89 69 3e
       -0.47397873 -0.07904461 0.14860858 0.22806445
000270 55 5f ed 3d 73 f3 5f 3e 3b 7b 1e be 64 33 d6 3b
       0.11590449 0.21870212 -0.15476696 0.006536888
000280 f3 ec ff bc e8 ab 41 be 3f 60 81 be 6b 15 43 3e
       -0.031240916 -0.18913233 -0.25268742 0.19051139
000290 88 6e 89 be 99 4f ad bd c2 9f 58 3e 5b 2b 20 be
       -0.2684214 -0.08462448 0.21154693 -0.15641539
0002a0 c5 47 8c 3e 13 c3 a2 3e 8c 7f 11 be 07 9e 9a be
       0.27398506 0.31789455 -0.14208812 -0.3019869
0002b0 30 31 87 bd 25 d3 d5 3c 95 08 76 3e 56 ce b3 3b
       -0.06601179 0.026101658 0.24026711 0.0054872436
0002c0 9e 39 77 3d 74 c7 da bd 69 7e be 3d 2e 29 37 bd
       0.060357682 -0.10682574 0.093014546 -0.044717006
0002d0 2f cd cd 3d f5 a0 7b 3c 0d 51 5f 3e 36 4b 4d 3e
       0.10048901 0.015358199 0.21808262 0.20048222
0002e0 a6 b4 86 be 47 2f ad 3e 0f d8 33 3c 4e a6 ac 3e
       -0.263097 0.33825132 0.010976805 0.3372063
0002f0 7b 37 aa 3e c5 e5 96 bd 16 f6 7f be eb 1b 26 be
       0.33245453 -0.07368044 -0.24996218 -0.16221587
000300 a4 61 cb 3e 7e b2 bc 3d 22 81 de 3e 91 df ed 3e
       0.3972293 0.09213732 0.43457896 0.4645963
000310 b1 14 92 be e7 8b 89 3e 19 d2 b5 bd 89 17 4b be
       -0.2853141 0.2686455 -0.088779636 -0.19833197
000320 b0 8f a2 be 19 75 f4 3d a6 ae 84 be c5 83 b9 be
       -0.3175025 0.11936397 -0.25914496 -0.36233345
000330 25 52 ab 3d 81 10 b4 3c 4d e5 e4 3d 09 0f bb 3e
       0.08365277 0.021980526 0.11176548 0.36534908
000340 1f e5 36 3e 1f e3 c3 be 53 d5 82 be 7d 1d c0 3e
       0.1786084 -0.38259217 -0.25553378 0.37522498
000350 33 81 99 bd 30 aa be 3d 40 13 b0 3d d9 94 17 bd
       -0.07495346 0.093098044 0.08597422 -0.037007187
000360 79 fd a4 3e e7 60 38 3e e8 6c 20 be 76 2e 21 be
       0.32224634 0.18005715 -0.15666544 -0.1574038
000370 63 2e 87 3e 5d c8 e4 3d 4a d8 33 be 9d 7f 93 3d
       0.26402578 0.11171029 -0.17562976 0.07202075
000380 9d 98 4a 3e 90 98 29 3e 1e 0c 51 3e 75 6d 96 3e
       0.1978478 0.16562104 0.20414779 0.29380384
000390 03 07 78 bd dd d5 e8 bd 9b 28 52 3e 9d a7 87 3e
       -0.060553562 -0.11368916 0.20523302 0.26495066
0003a0 30 97 ff 3c 0c e5 90 3d 7a 1c bb be c5 55 89 3e
       0.031200022 0.07074937 -0.36545163 0.2682325
0003b0 a0 aa bd 3e 33 3b 87 3e 3c 76 6a 3d 9a 5c 1a 3e
       0.3704424 0.26412353 0.057241663 0.15074387
0003c0 68 a2 12 3e 9a da d1 be 7d cc 4a 3e 4f 25 ea 3d
       0.14319766 -0.40987092 0.19804569 0.11432897
0003d0 84 bf ee 3d db c9 95 3e 1b 00 c7 3d 41 4a 7e be
       0.116576225 0.29255566 0.09716817 -0.24833013
0003e0 32 85 6f 3e 2d a3 a5 be 4c a5 a9 be 64 fe 05 be
       0.23390654 -0.32351056 -0.33133924 -0.13085324
0003f0 0e 13 af be 55 d1 eb 3e 88 bc 4e be 9c a3 c6 be
       -0.34194225 0.46058145 -0.20189106 -0.387967

AbundanceEstNet.Encoder_3.layers.0.0.conv2d.bias f4 [24]
000000 62 0e e1 bd f0 f8 ac bd a4 cf 2f 3e f8 81 f7 3d
       -0.109890714 -0.084459186 0.17169052 0.120853364
000010 56 d4 a9 bd e3 3d 52 be 88 e8 22 3e 8b ec 53 be
       -0.08292453 -0.2053142 0.15909016 -0.20695703
000020 22 57 a5 be 13 d5 09 be b6 c0 d2 3d 04 19 04 3e
       -0.3229304 -0.13460188 0.10290663 0.12900168
000030 69 42 f2 3d dd 3c d6 be 73 fe 8e 3d a1 cd 5e be
       0.11829073 -0.4184331 0.06982126 -0.21758129
000040 bf 60 d9 3d 20 d0 5d bd 00 fe 33 be 7e 51 a7 bd
       0.10614156 -0.05415356 -0.17577362 -0.0816984
000050 21 fa 59 be 52 63 63 3e 52 6f 0f be 8a cd 03 3e
       -0.21286823 0.22205856 -0.14007309 0.12871376

AbundanceEstNet.Encoder_4.layers.0.0.conv2d.weight f4 [16, 27, 1, 1]
000000 09 7d 1b be b3 b2 ba 3d a9 aa 80 be f6 c0 f7 bc
       -0.15184416 0.091161154 -0.25130203 -0.030243378
000010 8c 6a 48 3d fe db 9e ba b1 dd e4 3d f5 8a b0 3e
       0.048929736 -0.0012120006 0.11175097 0.34481016
000020 1d 71 0f 3d 4b 3e 49 3e c8 ff 0c be 3f 64 15 be
       0.035019983 0.19652669 -0.13769448 -0.14589022
000030 98 0d b1 bd 1b ce 62 3e c4 fa 09 3e d6 a6 2b 3d
       -0.08645171 0.22148935 0.13474566 0.041907154
000040 47 4b 22 be 6a 1f 7e bd 66 99 6e bc d1 27 a6 3d
       -0.15849029 -0.062041678 -0.01456294 0.08113063
000050 18 be 16 3e be 7e 99 bd 5e ee 0e be da 5e d0 bc
       0.14720953 -0.07494877 -0.13958117 -0.025435854
000060 96 ec 22 3e 7d fa 13 3e c5 58 7d bb 1c 6f 47 3e
       0.15910563 0.14451022 -0.0038657647 0.19475979
000070 e5 47 21 3c 34 8e 00 3e a2 09 c8 3d 57 ce 40 3e
       0.009843801 0.12554246 0.09767462 0.18828712
000080 89 08 c4 3d d1 d7 16 be 5c b6 ea 3d 15 1d ff bd
       0.095719405 -0.14730765 0.114605635 -0.12456719
000090 8b d2 c2 bd 0b 7d f5 bd 09 91 ba bd 28 00 3d be
       -0.09512814 -0.11986741 -0.091096945 -0.18457091
0000a0 95 1a 31 3e c2 03 32 bd 15 32 09 3e ae f7 33 3e
       0.17295296 -0.043460615 0.13398011 0.17574951
0000b0 97 25 d3 3d 25 88 33 3e 04 89 2d bc 02 fc 2c be
       0.10309904 0.17532404 -0.010591749 -0.16893008
0000c0 f4 73 c6 3d 31 45 2a be 90 36 1b 3d 40 f1 ac bd
       0.09690085 -0.16627957 0.03789383 -0.08444452
0000d0 a9 bc ff 3d 59 1f 00 3e eb 1f d2 bb 36 d2 88 bd
       0.12487156 0.12511958 -0.0064124963 -0.066807196
0000e0 03 ba 12 3e 91 23 72 bd df b1 1c be d8 60 fb bd
       0.1432877 -0.05911595 -0.15302227 -0.12274331
0000f0 1b f4 3c be ae 29 14 3e 3b 6e 0f 3e ff 63 41 bd
       -0.18452494 0.14469025 0.14006893 -0.047214504
000100 3c 48 ae 3d 8f 91 d1 3d 2e 19 ae bd 84 8d 14 3d
       0.08509871 0.10232841 -0.085008964 0.036267772
000110 5e e2 1c bd 48 3b b7 bd de 37 f4 bd ec 7a c6 bd
       -0.038301818 -0.08946854 -0.11924718 -0.09691414
000120 68 75 4e bc 41 67 dc bc 37 9f 13 be d4 7c 31 be
       -0.012601234 -0.026904704 -0.14416204 -0.17332774
000130 c9 51 c7 bc 90 95 9c 3d 7c b5 5d 3d d6 f6 0e be
       -0.02433099 0.07645714 0.054128155 -0.13961348
000140 a2 63 c3 3d 08 1e 46 bd b7 e2 3a 3c f3 64 7b 3d
       0.09540488 -0.048368484 0.011406592 0.06137557
000150 c1 c1 e2 3d d1 81 1e 3d 63 ca df bd a6 f5 86 be
       0.11072112 0.03869802 -0.10927274 -0.2635929
000160 cc 00 3e 3d 88 45 61 3e 69 b1 e3 bd ce 6e 5b 3d
       0.04638748 0.2199918 -0.11117823 0.05357247
000170 c3 fe 31 be 85 13 75 be 4f 54 81 3e 4f d4 5d be
       -0.1738234 -0.23933227 0.25259635 -0.2166302
000180 1e 6e 20 3e 85 9b fc 3b 4b b5 8d 3d 08 7f a9 bd
       0.15667006 0.007708969 0.069193445 -0.082761824
000190 d5 08 e2 3d ac 9c 56 3e e6 13 f0 3c d2 29 80 3e
       0.11036841 0.20958203 0.029306363 0.25031906
0001a0 8b 08 19 3e 33 e8 95 3d 5e 23 d7 3d 75 53 06 3e
       0.14944665 0.07319679 0.10504793 0.13117774
0001b0 ae 26 16 3e 20 47 ca 3d d3 4e 3b be 9a 3b 55 3d
       0.14663193 0.09876847 -0.18291788 0.052058794
0001c0 04 6f 2c 3c 53 b9 78 3d 77 ea 2c 3d 49 bf 15 3e
       0.010524515 0.060723614 0.04221579 0.14623751
0001d0 e8 b9 13 be 57 cd f6 bd 83 fa 41 3c ae 24 25 3e
       -0.14426386 -0.12050884 0.011839512 0.16127273
0001e0 2a 80 0b be 1c f8 e4 3b 61 dd 00 bb 05 77 2d be
       -0.1362311 0.0069875848 -0.0019663202 -0.16939934
0001f0 35 0c 4b be b8 12 46 be 6c 63 12 be c9 b7 3b be
       -0.19828875 -0.19343078 -0.14295739 -0.18331827
000200 39 ac 25 bb 0a e8 ca 3d 1b fc ef bd d6 a1 fc bd
       -0.0025279655 0.09907539 -0.11718007 -0.12335555
000210 b2 9d 6f bd ca 29 ad 3d e1 56 21 3e b6 87 b4 bd
       -0.0585 0.08455236 0.15755798 -0.08814947
000220 e9 46 b7 bd 6d 07 81 3d 8b 20 38 be 8d aa e9 3d
       -0.08949072 0.063002445 -0.17981164 0.11409483
000230 49 2d 98 bd 5e 71 b1 3d b8 79 18 3e 6b d4 2f 3d
       -0.074305125 0.08664201 0.14890182 0.042927187
000240 de 04 40 be 48 23 67 bd 5b 21 28 3e af cf 35 be
       -0.18751857 -0.05643013 0.16418974 -0.17755006
000250 22 7c 24 3e f2 e2 15 be 15 55 2b bd 5b b2 09 3e
       0.16062978 -0.14637354 -0.041829187 0.13446943
000260 23 06 3a be 11 d8 35 be fd 8b 1e bd 8b 0e 12 be
       -0.18166403 -0.17758204 -0.038707722 -0.1426336
000270 f9 30 80 bc 1f ab 00 3e 2b c6 c7 3d ed 5d 33 be
       -0.015648352 0.12565278 0.097545944 -0.17516299
000280 d2 a8 4e bd 0d 5f 15 be 2b 23 83 bd 90 54 a3 3d
       -0.05045397 -0.1458704 -0.06403192 0.079751134
000290 2c 47 1a 3c 6d e8 72 3e 15 57 fe 3b 0e 25 9d bd
       0.009416383 0.23721476 0.007761846 -0.07673083
0002a0 f8 bd 7d 3b ea 1d d7 bd 31 e2 21 be e2 87 1f be
       0.0038717967 -0.105037525 -0.15808941 -0.15579179
0002b0 98 a0 e6 3d 4d b5 21 be 51 03 b0 3d fe aa 83 bd
       0.112610996 -0.15791817 0.085943826 -0.064290985
0002c0 76 14 e2 3d 5f a9 76 bd 86 bd 90 3d 5b 4e 18 be
       0.11039059 -0.06022012 0.07067399 -0.1487364
0002d0 eb fa a4 bd d0 5f 7c bc 17 62 42 3c a9 e4 e2 bc
       -0.08055671 -0.015403703 0.011864207 -0.027696924
0002e0 bc c1 ba 3c 45 91 34 3c 93 ef 9f 3d a5 78 75 be
       0.022797458 0.011020963 0.07809367 -0.23971803
0002f0 51 39 40 be 63 35 dd 3d 01 f4 82 bd 87 3b a6 bd
       -0.18771864 0.10801198 -0.06394196 -0.08116823
000300 35 45 32 3d 27 7b f9 3d f1 1d 02 be 71 1d 4a 3d
       0.043523032 0.121816926 -0.12706734 0.049344484
000310 2d 2a cb 3d b4 78 b5 bd 90 75 b8 bc 96 07 12 be
       0.09920154 -0.08860913 -0.022516996 -0.14260706
000320 e9 bd f3 bd fc f5 29 be a7 87 53 3e 48 cf 03 3e
       -0.11901457 -0.16597742 0.20657216 0.1287204
000330 77 74 a3 3d cb 0c 12 3e 00 b0 00 3e bd 42 c4 3d
       0.07981198 0.14262693 0.12567139 0.09583042
000340 b0 33 81 3e a8 2b df 3d 68 9e 2b be 97 1b 7e 3e
       0.25234747 0.10896999 -0.16759646 0.24815212
000350 50 89 1c 3d 82 39 c9 bd 4d 11 a5 3c d4 ae 09 be
       0.03821689 -0.09825422 0.020149851 -0.13445598
000360 e0 f3 82 bc e7 e2 bf 3c f2 a3 ef bd dd 9b 80 bd
       -0.01598543 0.023423625 -0.11701192 -0.062797286
000370 67 6e 19 bc cc 58 85 3e a4 f1 fd bd c1 e2 92 3d
       -0.009364701 0.2604431 -0.12399605 0.07172156
000380 85 00 b3 3d d3 25 81 bd 1d 97 b0 3b a7 c7 60 be
       0.087403335 -0.063060425 0.005389108 -0.21951161
000390 f0 ac a8 bb 32 1e 8d 3e 87 99 ec 3d df 98 ce 3c
       -0.005147569 0.275621 0.115527205 0.025219379
0003a0 19 4e e7 bd e8 dc 56 3d 69 5a 39 3e a9 d9 05 3e
       -0.11294193 0.052456766 0.18100895 0.13071312
0003b0 c9 34 db bd 71 36 1f 3e 2b e5 d4 bd 34 5b 69 3d
       -0.10703427 0.15548111 -0.10395273 0.056971744
0003c0 db df 4e 3e c1 64 af bd 8c a1 2a bd 3f 6d bd 3d
       0.20202582 -0.08564139 -0.04165797 0.09249353
0003d0 ea bc 0b bc 11 ed 25 3d cf 8e db 3d 6f 3e 87 bd
       -0.008528927 0.040509287 0.10720598 -0.06603705
0003e0 30 0d 26 3d 00 3e 04 be b9 45 f1 3c bf 65 23 be
       0.04053992 -0.12914276 0.029452192 -0.15956782
0003f0 58 b8 77 3e 6d 9a 51 bd 61 f8 a5 3b 15 d7 58 3c
       0.24191415 -0.051172663 0.0050650095 0.013234873

AbundanceEstNet.Encoder_4.layers.0.0.conv2d.bias f4 [16]
000000 b7 07 5d be df 71 b5 3c 87 29 05 be 37 9c b3 3d
       -0.21584974 0.022149025 -0.13004123 0.0877003
000010 63 da ad 3c c6 69 25 be 4b c6 21 be 51 48 b4 3d
       0.021222299 -0.1615363 -0.15798299 0.08802856
000020 af b4 38 3d d0 b3 08 be e7 61 cd 3d aa c1 02 3d
       0.04509419 -0.13349843 0.10028439 0.031922974
000030 ca a6 ce bd e5 32 18 3d e4 9d f0 bd b8 ce cf bd
       -0.10090406 0.03715791 -0.11748865 -0.1014685

SpectralMeanEstNet.SpectralGenMean.layers.0.0.weight f4 [18, 16]
000000 12 4f 5e 3d b9 d9 36 3e 1f 94 58 be 0e b4 1d 3e
       0.054274626 0.17856492 -0.21150254 0.15400717
000010 5b ae 2e 3e ec 13 46 3e 70 6c c8 bd 0c 81 5b bc
       0.17058699 0.19343537 -0.09786308 -0.013397466
000020 5f 02 3c 3e e0 77 42 be f9 ca 4f be 75 f6 59 be
       0.1836028 -0.18991041 -0.20292272 -0.21285422
000030 60 33 b6 bd 87 68 5d bd 17 5e cf be cf 18 5d be
       -0.08896518 -0.054054763 -0.40501472 -0.21591495
000040 89 ca 11 3d 3e fd a0 3e 55 6d 16 bd 35 5f 98 be
       0.035593543 0.31443208 -0.03672536 -0.29760137
000050 f4 d9 92 3d 68 aa 43 3e f9 8c b2 be fe 71 6e 3d
       0.071704775 0.19107974 -0.3487318 0.05821418
000060 21 ac 3c 3d cd 5a aa 3d 7e 18 d6 3d 23 e7 f4 bd
       0.046062592 0.083181 0.1045389 -0.11958148
000070 8d 8c 64 3d bb c6 1c be e6 70 21 3e 02 ba 45 bb
       0.055798102 -0.15310185 0.15765724 -0.0030170684
000080 e2 49 82 3c d0 86 89 be 45 2d 82 be 1c 20 1c 3d
       0.01590437 -0.26860666 -0.25425163 0.03811656
000090 2f 01 27 3e 98 cb 6b 3d ee f5 eb bd 52 87 f1 3d
       0.16309045 0.05756721 -0.11521517 0.117933884
0000a0 d2 ab 90 be d5 b2 88 be 9f 88 61 be 7e 18 80 3e
       -0.28256088 -0.26698938 -0.22024773 0.25018686
0000b0 29 8d a9 bd 54 78 18 bc 98 0c d5 bc f5 57 51 be
       -0.08278877 -0.009306032 -0.026006982 -0.20443709
0000c0 88 52 6b 3d ca cc 84 be b3 28 35 be a9 c2 86 3e
       0.057451755 -0.25937492 -0.17691307 0.2632039
0000d0 2e 5f 64 be 7e e6 f7 bd 41 76 ad 3d ea 11 6c be
       -0.22301933 -0.1210451 0.08469821 -0.23053709
0000e0 64 0f f4 3d d6 34 60 3a 0e 46 95 3e c6 9b 92 3e
       0.11916998 0.0008552795 0.2915501 0.2863447
0000f0 74 00 43 3e 0a 02 1a be 74 05 49 be d3 d1 c4 3d
       0.19043142 -0.1503984 -0.19630986 0.09610333
000100 39 eb 99 3e 44 48 d6 bc d4 50 11 be eb f9 06 3e
       0.30062273 -0.026157506 -0.1419099 0.13181274
000110 f3 8a 8b be 5a 37 ba be cd c7 c4 bd 65 2d f3 bc
       -0.27254447 -0.36370355 -0.096084215 -0.029684732
000120 56 b9 ea be e4 60 1c 3e 0b c5 72 3e 6a af 87 bd
       -0.45844525 0.15271336 0.23707978 -0.066252545
000130 af 19 e6 3d ad b0 95 3e 82 1a 3b be 48 35 cc 3d
       0.112353675 0.29236355 -0.1827183 0.099711
000140 4d 76 9b be 1b 28 98 bd f1 56 3d 3e b5 27 11 bd
       -0.30363694 -0.074295245 0.18490197 -0.03543826
000150 77 30 95 3e fd 14 01 3e d3 34 96 be 76 ea 83 bd
       0.29138538 0.12605663 -0.29337177 -0.06441204
000160 82 7c 52 be 99 0b aa be 63 64 8e 3e 24 3c dd 3c
       -0.20555308 -0.33211973 0.27810964 0.027006216
000170 70 f3 aa be 40 04 f4 3d 1c 59 62 be 9a cf a0 3e
       -0.33388853 0.11914873 -0.22104305 0.31408387
000180 4b bb 5f bd eb e8 9d 3e ee 34 60 3d c8 a9 89 be
       -0.054621976 0.30841765 0.054737978 -0.26887345
000190 34 e9 4d be e9 57 00 bc 39 6e ac 3e 3e 42 47 3e
       -0.20108491 -0.007833459 0.33677843 0.19458863
0001a0 29 84 b1 bc 41 77 4d 3e 4f af 0f 3e 97 c7 7c 3e
       -0.021669464 0.20065023 0.14031719 0.24685512
0001b0 ef 8f 5b be b6 2f 53 bd 34 1f a4 be 6b c3 0d be
       -0.21441625 -0.051559173 -0.32055056 -0.13844077
0001c0 f0 8e 43 be fe 2c b2 be 29 ea ec 3d f5 1d a2 bd
       -0.19097495 -0.3479995 0.115681 -0.0791587
0001d0 b6 39 9c 3e b6 51 c1 be ee 5e ad 3c 82 12 7b 3e
       0.3051278 -0.37757653 0.02116343 0.24518779
0001e0 77 46 b6 3d 65 59 8a 3e 0b 5a 94 3e bc 2a c5 be
       0.08900159 0.27021328 0.28974947 -0.38509166
0001f0 dc 46 1c 3d 5e 0b 86 be 15 a0 08 3e b5 5c db bd
       0.038153514 -0.26180547 0.13342316 -0.10711042
000200 f7 22 4f 3d e4 ba 9f 3d c4 e0 c1 3d 6c d6 3f 3e
       0.050570454 0.077993184 0.09466699 0.18734139
000210 eb a3 92 bd 0e fb b1 be 3c fd 14 3e d6 4d 8a be
       -0.07160171 -0.34761852 0.14549726 -0.2701251
000220 7c a4 ed 3d 2d 99 4e be 3e 2b ce 3d b9 54 9d be
       0.116036385 -0.2017562 0.100668415 -0.307287
000230 cc fa 4f bd 54 5d 4b be c4 f0 fe bc 21 0a e6 bd
       -0.050776288 -0.1985982 -0.031120665 -0.11232401
000240 45 39 a6 3e cd e7 e5 3d 23 43 fb 3d bb 5c 96 3e
       0.32465568 0.11225853 0.12268665 0.29367623
000250 e9 c5 85 be c5 65 db 3d aa c0 74 be 28 e2 8d 3e
       -0.26127556 0.107127704 -0.2390162 0.27711606
000260 fa c7 07 3e 6b ce e4 3d 1b d5 10 3e 67 d3 b8 bd
       0.13259879 0.111721836 0.14143793 -0.09024697
000270 55 14 98 bd bc 49 44 3d 44 5e d0 3d 87 f3 1a 3e
       -0.07425753 0.04792188 0.1017423 0.15131961
000280 e3 83 80 be 8b dc 94 bc b4 9c 76 bd 1b 62 0d be
       -0.25100622 -0.01817157 -0.060208037 -0.13806956
000290 e3 bb 47 be a3 15 a5 be aa ca 06 be 78 cc 9a be
       -0.19505267 -0.3224307 -0.13163248 -0.30234122
0002a0 53 87 07 3e 2a cb 16 bd 4c 8a 32 be e4 c1 c2 3c
       0.13235216 -0.036814846 -0.17435569 0.023774095
0002b0 b1 a8 78 3e ef 75 04 3e c2 09 8f bd 22 bd 6c 3e
       0.242831 0.12935613 -0.06984283 0.23119023
0002c0 75 e2 af 3e 2e 22 d4 bd 44 de 96 3e 67 f7 73 be
       0.3435246 -0.10358082 0.2946645 -0.23824845
0002d0 72 ea e0 3c aa 0e ef 3d d8 bd 8a 3e 37 8f 37 3e
       0.027455542 0.11672719 0.27097964 0.17925726
0002e0 fe 34 37 3c d3 e7 3d be f0 80 67 be ba 84 56 bc
       0.011182068 -0.18545465 -0.2260778 -0.013093168
0002f0 9f d9 c3 3e 4a b9 ac 3d 8a d7 b3 3d 3e d0 4f 3e
       0.3825197 0.084337786 0.08781345 0.20294282
000300 86 19 27 3e 08 a4 77 bd bf 66 a3 bd 27 14 44 3e
       0.1631833 -0.060459167 -0.07978582 0.19148313
000310 4b 26 22 bd b2 e8 af 3e 6c 06 6d 3e 84 c8 66 be
       -0.0395873 0.3435722 0.23146981 -0.22537428
000320 4e f1 e1 3e 2c 77 a4 bd 29 a3 0b be 9b a1 a5 3e
       0.44129413 -0.08030543 -0.1363646 0.32349858
000330 ba 0e 82 be d4 8b 4e bc 5d 91 4b 3e 7d 7c 7d 3e
       -0.2540186 -0.01260658 0.1987967 0.2475452
000340 df b3 4e be 6e 27 c4 bd 71 f4 18 be 6d 2d 50 be
       -0.20185803 -0.09577833 -0.14936997 -0.20329829
000350 17 f7 8b 3d db 81 ad 3d 6d e2 ad 3c 7b c2 1e 3e
       0.06834238 0.084720336 0.021226132 0.15503876
000360 cc 02 47 be b4 00 6a 3c 56 eb 0d 3e de af 65 be
       -0.1943466 0.014282394 0.13859305 -0.2243037
000370 dc 5c f3 bd 82 00 a4 bd 47 8a 9b 3d ba dd 0c be
       -0.11882946 -0.08007909 0.07594734 -0.13756457
000380 a5 85 66 be 22 fd b9 bc 87 37 5f be ab de ec bd
       -0.22511919 -0.022703711 -0.21798526 -0.11565908
000390 15 a9 79 be 1c 09 66 3e 7d b7 82 3e 62 a1 99 be
       -0.24380906 0.22464412 0.25530615 -0.30005938
0003a0 44 b4 81 be 40 a9 7c 3d f0 be 88 be e2 a7 8c be
       -0.25332844 0.061684847 -0.26708174 -0.27471834
0003b0 eb 2c 34 be 83 67 ad bd d3 fe 81 3e 6c f3 43 3e
       -0.1759526 -0.08467009 0.25389728 0.19135827
0003c0 aa 86 72 be eb 3d 91 be 37 f1 35 be a1 56 84 3e
       -0.23684183 -0.28367552 -0.17767797 0.25847343
0003d0 67 1d d0 bd 88 86 88 3e 70 5f ed bc e5 51 20 3e
       -0.10161858 0.2666514 -0.028976172 0.1565624
0003e0 07 89 18 3e 02 5c 65 3e 35 c2 15 3e f8 50 91 3e
       0.14896022 0.2239838 0.14624865 0.28382087
0003f0 58 97 c3 3d ff 42 f7 bd 4a f3 f1 3c 98 82 53 3e
       0.09550351 -0.12073325 0.029534955 0.20655286

SpectralMeanEstNet.SpectralGenMean.layers.0.0.bias f4 [18]
000000 8d a8 66 bc ac b0 e5 bc 4f 40 76 bc 74 53 d0 bc
       -0.014078272 -0.028038345 -0.015029981 -0.025430419
000010 04 0f 36 3e bd c9 a2 bd 68 ce 25 bd 93 9f 71 bd
       0.17779166 -0.07948635 -0.040480047 -0.058990072
000020 7d 27 54 bd 0b c3 b9 bc f8 3f 80 bd 9a df cc bc
       -0.05179547 -0.022676012 -0.06262201 -0.025008965
000030 7d e8 49 be dc 6b ec 3d 21 0a 87 bc ac 70 24 bd
       -0.19717593 0.1154401 -0.016484322 -0.040146515
000040 75 df d7 bc 9f 38 53 bc
       -0.02635167 -0.0128919175

SpectralMeanEstNet.SpectralGenMean.layers.1.0.weight f4 [22, 18]
000000 20 9a 40 be 7c 0b b9 bc 84 cc a5 be 56 8e 47 be
       -0.18808794 -0.022588484 -0.32382596 -0.1948789
000010 f9 4c 19 be 9e de f2 bd 56 96 93 be d5 14 1e be
       -0.14970769 -0.11858867 -0.28825635 -0.15437634
000020 88 04 38 be 85 e0 7c be 9d 43 ba 3d 5d 49 34 be
       -0.17970479 -0.24695022 0.090949275 -0.17606111
000030 1f fe 73 3d 1e d4 4a 3e 5f 4b 2f be de 93 e5 bd
       0.05956852 0.19807479 -0.17118596 -0.11209844
000040 a9 6f d0 3d 13 3a 8a bd 0e 25 a7 3e 51 32 49 3e
       0.101775475 -0.06749358 0.32645458 0.196481
000050 c4 35 74 3e 7c 4e ff bd e2 aa be 3c 47 9e 9e 3e
       0.23848635 -0.124661416 0.023274843 0.3098013
000060 4f 1d ec 3d 3e d5 59 be cd 9f 29 3e 38 f3 1d 3e
       0.11529028 -0.21272752 0.16564865 0.15424812
000070 2d da 72 3c 0f 8f 6f 3e 74 13 3b 3e 9b 62 03 be
       0.014822525 0.23394416 0.1826914 -0.12830584
000080 1c 28 20 3d e0 41 a3 bd 6d 5c 82 3e 7f 02 bc bb
       0.03910075 -0.07971549 0.2546114 -0.0057376022
000090 a8 8d fb 39 dd 15 08 3e 78 47 90 3e 62 f5 76 3e
       0.00047979993 0.1328959 0.28179526 0.24117044
0000a0 b0 2a 78 be 1d e1 f1 bd 57 5a a7 3e 94 54 76 bd
       -0.24235034 -0.11810515 0.3268611 -0.060139254
0000b0 6c 8e f1 bc a2 91 a0 3b 55 01 a6 3e 15 db bb 3d
       -0.029486857 0.0049001733 0.3242289 0.09172646
0000c0 4a 08 85 3e 83 67 9f be 3b 08 6c 3e cb ca 84 3e
       0.25982887 -0.3113366 0.23050015 0.2593597
0000d0 08 fe 93 3e cf 9b 4a 3e 69 38 ce bc bb 43 26 be
       0.28904748 0.19785999 -0.025173383 -0.16236775
0000e0 7f ce f8 3d 59 be 76 3e 51 ba 3d 3b 41 08 2f 3e
       0.12148761 0.2409605 0.0028950165 0.17092992
0000f0 31 d1 8d 3d 05 ed f6 bc b1 b6 0b 3e f9 ef 72 3e
       0.06924666 -0.030142317 0.1364391 0.23724355
000100 05 aa 10 3e 8a a3 af 3d 27 99 ee 3d dc 7e 87 bb
       0.14127357 0.085761145 0.11650305 -0.004134996
000110 a7 5b a4 bd 9b 4c 57 3d 3d 9a 17 3e ca ee b0 bd
       -0.08025294 0.05256329 0.14804931 -0.086392954
000120 9f 0f d6 bd 1f 89 a3 be 54 f0 87 be cb 4d 9c bd
       -0.10452198 -0.31940553 -0.26550543 -0.07632025
000130 7a 60 65 bd f9 2e 0d bc 8d b8 44 be d1 1d 10 be
       -0.05600021 -0.008617156 -0.19211026 -0.14073874
000140 5a d1 f6 bd 12 a2 00 be 0a 6c 75 be 1d 0f 31 bd
       -0.120516494 -0.12561825 -0.23966995 -0.043227304
000150 15 7c 05 3d 33 1d 6c bd 73 9e 01 be ed c6 0b 3d
       0.032589037 -0.057645034 -0.126581 0.034125257
000160 d9 f9 66 3b e7 f8 fe bd 02 cf 87 bd dc 87 bf bc
       0.0035244136 -0.12449818 -0.066312805 -0.023380212
000170 a3 49 d8 3d bb e2 3d be d1 32 3d be 4b e3 82 3d
       0.1056092 -0.18543522 -0.18476416 0.06391009
000180 b7 73 e0 3c 71 ba 72 3d ed 29 3e 3e 5b e7 61 3e
       0.027398927 0.059259836 0.18570681 0.22060911
000190 91 36 ae 3e 5f 62 61 bd 44 86 22 be ee 5a 28 3e
       0.34026006 -0.055025455 -0.15871531 0.16440937
0001a0 5c 65 90 3e d3 37 a3 3e 06 b5 38 3e ac 39 90 3e
       0.2820233 0.31878528 0.18037805 0.28169
0001b0 cf 2f 35 bc 91 c6 01 be 95 c7 77 be fc cf 89 be
       -0.011058762 -0.12673403 -0.24197228 -0.26916492
0001c0 c2 2c 03 be e1 50 a3 bd 4a 61 38 3d e0 b2 e1 3c
       -0.12810043 -0.07974411 0.045014657 0.027551115
0001d0 e2 7e 01 be 55 f0 21 bd 74 3e 4f 3d a5 13 27 3d
       -0.12646058 -0.03953584 0.05059667 0.04079022
0001e0 d3 0f 48 bd a2 74 97 3c 95 de 7b bc b9 3d 83 bc
       -0.048843216 0.018488232 -0.015372892 -0.016020643
0001f0 ae ca 4a be b8 3d 2f 3d 2f a4 d1 3d b9 b5 87 bd
       -0.19803879 0.04278347 0.10236394 -0.06626458
000200 13 13 c4 bb 10 9b c5 bc 01 f7 2e be 44 3f 9f bd
       -0.005983719 -0.024121791 -0.17086412 -0.07775739
000210 da d9 76 be f4 3c 27 3e 74 69 81 3b 99 0d c7 3d
       -0.24106541 0.16331846 0.0039493386 0.097193904
000220 1d f8 19 be cb 78 77 3c 6b 2b 1b be 79 da 9e 3d
       -0.15036054 0.015104483 -0.15153281 0.07756514
000230 98 3a 0b be 9a d7 25 be ad 40 57 3e e2 45 10 be
       -0.1359657 -0.16195527 0.21020766 -0.14089158
000240 3a d4 ab 3e 4c cf 76 3e a4 2e 8b 3e 5c 2e 94 3e
       0.33560354 0.24102515 0.2718402 0.2894162
000250 4b 56 5b bc 73 94 5d 3d 41 44 43 3e 50 7f 88 3e
       -0.013387273 0.05409665 0.19069006 0.26659632
000260 47 cf 8b bd 7c 68 73 bd 35 25 18 3e 8b cf 4d 3e
       -0.068266444 -0.059425816 0.14857943 0.20098703
000270 b4 98 88 be 99 a8 a2 3e a1 d2 88 3e 46 34 a1 3e
       -0.26679003 0.31769255 0.26723197 0.31485194
000280 0f b2 23 3c 88 e2 51 bd 55 c0 35 3e 93 c3 9c 3e
       0.009991183 -0.051241428 0.1774915 0.3061796
000290 b3 1b ae 3e 96 fd 34 bd 6c 81 a1 3e e6 d8 a9 bb
       0.34005508 -0.04418715 0.31544054 -0.005183327
0002a0 f9 2d 0f bd 8a ca 6a 3e 8c c2 87 3e 4f f5 24 3e
       -0.034955952 0.22928825 0.26515615 0.16109203
0002b0 9a e1 4a bd 6b d7 c2 3e e3 e5 0b be c6 cf 80 3d
       -0.049531557 0.38054976 -0.13661914 0.0628963
0002c0 d2 4a 5e 3b ad bf 07 be 02 47 74 3d 20 81 64 3e
       0.0033919108 -0.13256712 0.05963803 0.22314882
0002d0 e6 13 1d 3e 98 64 80 3d 32 24 98 3e 5c f4 86 3d
       0.15339622 0.06269187 0.29715115 0.065895766
0002e0 f0 ba d0 bd c0 d0 2b 3d b2 be ad 3d 65 d3 7a 3e
       -0.101919055 0.041947126 0.08483638 0.24494703
0002f0 4b 42 ac 3e 70 02 1d 3e f9 6c ae 3e 1d d3 a8 3e
       0.33644328 0.15332961 0.34067515 0.32973567
000300 88 22 00 3e 5e c6 1d 3e 87 54 22 3e 40 2f 0c 3e
       0.12513173 0.15407702 0.15852557 0.136899
000310 6d 80 b5 3e 7b 58 8e 3d f7 71 a0 be f8 23 9e be
       0.35449544 0.0695047 -0.31336948 -0.30886817
000320 30 57 da 3c 0f 8b 86 be bd f4 a6 bc 63 59 d1 bd
       0.026652902 -0.26277968 -0.020380372 -0.10222127
000330 e6 e1 a5 be 27 85 14 be 21 42 77 bd cb fc a4 bd
       -0.3239891 -0.14503919 -0.0603658 -0.08056029
000340 59 44 19 bc 15 26 41 be bb 96 ff bd 10 fd de bc
       -0.009354674 -0.18862183 -0.124799214 -0.027220279
000350 9b 60 77 be 31 3c f8 bd e0 18 09 be 06 46 6c bd
       -0.24157946 -0.121208556 -0.13388395 -0.057683967
000360 4f 7a 10 be d9 83 c8 3c c6 46 ee bc 61 35 ab bd
       -0.14109157 0.024476932 -0.029086482 -0.083597906
000370 89 2d e0 bd 22 d2 73 3d 7e af 5a bd 45 2a 72 be
       -0.10946185 0.05952657 -0.05339002 -0.23648937
000380 bb 4d 68 be d3 b2 80 bd ef 79 70 bd 55 71 44 be
       -0.22685902 -0.06284108 -0.058710035 -0.19183858
000390 00 2d 5a be 9f 7a a7 3d a4 a0 26 3b c2 03 19 be
       -0.21306229 0.08177685 0.002542534 -0.1494284
0003a0 1b 3e 56 be 0b df d4 3d 89 95 cf bd eb 27 9b 3e
       -0.20922129 0.103941046 -0.101359434 0.30303892
0003b0 ba f3 32 bd 74 66 39 3e f1 e7 f2 3d 4d cf 2c 3e
       -0.043689467 0.18105489 0.118606456 0.16875954
0003c0 88 c6 81 3e b8 e4 92 bb d1 63 05 be 89 0a 91 3d
       0.2534678 -0.004482832 -0.13026358 0.070820875
0003d0 ab cc 06 3e a3 ae dc 3c 3e 33 cf 3d 47 5c 8c 3e
       0.13164012 0.026938742 0.101171955 0.27414152
0003e0 1b 51 e2 bc 46 98 22 3e d7 03 42 3e 54 2a 79 3e
       -0.027626565 0.158784 0.18946777 0.24332553
0003f0 d9 ac 78 bd b2 43 89 be df 26 01 be 01 0f 13 bd
       -0.060711715 -0.2680946 -0.12612484 -0.03590298

SpectralMeanEstNet.SpectralGenMean.layers.1.0.bias f4 [22]
000000 16 7a 2b 3e c6 b0 9a 3c 41 f0 4a 3d fc e7 15 3e
       0.16745791 0.01888312 0.04954553 0.14639276
000010 b2 6e c1 3d e8 bd 00 3c 7a 82 21 bd ce 45 05 bc
       0.094449416 0.007857777 -0.039431073 -0.0081343185
000020 0f 13 88 bd 53 a6 de bd df 99 50 3e 74 91 81 bd
       -0.0664426 -0.108715676 0.20371197 -0.06326571
000030 5e 8b ea 3d 6a f9 4d bc 15 1e 13 3e d5 8e 4b bd
       0.114523634 -0.012571672 0.14366944 -0.049696762
000040 f3 b4 87 bd 35 a5 a1 3d 42 d9 a8 bd d8 57 f1 3d
       -0.0662631 0.07892839 -0.08244564 0.11784333
000050 65 cd 7e bd 93 41 1f 3e
       -0.0622076 0.15552358

SpectralMeanEstNet.SpectralGenMean.layers.2.0.weight f4 [26, 22]
000000 d2 26 ee ba 11 7d ef 3d 7f db 55 3e a3 05 4b 3e
       -0.0018169528 0.116937764 0.20884512 0.19826369
000010 50 d9 f0 bd 4c 57 40 3e 1a 36 27 3e f7 f0 cf bd
       -0.11760199 0.18783301 0.16329232 -0.10153382
000020 d0 69 90 3d e0 d1 ee 3d d5 10 d8 3d e5 61 71 be
       0.07051432 0.11661124 0.105500855 -0.235725
000030 81 92 48 be 33 88 76 3e 09 f8 54 3d 5a 5d fb 3d
       -0.19587137 0.24075393 0.051994357 0.12273665
000040 69 9b 07 b9 dc ca 6b 3e 9b 22 1f 3e 13 c7 d9 bd
       -0.00012932498 0.23026603 0.15540545 -0.106336735
000050 42 38 b2 39 71 9c 1e be 05 a2 94 bd e6 d1 6f bd
       0.0003399272 -0.15489365 -0.07257465 -0.058549784
000060 5e 4a 85 be 22 f9 54 3e 0e a0 62 bd e0 67 39 be
       -0.260333 0.20798162 -0.05532842 -0.18106031
000070 a4 d8 02 be 4e 09 f8 3c 80 e6 46 be b3 a0 87 bd
       -0.12777954 0.030277874 -0.19423866 -0.06622448
000080 23 ca f1 bb d1 1d a4 bd cb 07 b7 3d 93 61 ca 3c
       -0.007378833 -0.080134995 0.08937033 0.02470473
000090 ff 19 e7 3c ec 82 bc be cf 79 ea 3d 72 e2 79 be
       0.028210638 -0.36818635 0.114490144 -0.24402788
0000a0 10 71 5c be ba 34 61 3e 5b d6 3a be 16 bc a6 3d
       -0.21527505 0.2199277 -0.18245833 0.08141343
0000b0 1f 34 11 3e 38 a4 8d bc 5a d9 12 be 75 ef 53 bd
       0.14180039 -0.01729022 -0.14340726 -0.051742036
0000c0 0a 9d 92 3d 76 47 72 be ba 5b eb bb 40 db 1e be
       0.07158859 -0.23660073 -0.0071825655 -0.15513325
0000d0 ef 0d 5e be df 80 be be cd 88 53 be cd 18 e1 3d
       -0.21685003 -0.37207696 -0.20657654 0.109910585
0000e0 96 aa 7d 3d de a1 94 be 7a a6 31 3e ca 10 eb bd
       0.06193026 -0.29029745 0.17348662 -0.11477812
0000f0 74 17 3b 3e 4e 39 07 be 01 74 48 be 8d 4e 16 bd
       0.18270665 -0.13205454 -0.19575502 -0.036696006
000100 39 d5 86 3c 33 8e 73 bd bd 71 25 bc 1d 14 54 3d
       0.016459094 -0.059461784 -0.010097918 0.051776994
000110 47 fa 86 3e 54 0f dc 3d 1f ba 13 3e b1 6c bc 3d
       0.2636282 0.10745111 0.14426468 0.09200419
000120 55 6f 3f be aa 85 1b 3e c3 d7 cb 3d 32 74 ae 3e
       -0.18694814 0.15187708 0.09953263 0.34073025
000130 53 41 5c 3e 17 6c 0d bd 79 bd 59 3d b7 32 35 3c
       0.21509294 -0.03452691 0.05315921 0.011059455
000140 5e 75 30 3e 84 fb e6 3c 27 40 d3 3d 3f 9b 3e bd
       0.17232272 0.028196104 0.103149705 -0.046534773
000150 ab eb b4 3e 39 b9 27 be 8c ba 04 be b6 64 85 3d
       0.3533605 -0.1637925 -0.12961787 0.0651335
000160 96 ef bd bd 8c e5 87 3e 93 f3 7c bb 6b c4 07 be
       -0.09274213 0.26542318 -0.003859733 -0.13258521
000170 63 14 78 bd 97 5a 43 bd cf e5 2f 3e f5 f6 90 3d
       -0.060566317 -0.047693815 0.17177509 0.07078353
000180 ab ae df 3d 0b d7 a7 3e 23 de 59 3e 27 e1 33 be
       0.10921987 0.32781252 0.21276145 -0.17566358
000190 94 59 59 3d 17 3d 0e 3d b1 38 42 be 17 b5 b9 3c
       0.053063944 0.03472623 -0.18966939 0.022669358
0001a0 ec e6 23 3d f3 dc 46 3e 1f 9f bf bb 17 73 b1 be
       0.040015146 0.19420223 -0.005847826 -0.3465812
0001b0 59 27 0c 3e 62 0a 18 be f8 2b 07 3e 8d 5a 6c be
       0.13686885 -0.1484771 0.13200366 -0.23081417
0001c0 22 09 6e bd 20 fa 00 bd 31 0b 03 3e ca 28 53 be
       -0.05811418 -0.031488538 0.12797238 -0.20621029
0001d0 a3 40 b0 bc 4d 1c cd bd d1 be a2 3b cf 75 2b be
       -0.021515196 -0.100151636 0.0049665947 -0.16744159
0001e0 d9 c2 85 be 24 1b 8a 3e ee f3 fd 3d 16 77 a2 be
       -0.2612522 0.26973832 0.124000415 -0.3173148
0001f0 5f 4f e2 bc 2a 4b ed be 5c 12 8d 3d 2d 95 4b bd
       -0.027625738 -0.46346408 0.068882674 -0.049702812
000200 7b 8a 7c 3b f8 ec 0d 3d 46 1e 2f 3e 48 98 00 be
       0.003853469 0.03464982 0.17101392 -0.1255809
000210 2b 2c 05 be 99 86 26 bc 7a 81 26 3e 90 5a 3f 3e
       -0.1300513 -0.0101639265 0.16260329 0.1868689
000220 be 67 df bd bd 95 00 3e 08 21 86 bd 77 b4 24 be
       -0.10908459 0.1255712 -0.06549269 -0.16084467
000230 cc c2 23 3e f5 90 06 bd b3 c3 3c 3e 6b e3 1b be
       0.15992278 -0.032853086 0.18434028 -0.15223472
000240 a4 14 33 3e 75 6c 25 3e 2a b0 31 be f2 19 c1 3e
       0.17488343 0.16154654 -0.17352358 0.37715107
000250 4f 7a c5 bd 61 65 8a bd aa 32 d1 3e 6c e3 cd bd
       -0.09642469 -0.06757618 0.40858966 -0.10053143
000260 a2 04 87 3c a4 dc 1e be 61 74 06 bd ba 2b a7 3e
       0.016481701 -0.15513855 -0.03282583 0.32650548
000270 f6 4e 3f ba d6 86 92 bd 7f af 87 3e dc 43 05 3d
       -0.0007297838 -0.07154624 0.2650108 0.03253542
000280 13 b4 a8 bd d4 84 04 3e 3b 5b 29 3e 58 cd aa bb
       -0.082374714 0.12941295 0.16538708 -0.005212467
000290 5b 00 94 3d 87 bc b1 bc 32 79 2d bc e6 f9 98 3e
       0.0722663 -0.021696342 -0.010587977 0.29878157
0002a0 e7 8e 9f 3e ec 93 8f 3e 1c 6a 0d be ed 85 da 3c
       0.31163713 0.28042543 -0.13810009 0.026675189
0002b0 c4 8b 1f 3d f4 d7 44 be 05 7b a5 bd 3f 80 70 3e
       0.03895165 -0.19223005 -0.08080105 0.23486422
0002c0 4d 6d f2 3d 88 c6 41 be 25 13 c2 be fc 43 cc 3d
       0.11837254 -0.1892339 -0.3790523 0.099739045
0002d0 de db c9 bc 6f d3 be bd 33 84 f6 bd 13 ec 47 bd
       -0.024640974 -0.093176715 -0.12036934 -0.048809122
0002e0 f8 28 02 be bf 1a 97 be b7 6f 0e be 67 25 2a 3e
       -0.12710941 -0.29512593 -0.13909803 0.1661583
0002f0 9e 73 81 3d d3 4f 3e bc 57 d3 1a be 4b ea 55 bd
       0.0632088 -0.011615711 -0.15119682 -0.052225392
000300 0c da 81 be 0c 82 77 be b0 d6 54 be d4 b8 aa bd
       -0.2536167 -0.24170703 -0.20785022 -0.083360344
000310 13 52 4e 3e 10 bf 36 bd 5a 0f b7 bd e7 7f 57 3e
       0.20148496 -0.044615805 -0.08938475 0.21044885
000320 b3 09 e8 3d 7c ea 0f 3e 3e ff e0 3d 04 0c 98 3d
       0.11329975 0.14054292 0.109861836 0.07424167
000330 9b c7 46 be ee d9 8a 3d c9 00 c9 3d 1d f2 56 3e
       -0.19412081 0.06779848 0.09814603 0.20990796
000340 db cb 28 3e 96 0e 25 be 18 9d b7 bd cb 4d b4 bc
       0.16484015 -0.16118845 -0.0896551 -0.02200975
000350 a9 7f 13 3d c8 84 2d 3e 40 05 a0 bd ed 00 d1 3c
       0.036010418 0.16945183 -0.07813501 0.025513137
000360 f2 22 34 3e 17 d7 eb bd 6f c5 4e 3e 52 dd f0 3d
       0.17591456 -0.115156345 0.20192502 0.117609635
000370 fa bc 83 3e 98 b9 a7 be 97 44 b3 be 6d 7c 2a 3e
       0.25730115 -0.32758784 -0.35013267 0.16649027
000380 9b 0d 60 3e cb 68 c4 3c 4a 43 24 be 09 c5 27 be
       0.2188019 0.02397575 -0.16041294 -0.16383757
000390 21 38 76 bb 87 b5 a6 be 00 c2 46 be a9 bc 0c 3e
       -0.0037570077 -0.3256037 -0.19409943 0.13743843
0003a0 4e 6b 65 3e aa 64 7d be b6 d2 41 bd 3d 4f b8 be
       0.22404215 -0.24745432 -0.04732009 -0.35997954
0003b0 b6 d1 1c be fb f1 9e bd f5 91 4f be 3f d3 68 3e
       -0.15314373 -0.07760998 -0.20270522 0.22736834
0003c0 99 c3 ee bd 28 59 52 bd 41 8d 51 be a4 5b 6c be
       -0.11658401 -0.051354557 -0.2046404 -0.23081833
0003d0 19 09 c2 3c 8a cd d5 bc d8 75 43 be 65 01 a5 bd
       0.023685979 -0.026098985 -0.19087923 -0.080569066
0003e0 2a 13 86 3d 2c 1d 8e 3d 37 29 1d 3d d5 19 9e be
       0.06546624 0.06939158 0.038369384 -0.30879083
0003f0 c5 fb 0b 3d 7e 2a 27 be 6b 2f 16 3e b6 5c 6e 3d
       0.034175653 -0.16324803 0.14666526 0.058193885

SpectralMeanEstNet.SpectralGenMean.layers.2.0.bias f4 [26]
000000 e2 59 ff bc fd 0b 1a be da 41 01 3e d4 26 74 bd
       -0.03117079 -0.15043636 0.12622777 -0.059607342
000010 02 17 3b 3d 1c 47 19 3e 37 4a 75 bd db f4 b8 bd
       0.04567624 0.14968532 -0.05988523 -0.090310775
000020 c3 0b 3a 3e 79 b4 f0 3d 9a 93 6c 3e fe 98 f0 3d
       0.18168549 0.117531724 0.2310318 0.11747931
000030 91 cb 2a bd 1f 6c b1 3d 6d d4 95 3d 46 79 a5 3b
       -0.041698042 0.086632006 0.073159076 0.0050498573
000040 4d 10 30 3e 45 e5 03 3d 1c 64 22 be b6 f1 b3 3d
       0.17193718 0.03220107 -0.15858501 0.08786337
000050 f6 fe 81 bd e4 f5 bf bd 63 97 f5 bd d8 40 91 3b
       -0.06347458 -0.09373072 -0.11991765 0.004432779
000060 b7 36 28 3d a1 51 9a bc
       0.041067805 -0.018837752
