pths/net89.pth (torch_old, 34322 bytes, 28 tensors)

AbundanceEstNet.Encoder_0.layers.0.0.conv2d.weight f4 [4, 3, 1, 1]
00000000: 4d36 f2be c192 a0be f7c4 23bf 374b 513f
00000010: f3a7 d83d 17af 2b3f 14ee 31bf dc5f 52bf
00000020: 9375 32bf 7063 203f f355 563e bb77 0a3f
-0.47307053 -0.31361964 -0.6397242 0.81755394 0.10578909 0.6706404 -0.69503903 -0.8217752
-0.69710654 0.6265173 0.20931225 0.54088944

AbundanceEstNet.Encoder_0.layers.0.0.conv2d.bias f4 [4]
00000000: b437 0dbf 9364 82be 1887 55be 1464 f63c
-0.5516312 -0.25467357 -0.20852315 0.030077018

AbundanceEstNet.Encoder_1.layers.0.0.conv2d.weight f4 [8, 7, 1, 1]
00000000: 429c 08bf be81 0b3f 45c1 cbbe 8c6f e83e
00000010: a816 193f 7e75 e83e 19e1 e13e e72e cf3e
00000020: 2b7b 18bf 3721 913e ae51 eabe a910 db3b
00000030: bbab 6abc 17f5 15bf cac5 8f3e a646 0fbe
00000040: f4fd 2f3e a5b0 adbc a549 193f 3c62 65bd
00000050: 4422 3dbf 2eac 84bd 9431 11bf 6f39 3c3e
00000060: db01 c6be 9174 f2be 3d4e c3be ad59 853d
00000070: e045 5bbd c52e d43e 55f2 56be 010b b63e
00000080: b6c1 0c3f 2aaa 083f c56d dc3e bbf7 b8bc
00000090: 2617 1f3f 5f75 35be 0ad4 f83e 99c5 883e
000000a0: 6f90 c03e 5304 183f 3e99 b63d 9a96 06bf
000000b0: f05a 003e 497e a93e df8b f0be a989 babe
000000c0: da3a f0bd 0166 b63c b8b4 c53e 9617 2bbe
000000d0: c52b 36bc 8f6a db3e 891d 243f ad40 f13e
-0.5336343 0.54494846 -0.3979589 0.45397604 0.59800196 0.4540214 0.44117048 0.4046547
-0.5956294 0.28345653 -0.45765442 0.0066853357 -0.01432317 -0.585771 0.2808059 -0.13991794
0.17186719 -0.021202395 0.59878 -0.056001887 -0.7388041 -0.06478153 -0.56716275 0.18381284
-0.3867329 -0.47354558 -0.3814563 0.06511245 -0.053533435 0.41441932 -0.2099088 0.3555527
0.5498308 0.5338465 0.43052498 -0.022579065 0.62144697 -0.17720555 0.48599273 0.26713255
0.37610194 0.593816 0.089159474 -0.5257355 0.1253469 0.3310416 -0.46981713 -0.3643315
-0.11729975 0.022265436 0.3861444 -0.16708216 -0.011118834 0.42854735 0.6410757 0.47119656

AbundanceEstNet.Encoder_1.layers.0.0.conv2d.bias f4 [8]
00000000: e06a a0bd 23ee 8abe 2c43 6a3e 945d b63c
00000010: 0f03 e93d c272 d0be 33e6 74bd 67b9 3d3e
-0.07832885 -0.2713481 0.22877187 0.022261418 0.113775365 -0.40712553 -0.059789848 0.18527757

AbundanceEstNet.Encoder_2.layers.0.0.conv2d.weight f4 [16, 11, 1, 1]
00000000: 13a3 9cbb 9752 253b 7320 cf3e 5545 4bbe
00000010: ece8 30be 7136 b3be 5ddd 8bbe 90d6 813e
00000020: e2c0 bb3e ff6d 843d 1156 1dbf 1687 073d
00000030: a264 573e 0b55 eb3e e498 51bd 12e6 d6bd
00000040: 12a3 b33d 25fb 983e 8eaa bc3d d4b8 45be
00000050: 62f1 223d ba33 d2be ac14 e63e d634 57be
00000060: 6e4b edbe d137 9bbe be95 4e3e 90fe 1d3f
00000070: 8e58 46bc b0b4 0c3e 7181 f23e 149d 283e
00000080: a05f e13e bcdc 5a3e bb53 c2bd 8009 8fbe
00000090: fd5b c5be 18c3 303e 752a df3e 3a79 073e
000000a0: 6037 493c 751b 9a3e 1b32 063f b0ac e73c
000000b0: be9b 213f c0fc 21be 49d7 6bbf b283 6cbe
000000c0: fedd 6e3e 8637 3b3f b0de a6be 17e5 3e3e
000000d0: ec01 9d3e efeb be3d 1dbf 8f3d ec75 5b3e
000000e0: ecc1 403d 7096 a5be 1576 9bbe 21f3 ba3d
000000f0: f68c a63e 7e1a 7fbe f0c5 713e a206 043f
00000100: f80e a43e b1c7 da3d 922d e3be 9a86 d63d
00000110: ee45 bd3c 7e57 c8bd f9c3 b8be 2acd c9be
00000120: 97ea 1a3e d99e 8f3d 50d4 9fbd a7ff a9bc
00000130: b2b5 cdbe ede7 bf3e f5c9 adbe ac9c dabd
00000140: 4c6f f0bd 0b78 f33e 5874 783d e99a d93d
00000150: 3871 cd3e 12a0 f53e 6697 b13e df6f 103f
00000160: 3ee9 c03e 3078 013e 429a 23be 1f19 b1be
00000170: 491d 0f3e 7092 9f3e 652d a1be ab43 2dbd
00000180: 738c 30be 2a32 8e3d 49c2 e33e 13e7 16be
00000190: d89f b6bd e2ce d13e d6d3 283d 03e2 67be
000001a0: e0ca e9be b68d 44be e90a f6bd bbbb aa3e
000001b0: 1da0 373e 5162 1abf 2f12 06bf 9ce3 68be
000001c0: 626f 823e 6923 c83e 55f0 adbe 5867 a4be
000001d0: fbb1 093e 21e4 91be b915 2b3e e594 efbd
000001e0: 60dc a2be 40ac ec3e c6a6 38bd 819f f1be
000001f0: 36af 02bf 883f 893e 48e7 803e b87b 75be
00000200: 50cd 3b3e deba 063f a9fc 973e 6c10 9e3e
00000210: 17c5 203d 504a 57be 90c0 8e3e 84ee 06be
00000220: 9274 ee3d 6d01 4abe 6002 00bd e0c8 633c
00000230: 6b2d 67be 9239 b2be 347a e2bc e948 b1be
00000240: 87ab aa3e e6c5 a0bd 892d 1ebb f377 f5be
00000250: 0a2b fbbd 4e0d 163e d39c 85be 009f 91be
00000260: 3ea0 07bf a715 39be 4bd3 ad3e 4674 bdbe
00000270: 7622 2ebe 6ba7 52be b882 f6bc da48 de3e
00000280: 562f b8bd 5f76 343e 2ec5 db3d d4d0 b73e
00000290: 60eb 003f 0c2d 053f 2a50 93be caac c9be
000002a0: 33f7 9c3d 2d45 973e 1d19 ff3e 5ce9 77be
000002b0: ce4a c03e 2544 7bbd 3a3d 703e 5f00 733e
-0.004780182 0.002522623 0.40454444 -0.19850667 -0.17276353 -0.35002473 -0.27317324 0.2535901
0.36670595 0.064662926 -0.6145945 0.033087812 0.21034482 0.4596332 -0.0511712 -0.10493101
0.087713376 0.29879108 0.09212218 -0.19308788 0.03978098 -0.4105509 0.44937646 -0.21016249
-0.4634661 -0.30316022 0.2017431 0.61716557 -0.012106074 0.13740802 0.4736438 0.1646617
0.4401827 0.21373266 -0.094886266 -0.27936935 -0.38546744 0.17261922 0.4358708 0.13229838
0.012281269 0.30099073 0.52420205 0.028280586 0.6312827 -0.15819073 -0.92125374 -0.23097113
0.23326871 0.731316 -0.32591772 0.18642078 0.3066553 0.093223445 0.07018874 0.21431702
0.04705994 -0.32341337 -0.30363527 0.091284044 0.3252942 -0.2491245 0.23610663 0.5157262
0.3204267 0.10682619 -0.44370705 0.10474892 0.023104634 -0.09782313 -0.36087015 -0.3941434
0.15128551 0.0701272 -0.07804167 -0.020751787 -0.40177685 0.37481633 -0.33943143 -0.10674414
-0.11739978 0.47552523 0.06065783 0.1062525 0.40125442 0.47973686 0.3468582 0.564207
0.3767795 0.12643504 -0.15976813 -0.34589478 0.13976015 0.3116641 -0.31479946 -0.04230086
-0.17241077 0.06943162 0.44484165 -0.14736585 -0.089172065 0.40978152 0.041217647 -0.2264481
-0.45662594 -0.19194683 -0.120138 0.33346352 0.17932172 -0.6030627 -0.52371496 -0.22743076
0.25475603 0.39089516 -0.3397242 -0.32110095 0.134468 -0.2849436 0.16707505 -0.11698321
-0.31808758 0.46225166 -0.045080923 -0.47192004 -0.510486 0.26806283 0.25176454 -0.23972976
0.18340039 0.52628887 0.29684952 0.30871904 0.03925046 -0.21024442 0.2788129 -0.13176924
0.11643328 -0.19727106 -0.031252265 0.013902873 -0.2257592 -0.34809548 -0.027646162 -0.3462594
0.3333399 -0.07850246 -0.0024136028 -0.47943076 -0.122640684 0.14653513 -0.2609621 -0.2844162
-0.52978885 -0.18074666 0.33950266 -0.37002772 -0.17005333 -0.20571677 -0.030091628 0.43414956
-0.089934036 0.1762328 0.107309684 0.3590151 0.50359154 0.5202186 -0.28772098 -0.3938964
0.07664337 0.29544964 0.49823847 -0.24210113 0.3755707 -0.061344285 0.23460856 0.2373061

AbundanceEstNet.Encoder_2.layers.0.0.conv2d.bias f4 [16]
00000000: 02c6 e03d d267 8dbe 9662 7b3e feb3 8c3e
00000010: 02a7 9abe 0e14 023d 03b0 38be 0793 973e
00000020: 52db 623e d534 953e 8998 a63d 0aca 283d
00000030: 80cc 4b3e 7ad4 a5bd 513f ed3b 08cc 1a3e
0.10975267 -0.2761827 0.24549326 0.27481073 -0.30205542 0.031757407 -0.18035893 0.2960436
0.22153977 0.2914187 0.081345625 0.041208304 0.1990223 -0.08097167 0.007240214 0.15116894

AbundanceEstNet.Encoder_3.layers.0.0.conv2d.weight f4 [24, 19, 1, 1]
00000000: 93cb 2a3e 5d59 d7bd 4b59 55bd 99ce 3ebe
00000010: a95a 86be c391 dcbd 51a1 14be 1ae1 3fbe
00000020: e586 543e 9979 1dbe a53e 923e 39b5 0abe
00000030: b8c1 c33c 852b 313e 8386 67bc 1cfa 6abd
00000040: 3ceb 48be b4b7 e2bd eee5 453e d527 dcbe
00000050: 3ea1 013e c348 2c3e 527a 013e 09f9 b63e
00000060: 6eee 993e 4b7c 10be 75e9 af3e 7dfd 5c3e
00000070: 69b3 48be 66cc 8dbe d891 0f3f 8565 8e3c
00000080: d7c8 85be d682 933e fe81 213e 8022 c93d
00000090: 228b 6a3e ea54 c53e 6535 8e3d ee7c cd3d
000000a0: c3c2 65be 9d49 2d3e 7075 79be 792a 37be
000000b0: c98b 62bd 4747 31be 6542 0d3d 45de f0bc
000000c0: 6f2d 71bd 33ca a7be 01e6 1f3e 883b 503e
000000d0: 0870 63bd 35d9 86be dd78 923c 8821 89bd
000000e0: 45b2 9abe 5995 1c3e 0906 e1bb 4ea1 3ebe
000000f0: e4f3 cdbd 5d9e d9bd 33e4 99be 8798 89bb
00000100: ea98 37be eb87 1dbe 832c b03e 45b3 883e
00000110: 3adc a3be 1d1d 623e 2b40 8bbd 5a21 efbe
00000120: 1da3 89be 3ded b6bd 4323 a5be 47ef 9bbd
00000130: ed4e 16be 8593 543d a4d1 b13e a5aa 193d
00000140: 913f f93e 61fe 113e b314 f8bd 108c 8c3e
00000150: b103 c8bc 6d17 94bd 3071 a5be ff98 a33e
00000160: fe94 da3d 61dd f73c c043 ff3d cb1e 223e
00000170: 3723 663e da1c db3e 654e af3e 7fe1 dd3e
00000180: b5b2 093e 4784 96be a15d ea3d f0be b6be
00000190: 68ad 063a d596 483e 8111 46be 3227 a2bd
000001a0: 9981 3a3e 8484 903e 8ed9 d4be d77e 933d
000001b0: 223f 463e 7b20 c8bd 9796 d73c dd85 42bd
000001c0: 5212 b5be 1a30 9e3c da70 cfbe b2f3 50be
000001d0: 6e89 5f3e e031 603e d2c1 c93e b6d2 a53e
000001e0: ba91 86be 6b58 223e 437f 673e 6308 7cbe
000001f0: 81ae cfbe 33af e33e cacc 29be b5a4 a5be
00000200: 5737 d13e dfd3 193d 4e28 623d ecfe ed3e
00000210: 562f 243e a0c0 02bf 55f7 8b3e 5b89 f2bc
00000220: ec5d 813e 3677 c93e fc39 8d3e 93ba 9e3c
00000230: 4b79 9dbd e40b 2e3e 200c b9be cb93 7ebe
00000240: b68d 87bc 5340 ccbd 9e8b abbc 6e40 863e
00000250: b528 543e 01fd d73d 4139 663e cfc9 14be
00000260: a35a 06bf b57c 89bd 1aea 173e d2be 693e
00000270: 84f1 023e 91a6 633e da26 1cbe 0187 563b
00000280: 2151 0fbd cb3e 52be 39cf 82be 6f96 443e
00000290: 80a7 98be e7bd abbd 067b 593e 2d94 20be
000002a0: 6e53 903e 29ca a63e f8e8 1bbe bbbb abbe
000002b0: 7638 8ebd 3200 093d 8910 7b3e fe49 ee3c
000002c0: c42c 8b3d 433e e6bd d3ac c43d 318e 18bd
000002d0: c430 a93d 4eee 9537 e586 663e 3676 493e
000002e0: ab31 88be 7d66 b23e c1ce 953c a26b a93e
000002f0: 1ea6 ab3e 95a1 82bd 0778 8dbe 080a 2abe
00000300: 995e cd3e aa85 c13d dde2 e63e 31c2 ee3e
00000310: 5b6f 93be 9c12 8a3e fde4 abbd 4228 53be
00000320: d9e0 a6be 2cb4 f83d a3fa 83be 3f62 b9be
00000330: d449 b53d d832 d33c 8041 cd3d 2127 ba3e
00000340: 6270 3e3e 1a10 cfbe 8239 84be bc21 c03e
00000350: df34 9abd ef5d ce3d 0fbd a83d 039d 14bd
00000360: a551 a43e 309e 393e 3fec 1fbe 8d90 21be
00000370: d3cc 853e 6786 ed3d 6e8e 30be 3d97 913d
00000380: 8784 4a3e 04a2 1c3e b49a 4c3e c201 983e
00000390: a539 9cbd a13c 03be 322e 683e 7f90 903e
000003a0: 3610 8c3d a00d c03d 1f65 c5be f690 913e
000003b0: 8661 c93e 4e70 843e 202f 063d 4f8e 303e
000003c0: 0665 1c3e d86c dabe b156 663e ffd0 0a3e
000003d0: 14a6 f33d 9b75 9b3e 857d f13d 5231 74be
000003e0: 066a 7e3e ab2f adbe 6118 b0be 01e0 1abe
000003f0: 3a38 b5be a63c f33e 9a0b 5bbe 44a7 cfbe
0.1667922 -0.105150916 -0.05208711 -0.18633498 -0.26241043 -0.10769989 -0.14514662 -0.18738213
0.20754583 -0.15378417 0.2856342 -0.13545693 0.023896083 0.17301758 -0.014131191 -0.05736743
-0.19620985 -0.11070195 0.19325992 -0.4299914 0.12659165 0.16824631 0.12644318 0.35736874
0.3006472 -0.14109914 0.343578 0.21581073 -0.1959969 -0.27695006 0.56081915 0.017382393
-0.2612979 0.28810757 0.15772244 0.098210335 0.22904637 0.38541347 0.06943778 0.10033594
-0.22437577 0.16922612 -0.24361205 -0.17887296 -0.05530909 -0.17312346 0.034487147 -0.029402861
-0.05888122 -0.32771453 0.15615083 0.2033521 -0.055526763 -0.2633759 0.017879898 -0.06695849
-0.30214134 0.15291347 -0.0068671745 -0.1861622 -0.10056284 -0.106259085 -0.30056915 -0.004199091
-0.17929426 -0.1538388 0.3440896 0.26699272 -0.32003957 0.22081418 -0.067993484 -0.46705133
-0.26882258 -0.08931968 -0.32253465 -0.07613998 -0.14678545 0.051898498 0.34730256 0.037516255
0.4868131 0.14257194 -0.12113323 0.2745061 -0.024415823 -0.072310306 -0.32312918 0.31952664
0.10672949 0.030256929 0.12464094 0.15832059 0.22474371 0.4279545 0.34239498 0.43336102
0.13447078 -0.29397795 0.114436395 -0.3569255 0.0005137534 0.19588788 -0.19342615 -0.07917632
0.182135 0.282261 -0.4157223 0.07201927 0.19360021 -0.0977182 0.026316924 -0.047490943
-0.3536554 0.019310046 -0.40515786 -0.20405462 0.21829769 0.21894026 0.39405686 0.32387322
-0.26283056 0.15854041 0.2260714 -0.24612574 -0.40562823 0.44469604 -0.16582027 -0.32352224
0.40862533 0.03755557 0.05521422 0.46483552 0.16033682 -0.5107517 0.27337137 -0.029606512
0.2526697 0.39348763 0.275833 0.019376075 -0.076891504 0.16996723 -0.36142063 -0.24861066
-0.016547065 -0.09973206 -0.020940598 0.2622103 0.20718654 0.105463035 0.22482778 -0.14530109
-0.5248205 -0.06713239 0.14835396 0.22826698 0.12787443 0.22231509 -0.15249196 0.0032734277
-0.03498948 -0.20531766 -0.25548723 0.19198011 -0.29815292 -0.083858304 0.21238336 -0.15681525
0.28188652 0.3257611 -0.1522559 -0.33541664 -0.06944363 0.033447452 0.24518026 0.029088017
0.06795648 -0.11242344 0.09603276 -0.03724498 0.082612544 1.7873153e-05 0.22512396 0.19674
-0.26600394 0.34843817 0.018287065 0.3308993 0.33525175 -0.063784756 -0.27630636 -0.16605389
0.40111235 0.094493225 0.45094958 0.4663253 -0.28795895 0.26967323 -0.083932854 -0.20620826
-0.3259342 0.1214374 -0.25777158 -0.36207768 0.08851972 0.02578108 0.10022259 0.36357978
0.18597558 -0.40441972 -0.25825125 0.37525737 -0.075296156 0.1007651 0.08239185 -0.03628255
0.3209354 0.1812675 -0.15617464 -0.15777798 0.2613283 0.11597901 -0.17241833 0.071089245
0.19777118 0.15296179 0.1998089 0.2968884 -0.07628182 -0.12816097 0.22673872 0.28235242
0.068390295 0.09377599 -0.38553712 0.2843091 0.39332217 0.25866932 0.032759786 0.17241786
0.15272912 -0.42661166 0.22494008 0.13556288 0.11896911 0.30363163 0.11791519 -0.23846939
0.24845132 -0.3382543 -0.343936 -0.15124513 -0.3539446 0.4750721 -0.21391144 -0.405573

AbundanceEstNet.Encoder_3.layers.0.0.conv2d.bias f4 [24]
00000000: b200 d8bd b688 9fbd 6a94 283e 0255 f03d
00000010: d311 9fbd 3a66 59be 32e3 283e 439b 55be
00000020: d556 abbe 8e7e 0abe 4276 d63d 92e9 063e
00000030: 0202 033e 7649 dcbe 0663 a53d f54b 66be
00000040: 4535 c83d e4a5 7dbd 1959 40be 1815 b3bd
00000050: 8178 64be b476 623e d7cc 14be d7d4 f93d
-0.105470076 -0.077897474 0.16462865 0.11734964 -0.077670716 -0.21230403 0.16492918 -0.20860009
-0.33464685 -0.1352484 0.10471775 0.13175038 0.12793735 -0.43024796 0.08075528 -0.22489913
0.09775785 -0.061925784 -0.18783988 -0.08744258 -0.22311594 0.22115594 -0.14531265 0.12198799

AbundanceEstNet.Encoder_4.layers.0.0.conv2d.weight f4 [16, 27, 1, 1]
00000000: fa9b 28be a596 d73d 3a0e 8abe 3e42 3ebd
00000010: 7525 823d e2e3 7ebc 00e7 003e b3a7 b93e
00000020: 8f45 643d 76de 5b3e 4cdb fabd 5b6e 08be
00000030: 0f84 91bd 5997 543e c2ca 183e 15a6 0d3d
00000040: d0b9 34be 056a 9dbd ba61 883a b089 883d
00000050: 5f2a 293e 0dd6 bbbd c9cf 1cbe 6c88 2fbd
00000060: 2837 2f3e 4d7d 1f3e 5a80 2a3b 1c6f 473e
00000070: e547 213c 348e 003e a209 c83d 57ce 403e
00000080: 8908 c43d d1d7 16be 5cb6 ea3d 151d ffbd
00000090: 8bd2 c2bd 0b7d f5bd 0991 babd 2800 3dbe
000000a0: 951a 313e c203 32bd 1532 093e aef7 333e
000000b0: 9725 d33d 2588 333e 0489 2dbc 02fc 2cbe
000000c0: f473 c63d 3145 2abe 9036 1b3d 40f1 acbd
000000d0: a9bc ff3d 591f 003e eb1f d2bb 36d2 88bd
000000e0: 03ba 123e 9123 72bd dfb1 1cbe d860 fbbd
000000f0: 1bf4 3cbe ae29 143e 3b6e 0f3e ff63 41bd
00000100: 3c48 ae3d 8f91 d13d 2e19 aebd 848d 143d
00000110: 5ee2 1cbd 483b b7bd de37 f4bd ec7a c6bd
00000120: 6875 4ebc 4167 dcbc 379f 13be d47c 31be
00000130: c951 c7bc 9095 9c3d 7cb5 5d3d d6f6 0ebe
00000140: a263 c33d 081e 46bd b7e2 3a3c f364 7b3d
00000150: c1c1 e23d d181 1e3d 63ca dfbd a6f5 86be
00000160: cc00 3e3d 8845 613e 69b1 e3bd ce6e 5b3d
00000170: c3fe 31be 8513 75be 4f54 813e 4fd4 5dbe
00000180: 1e6e 203e 859b fc3b 4bb5 8d3d 087f a9bd
00000190: d508 e23d ac9c 563e e613 f03c d229 803e
000001a0: 8b08 193e 33e8 953d 5e23 d73d 7553 063e
000001b0: 4e7d 143e 1454 c13d fc09 33be d6b3 7a3d
000001c0: 1623 df3b dc37 7f3d 83bb 213d ac4c 0a3e
000001d0: 5b48 20be 899e 00be 227e 0c3c 7d4a 253e
000001e0: 3944 07be 79c4 203b aa42 ccbb 303f 30be
000001f0: b0fa 42be dbac 43be a9b7 1abe ca13 3bbe
00000200: 2e67 55bc 13ff da3d 4c4c ecbd 9245 edbd
00000210: c3c7 79bd cf47 a93d 38a2 203e b687 b4bd
00000220: e946 b7bd 6d07 813d 8b20 38be 8daa e93d
00000230: 492d 98bd 5e71 b13d b879 183e 6bd4 2f3d
00000240: de04 40be 4823 67bd 5b21 283e afcf 35be
00000250: 227c 243e f2e2 15be 1555 2bbd 5bb2 093e
00000260: 2306 3abe 11d8 35be fd8b 1ebd 8b0e 12be
00000270: f930 80bc 1fab 003e 2bc6 c73d ed5d 33be
00000280: d2a8 4ebd 0d5f 15be 792e 87bd 3d3e a73d
00000290: 06ee fc3b 2ac0 703e e4ad 1e3c 0ad5 a0bd
000002a0: d2cf c03b 9c36 e5bd 1031 29be 859c 17be
000002b0: 5a4b eb3d c2bc 1fbe 7f72 b73d fcbe 89bd
000002c0: e3ad e53d ff33 7bbd 9c19 8d3d 60d8 1bbe
000002d0: 6249 a6bd 6f44 99bc 5acc da3b 6c11 fabc
000002e0: 0014 aa3c 1346 113c fb26 a43d 61a3 74be
000002f0: 1936 40be 6335 dd3d 01f4 82bd 873b a6bd
00000300: 3545 323d 277b f93d f11d 02be 711d 4a3d
00000310: 2d2a cb3d b478 b5bd 9075 b8bc 9607 12be
00000320: e9bd f3bd fcf5 29be a787 533e 48cf 033e
00000330: 7774 a33d cb0c 123e 00b0 003e bd42 c43d
00000340: b033 813e a82b df3d 689e 2bbe 971b 7e3e
00000350: 5089 1c3d 8239 c9bd 4d11 a53c d4ae 09be
00000360: e0f3 82bc e7e2 bf3c f2a3 efbd dd9b 80bd
00000370: 676e 19bc cc58 853e a4f1 fdbd c1e2 923d
00000380: 8500 b33d d325 81bd 1d97 b03b a7c7 60be
00000390: f0ac a8bb 321e 8d3e 8799 ec3d df98 ce3c
000003a0: 194e e7bd e8dc 563d 695a 393e a9d9 053e
000003b0: c934 dbbd 7136 1f3e 2be5 d4bd 345b 693d
000003c0: dbdf 4e3e c164 afbd 8ca1 2abd 3f6d bd3d
000003d0: eabc 0bbc 11ed 253d cf8e db3d 6f3e 87bd
000003e0: 300d 263d 003e 04be b945 f13c bf65 23be
000003f0: 58b8 773e 6d9a 51bd 61f8 a53b 15d7 583c
-0.1646575 0.1052678 -0.2696398 -0.046449892 0.063548006 -0.015557261 0.1258812 0.36260757
0.0557304 0.21471581 -0.12248859 -0.13323347 -0.07105266 0.2076086 0.14921096 0.034582216
-0.17649007 -0.07686237 0.0010405101 0.06666887 0.1652007 -0.09171686 -0.15313639 -0.04285471
0.17110884 0.15575142 0.0026016445 0.19475979 0.009843801 0.12554246 0.09767462 0.18828712
0.095719405 -0.14730765 0.114605635 -0.12456719 -0.09512814 -0.11986741 -0.091096945 -0.18457091
0.17295296 -0.043460615 0.13398011 0.17574951 0.10309904 0.17532404 -0.010591749 -0.16893008
0.09690085 -0.16627957 0.03789383 -0.08444452 0.12487156 0.12511958 -0.0064124963 -0.066807196
0.1432877 -0.05911595 -0.15302227 -0.12274331 -0.18452494 0.14469025 0.14006893 -0.047214504
0.08509871 0.10232841 -0.085008964 0.036267772 -0.038301818 -0.08946854 -0.11924718 -0.09691414
-0.012601234 -0.026904704 -0.14416204 -0.17332774 -0.02433099 0.07645714 0.054128155 -0.13961348
0.09540488 -0.048368484 0.011406592 0.06137557 0.11072112 0.03869802 -0.10927274 -0.2635929
0.04638748 0.2199918 -0.11117823 0.05357247 -0.1738234 -0.23933227 0.25259635 -0.2166302
0.15667006 0.007708969 0.069193445 -0.082761824 0.11036841 0.20958203 0.029306363 0.25031906
0.14944665 0.07319679 0.10504793 0.13117774 0.14500925 0.09439865 -0.17484277 0.06120666
0.0068096025 0.06230913 0.039485466 0.1350581 -0.15652601 -0.12560476 0.008574994 0.16141696
-0.13209619 0.002453117 -0.006233533 -0.17211604 -0.19040942 -0.19108908 -0.15109123 -0.18269268
-0.013025088 0.10693183 -0.1153799 -0.11585535 -0.060981523 0.082656495 0.15686882 -0.08814947
-0.08949072 0.063002445 -0.17981164 0.11409483 -0.074305125 0.08664201 0.14890182 0.042927187
-0.18751857 -0.05643013 0.16418974 -0.17755006 0.16062978 -0.14637354 -0.041829187 0.13446943
-0.18166403 -0.17758204 -0.038707722 -0.1426336 -0.015648352 0.12565278 0.097545944 -0.17516299
-0.05045397 -0.1458704 -0.06600661 0.08166168 0.0077188043 0.23510805 0.009685013 -0.07853134
0.005884149 -0.111920565 -0.16522622 -0.14805801 0.114889815 -0.15599349 0.08957385 -0.067258805
0.11214807 -0.061328884 0.0688965 -0.1521926 -0.081194654 -0.01870939 0.0066771926 -0.030525886
0.02076149 0.008866805 0.080152474 -0.23890449 -0.18770637 0.10801198 -0.06394196 -0.08116823
0.043523032 0.121816926 -0.12706734 0.049344484 0.09920154 -0.08860913 -0.022516996 -0.14260706
-0.11901457 -0.16597742 0.20657216 0.1287204 0.07981198 0.14262693 0.12567139 0.09583042
0.25234747 0.10896999 -0.16759646 0.24815212 0.03821689 -0.09825422 0.020149851 -0.13445598
-0.01598543 0.023423625 -0.11701192 -0.062797286 -0.009364701 0.2604431 -0.12399605 0.07172156
0.087403335 -0.063060425 0.005389108 -0.21951161 -0.005147569 0.275621 0.115527205 0.025219379
-0.11294193 0.052456766 0.18100895 0.13071312 -0.10703427 0.15548111 -0.10395273 0.056971744
0.20202582 -0.08564139 -0.04165797 0.09249353 -0.008528927 0.040509287 0.10720598 -0.06603705
0.04053992 -0.12914276 0.029452192 -0.15956782 0.24191415 -0.051172663 0.0050650095 0.013234873

AbundanceEstNet.Encoder_4.layers.0.0.conv2d.bias f4 [16]
00000000: f3f3 57be df71 b53c 8729 05be 379c b33d
00000010: be48 e83c c669 25be fb44 20be 5148 b43d
00000020: afb4 383d d0b3 08be 5cfe d73d aac1 023d
00000030: 9467 febd c079 e93c 312b dbbd 7519 d0bd
-0.21089153 0.022149025 -0.13004123 0.0877003 0.028354999 -0.1615363 -0.15651314 0.08802856
0.04509419 -0.13349843 0.10546562 0.031922974 -0.124221 0.028500438 -0.107015975 -0.101611055

SpectralMeanEstNet.SpectralGenMean.layers.0.0.weight f4 [18, 16]
00000000: e19f 773d 397e 2f3e 972c 51be 37c5 153e
00000010: 1e7c 353e 3d3d 393e e487 a5bd b153 1e3c
00000020: 0cf3 373e 8223 3fbe 70d8 56be a817 6abe
00000030: f972 9ebd a9de 82bd d069 d2be 9af2 59be
00000040: 6ffb ed3c f7c6 9a3e 4ec8 3abd 5315 99be
00000050: 674e 923d cf99 433e 9f4e b3be 4964 613d
00000060: c006 2f3d b101 b43d 76de a83d 129f eebd
00000070: dbb4 3e3d 6b9b 30be de82 313e 7281 efbb
00000080: 67bc eb3c 098f 85be 977d 80be 1dc4 0f3d
00000090: d250 1b3e 4c16 763d e75a c9bd 4060 0a3e
000000a0: 4985 8cbe d752 86be 8ef6 66be 369a 823e
000000b0: 543b b7bd 78c8 06bd 1e03 22bc ac7c 63be
000000c0: 6581 443d b301 8bbe be75 24be 8efb 893e
000000d0: 56a0 56be 6e9e debd 82d8 923d ebd6 71be
000000e0: 942c 043e 7201 903b 6533 943e 90f5 8f3e
000000f0: 0185 4d3e cbc6 1bbe 62f5 40be c097 bb3d
00000100: 5424 993e e52b bfbc cd9f 1cbe ef54 163e
00000110: 14c7 88be 882f b4be 3278 b2bd 7882 bebc
00000120: 9473 f5be 1717 0c3e 492c 6e3e 9b12 b8bd
00000130: f03f e43d a6cf 993e 9680 36be 8b4e 953d
00000140: c759 91be a82f adbd 385e 553e 24c1 2abd
00000150: 8531 883e 5ba1 233e fd7f 90be 7795 71bd
00000160: 129a 54be 3d5a b0be eaf3 903e b688 8fba
00000170: 855b afbe 7134 c13d f946 4dbe 6895 b93e
00000180: 2749 4fbd 6b05 983e 5e2d 853d 712f 8fbe
00000190: 0eac 43be e7d9 2d3a 2ea9 b03e dcf4 553e
000001a0: 14da 13bd 3515 423e 69df cb3d 0e76 713e
000001b0: b2e1 5fbe 9ff3 61bd 45da 99be 340c 1abe
000001c0: 6474 40be 5003 b6be ec20 f73d 3cb6 93bd
000001d0: 0bdf 9a3e acbe b9be 5d64 433d 7995 823e
000001e0: 5544 d23d 468f 833e 6cbb 8e3e 4ba1 c8be
000001f0: e8a8 413d 55b5 87be d506 083e 4897 08be
00000200: 41f4 1c3d 04bb 993d d52f c23d 45d7 4b3e
00000210: dc73 73bd 15ad b4be dedc 1a3e c0bb 78be
00000220: 0701 e73d bbfc 67be de1c c73d 2a49 a2be
00000230: 50ae 47bd 3bc3 4fbe 6bdd bdbc 983c 04be
00000240: 6280 9f3e d934 ca3d d0d2 ff3d dc73 9a3e
00000250: 3043 88be 03df e63d 3f66 7fbe 2e0f 903e
00000260: f80b fa3d ad2f c23d 61e2 f23d c37f c0bd
00000270: 1d01 afbd 8af0 233d bc0a f13d ea69 023e
00000280: e972 81be f55d c5bc 9015 4bbd afeb 12be
00000290: 8f70 55be 8ae1 9bbe d389 0dbe 3fec 98be
000002a0: 3540 1d3e 177c debc c259 3ebe 083a a63c
000002b0: c68c 783e 3fea 093e a3dd 4dbd 96cc 713e
000002c0: e2d8 9e3e 76d7 c8bd 6bb6 983e 9d68 6fbe
000002d0: 9ded 1d3d 1e90 de3d 8a89 913e f28c 503e
000002e0: c004 543b f96e 3ebe 7bed 7dbe d77c 01bc
000002f0: 50dc c13e 9b5c 9c3d 28b0 be3d c445 3c3e
00000300: 54a1 043e 6808 90bd 5b89 84bd 1441 353e
00000310: 2b87 0cbd 8681 ae3e e923 693e d32c 5bbe
00000320: 6738 eb3e 6220 66bd 151e 2abe f67b ac3e
00000330: 5cac 81be 0a70 b2bb d3e1 593e 3adb 873e
00000340: 412a 4dbe d00c d8bd fa54 1ebe 7a65 4ebe
00000350: 49a3 4c3d a648 f63d 4147 853d 8d52 1b3e
00000360: c233 2cbe 9635 20bc bbd2 163e e6e7 70be
00000370: f1f7 f4bd 1850 9fbd bd2c bb3d c334 10be
00000380: c185 7abe c8c8 ebbc 480a 58be 1795 efbd
00000390: 5adc 80be de19 643e 39ce 7c3e db96 8fbe
000003a0: 162d 84be 4793 763d a83e 8bbe cab2 8abe
000003b0: 8847 47be 7544 a8bd 666a 873e 1bf3 3d3e
000003c0: 0aa0 7fbe cb08 99be aae0 27be fddc 823e
000003d0: 3007 e2bd e96c 923e 077d 04bd 8c93 243e
000003e0: 8f72 273e 77ce 633e 1cd6 013e 7c73 913e
000003f0: a253 d03d 6dfd 00be 6f75 1a3d 9852 483e
0.060455207 0.17137994 -0.20427166 0.14626013 0.17723128 0.18089767 -0.0808256 0.009663508
0.17963809 -0.18665889 -0.20981002 -0.22860587 -0.07736773 -0.06390125 -0.41096354 -0.21283951
0.029050557 0.30229923 -0.04560118 -0.29899082 0.0714386 0.19101642 -0.3502092 0.05502728
0.042731047 0.08789385 0.08245556 -0.11651434 0.046559196 -0.17246787 0.17335078 -0.0073091323
0.02877636 -0.2608569 -0.25095817 0.035099138 0.15167549 0.060079858 -0.09831791 0.13513279
-0.27445439 -0.26235077 -0.2255499 0.2550828 -0.08946863 -0.032906026 -0.0098884385 -0.22215527
0.047974963 -0.27149734 -0.1606054 0.26949733 -0.20959601 -0.10870062 0.07170202 -0.23617141
0.1290763 0.0043947035 0.2894546 0.28117037 0.20070268 -0.15212552 -0.18843606 0.091598034
0.2991053 -0.02333636 -0.15295334 0.14680837 -0.26714385 -0.35192513 -0.08714332 -0.023255572
-0.47939742 0.13680683 0.23259081 -0.08987924 0.111450076 0.30041236 -0.17822489 0.072903715
-0.28388807 -0.08456355 0.20836723 -0.0416881 0.2660028 0.15979521 -0.28222647 -0.05898043
-0.20761898 -0.34443846 0.28311092 -0.0010950777 -0.3424951 0.094338305 -0.20046605 0.362468
-0.050606873 0.29691634 0.06502794 -0.27965882 -0.19108602 0.0006631896 0.34504074 0.20894188
-0.036096647 0.18953402 0.099547215 0.2358019 -0.2186344 -0.055163976 -0.3004934 -0.15043718
-0.187944 -0.35549402 0.12066826 -0.07212493 0.30248293 -0.36278284 0.047703136 0.25504664
0.102669396 0.25695246 0.27877367 -0.39185557 0.047280222 -0.26505533 0.13283856 -0.13338959
0.038318876 0.075063735 0.094817795 0.19906338 -0.059436664 -0.352883 0.15123317 -0.24290371
0.11279493 -0.22655003 0.09722303 -0.31696445 -0.04875022 -0.20289318 -0.02317687 -0.1291374
0.31152636 0.09873361 0.12491381 0.3016652 -0.2661376 0.11273005 -0.24941348 0.2813658
0.12209314 0.0948175 0.118595846 -0.093993686 -0.08545134 0.040024318 0.117696255 0.12735716
-0.25282982 -0.024092654 -0.04958111 -0.14347719 -0.20843719 -0.3044551 -0.13822107 -0.2986774
0.15356524 -0.02715878 -0.18588927 0.020291343 0.24272451 0.13468264 -0.050260197 0.236132
0.31024843 -0.09806721 0.29826674 -0.2337975 0.038556684 0.10867332 0.28425246 0.20366266
0.0032351464 -0.1859702 -0.24797623 -0.007903299 0.37863398 0.076348506 0.09310943 0.18385988
0.12952167 -0.07032853 -0.06471511 0.17700607 -0.034308594 0.34083194 0.22767605 -0.21403818
0.4594147 -0.056183226 -0.16613038 0.33688325 -0.25326812 -0.005445485 0.21277551 0.26534444
-0.2003565 -0.10549319 -0.15462103 -0.20155898 0.04996041 0.12025575 0.06507731 0.1516821
-0.16816619 -0.009778401 0.14728825 -0.23525962 -0.119613536 -0.077789485 0.091393925 -0.14082627
-0.24465086 -0.028782263 -0.21097672 -0.116983585 -0.25168115 0.22275493 0.24688043 -0.2804478
-0.25815648 0.06019905 -0.2719624 -0.2708953 -0.19460881 -0.08216182 0.26448363 0.18549769
-0.24963394 -0.2988952 -0.16394296 0.25559226 -0.11036527 0.28598717 -0.032345798 0.1607191
0.16352294 0.22246729 0.12679332 0.2840842 0.10172202 -0.12596674 0.03770965 0.19562757

SpectralMeanEstNet.SpectralGenMean.layers.0.0.bias f4 [18]
00000000: f07d 61bc 9201 20bd c44e 6dbc 3677 e9bc
00000010: 9a0e 323e 5be1 97bd 164d 3ebd 4785 7cbd
00000020: 7eb3 40bd d965 c9bc 3eb8 4dbd 20a1 d7bc
00000030: 3703 4abe b7c4 df3d ce61 5fbc c9be 21bd
00000040: 8a9b febc e106 76bc
-0.013762936 -0.039063998 -0.014484111 -0.028499227 0.17388383 -0.0741603 -0.046460234 -0.06165054
-0.047046177 -0.024584698 -0.050224535 -0.026321948 -0.19727789 0.10926192 -0.013634158 -0.039488588
-0.031080026 -0.0150162885

SpectralMeanEstNet.SpectralGenMean.layers.1.0.weight f4 [22, 18]
00000000: a4de 3ebe 4807 a4bc e778 a2be 0ef0 4abe
00000010: 72d0 13be e192 eebd 3267 8fbe 3e5c 1ebe
00000020: 2264 45be d1d2 76be 727d a43d a135 35be
00000030: 62d2 593d 8dbc 473e 87e7 39be 332c fabd
00000040: 759b ce3d 4157 91bd 845f a13e f185 4b3e
00000050: baf8 733e 5ca4 0cbe d47b 953c 12af a43e
00000060: c63f d73d 5733 55be d914 203e 0cf3 193e
00000070: fb8a 353c 6809 693e 18ae 403e dbbd ebbd
00000080: 62ca 4a3d 7d89 54bd 4bbc 773e d16d 413c
00000090: 218e 71bc 09c0 0e3e cd00 8d3e 5c34 6e3e
000000a0: 857e 80be addf e8bd 2759 a13e 294f 8fbd
000000b0: 1046 33bd 29eb e039 428e a33e ce9e b23d
000000c0: e4f6 863e 6ae1 9cbe f9aa 683e 8a57 8a3e
000000d0: df29 8f3e b00d 543e cac4 cebc b660 23be
000000e0: 6735 f43d ee1d 6f3e b02d 91ba 0763 303e
000000f0: d24d 723d 0d15 00bd 8d96 043e 3163 6d3e
00000100: 4f4b 013e 99d5 b03d c28c ef3d bbf6 a53b
00000110: f852 b1bd 51bd 833d 2212 123e 3919 b0bd
00000120: 1126 dabd 8b40 9bbe 7a2d 85be 5d3a 9ebd
00000130: 22eb 58bd 5d94 8dbc 7bc5 40be d509 0fbe
00000140: 4571 07be 7008 fbbd 5737 80be 99f7 2abd
00000150: 12b0 dd3c 978a 70bd 89af 0dbe 4222 f93c
00000160: 63c8 12bb 884e 05be 651b 9ebd 8ba9 c0bc
00000170: c0fd ca3d d0f5 42be 6c52 45be a790 863d
00000180: 7cb3 ba3c 9102 683d 235c 3f3e 60f8 5f3e
00000190: abb6 ac3e c965 6ebd c2cb 19be 257e 2e3e
000001a0: 8fca 913e 7131 a93e 49b7 303e 9b99 923e
000001b0: b8de b4bc e32f 08be 78d8 77be 0336 82be
000001c0: ee59 fbbd a029 94bd 9de8 e53c 9a73 d43c
000001d0: 082b edbd 3458 10bd 62f3 1b3d 1070 c53c
000001e0: 424d 79bd 16e3 793b 3f8d bdbc d391 f3bc
000001f0: c233 3fbe ad72 9d3c ef96 d63d e92e 99bd
00000200: ce33 fdbb eaaf 21bc 6d2b 30be 617d abbd
00000210: 7e3d 73be 3a37 303e cecb b73c 3fe3 bd3d
00000220: 843d 21be 8e05 483c 644e 15be a840 ac3d
00000230: 465e 04be 934d 14be 29a7 533e 2a6c 1abe
00000240: d7cc a93e 6591 743e 9eee 883e d885 923e
00000250: a4dd a0bc 1756 603d 244c 3c3e 56c1 883e
00000260: 1634 80bd 7623 84bd 1165 073e 5d6d 503e
00000270: a1b2 84be 9f26 a83e 015e 8b3e 8a11 a73e
00000280: 157e 8bba b82c 66bd 7325 343e 322b 9c3e
00000290: 298b ae3e 0bec 29bd fc8b 9f3e 212e f2bb
000002a0: 9cba 30bd 63c9 693e 6256 8b3e 40ea 1a3e
000002b0: a56c 7dbd 2443 bd3e 79c6 0bbe 17eb 963d
000002c0: 38db 113b b039 f4bd c8c7 4d3d bb18 643e
000002d0: 2642 183e 8b93 793d 0af2 963e 609a 7f3d
000002e0: 7955 ddbd b5a7 463d f4f0 963d 08a5 7c3e
000002f0: 3731 af3e 33f5 143e a79a aa3e 56fe a63e
00000300: b5be 043e 1984 283e 3269 273e c10c 1b3e
00000310: ea48 b13e 65a0 943d bf43 9ebe 4ebb 9bbe
00000320: cf2f f63c de66 84be e35a 76bc abda dcbd
00000330: ebf8 a0be 46eb 14be 65ca 87bd d4d9 95bd
00000340: f0f7 80bb b73d 3fbe 54c3 04be be2e 14bd
00000350: 799b 7dbe a5f9 09be 9b2b 02be deac 7bbd
00000360: cf64 0fbe 3717 df3c 97ab fabc 9919 aebd
00000370: aa2e d8bd 55d4 353d 615e 3abd b059 6bbe
00000380: eed7 76be 0d55 6cbd 7a37 84bd 6cc9 40be
00000390: bab1 62be d85e a43d 9908 48bc bfd8 1abe
000003a0: cea1 4cbe 1919 d93d 316f e5bd 96dc 993e
000003b0: 1508 3fbd c9d2 363e a283 de3d 83fa 303e
000003c0: 77ce 713e 952a 32bc 1d58 07be 67db 843d
000003d0: 67a1 023e 7047 bd3c 194d e83d 3164 903e
000003e0: e926 25bc 8241 363e b583 3c3e ad15 7b3e
000003f0: 2b60 89bd b137 82be e026 06be 756f 1ebd
-0.18639618 -0.020023003 -0.31732866 -0.19818136 -0.14434984 -0.11649109 -0.2800842 -0.15464875
-0.19276479 -0.24103858 0.08031739 -0.17696239 0.053179152 0.1950552 -0.18154727 -0.122154616
0.10088245 -0.070967205 0.31518185 0.19875313 0.2382535 -0.13734573 0.018247522 0.32164818
0.10510211 -0.20820366 0.15632953 0.15034121 0.011080499 0.22757494 0.18816411 -0.115108214
0.049509414 -0.05188893 0.24192922 0.011805967 -0.014743359 0.13940443 0.27539673 0.23262161
-0.25096527 -0.11370788 0.3151333 -0.069975205 -0.04376799 0.00042899817 0.31944472 0.08721696
0.26360238 -0.30640727 0.22721471 0.27019912 0.27961633 0.20708346 -0.02524032 -0.15954861
0.11924248 0.23351261 -0.0011076238 0.17225276 0.059156246 -0.031270076 0.12948056 0.2318237
0.12626384 0.086344905 0.11696769 0.005064813 -0.08658403 0.064325936 0.1426473 -0.08598561
-0.10651792 -0.3032268 -0.26011258 -0.07725976 -0.052958615 -0.01728266 -0.18825333 -0.13968594
-0.13226803 -0.12257469 -0.2504222 -0.041740034 0.027061496 -0.05872592 -0.13836493 0.030411843
-0.0022397272 -0.13018239 -0.07720069 -0.023518344 0.0991168 -0.19039083 -0.19269723 0.06570559
0.022790663 0.056643073 0.18687491 0.21872091 0.33733115 -0.05820254 -0.15019134 0.17040308
0.28474852 0.33045533 0.17257418 0.28632817 -0.022078857 -0.13299517 -0.2420367 -0.25431833
-0.12273012 -0.07234502 0.02806502 0.02593403 -0.11580473 -0.035240367 0.038073905 0.024101287
-0.060864694 0.0038129739 -0.02313864 -0.02973262 -0.18672088 0.01921972 0.10478007 -0.074796505
-0.007727123 -0.009868601 -0.17204066 -0.083735235 -0.23753926 0.17208567 0.022436049 0.092718594
-0.15746123 0.012208356 -0.14580685 0.0841077 -0.12926587 -0.14482717 0.20669235 -0.15080324
0.33164093 0.23883589 0.2674455 0.2861774 -0.019636936 0.0547696 0.1838842 0.26710004
-0.062599346 -0.06452076 0.13222148 0.20354219 -0.25917533 0.32841966 0.27220157 0.3263057
-0.0010642434 -0.05619499 0.1759241 0.30501705 0.34090546 -0.041484874 0.31161487 -0.007390753
-0.043146715 0.22830729 0.27214342 0.15128422 -0.06187119 0.36965287 -0.1364993 0.073690586
0.0022255909 -0.119250655 0.050239354 0.22275059 0.14868984 0.060931724 0.29481536 0.062403083
-0.10807318 0.04849978 0.07370177 0.2467233 0.34217235 0.14546661 0.33321115 0.32615918
0.12963374 0.16456641 0.16348723 0.15141584 0.34625942 0.07257155 -0.3091106 -0.3041634
0.030052094 -0.2585973 -0.0150363175 -0.10783895 -0.3143991 -0.14542875 -0.066304006 -0.07316938
-0.0039358065 -0.18675886 -0.12965137 -0.03617739 -0.2476634 -0.13474138 -0.12711947 -0.061444156
-0.14003299 0.02723275 -0.030599399 -0.08500976 -0.105557755 0.04439195 -0.045500163 -0.22983432
-0.24105808 -0.0576983 -0.06455894 -0.18826836 -0.2213811 0.080259025 -0.012209081 -0.15121745
-0.19983599 0.1060049 -0.11202849 0.30051106 -0.046638567 0.17853846 0.10864951 0.17283063
0.23613916 -0.01087441 -0.13217206 0.0648716 0.12756883 0.023105353 0.1134283 0.2820144
-0.010080078 0.17798427 0.18409617 0.24519987 -0.06707796 -0.25433114 -0.13100767 -0.038680512

SpectralMeanEstNet.SpectralGenMean.layers.1.0.bias f4 [22]
00000000: 10d8 2c3e ec50 823c 2417 443d 4ba8 113e
00000010: 3ef4 be3d 1a3b 013c 8fd6 33bd 8c39 22bc
00000020: 26aa 89bd 1b25 e7bd d7f9 4d3e 9a8f 79bd
00000030: 3c37 ed3d f1b7 95bc 2a57 0b3e 625d 5dbd
00000040: 0829 66bd a6c4 9e3d bc34 a8bd 421d f33d
00000050: ac1f 7ebd 7b22 193e
0.16879296 0.015907727 0.04787363 0.14224355 0.09323929 0.007887626 -0.04390579 -0.009901416
-0.06721906 -0.11286374 0.20114838 -0.060927965 0.11582801 -0.018276187 0.13607469 -0.054044135
-0.056191474 0.077523515 -0.08213183 0.11870815 -0.062041923 0.1495456

SpectralMeanEstNet.SpectralGenMean.layers.2.0.weight f4 [26, 22]
00000000: 8fac 353b ed46 d83d 8f5a 4b3e 8fd3 463e
00000010: 6bd6 e7bd 9ee2 453e 76a8 323e f426 bebd
00000020: 3881 943d 18bb e03d 1986 d43d 2234 6cbe
00000030: 1e25 46be 1701 733e c1e2 783d 192f ea3d
00000040: 1a08 0f3c 1ebb 693e 238b 123e b9d2 d4bd
00000050: e2e5 453c 149a 19be 6c60 93bd 1897 44bd
00000060: 3c0f 84be 33a6 583e d55a 6cbd 9443 3dbe
00000070: 48d4 13be 5f21 e43c 00f9 43be 88f0 6bbd
00000080: cc7b 99bb 8f17 b0bd 70e0 be3d bbd8 ed3c
00000090: ddc7 bc3c 069d b7be 9728 db3d 0032 75be
000000a0: 9998 55be e916 613e 8035 46be 447b a23d
000000b0: 85b0 123e 7c1e 70bc b81a 14be 44ac 49bd
000000c0: 3c53 923d a56c 7dbe d9e0 87bc 8646 25be
000000d0: 4beb 5dbe 529a babe 4dc6 52be 80dc da3d
000000e0: 332d 863d f4cd 90be c1a5 2e3e 0aa6 e1bd
000000f0: e892 2b3e e15c 05be 1b21 43be 124a 06bd
00000100: 10de 363c 4754 74bd 13c8 bcbb 3204 253d
00000110: e829 813e f3c9 d03d c479 163e 4ee2 c93d
00000120: f279 35be fabf 243e 4305 d53d 6ab9 aa3e
00000130: 6e69 593e 5d1c eebc 16f3 623d 1798 243c
00000140: 3b14 3a3e 53ff 9d3c 74a5 df3d 576b 3abd
00000150: 2a4e ac3e 4ac0 25be 1f60 eebd c2ae 8f3d
00000160: 2a78 b5bd ea89 813e 110b 02bc 472e 0cbe
00000170: 2a57 6fbd 4996 1cbd e3cc 3d3e e1c8 9a3d
00000180: 665d e73d 7026 a53e 8211 593e 71f4 2fbe
00000190: 53d5 643d 47dc 143d cc00 38be 8f3d 553c
000001a0: 6811 543d e0ff 463e c478 92bc aa88 afbe
000001b0: 9105 183e 5869 12be 6660 093e a538 68be
000001c0: 5063 76bd 6ee5 f0bc ac71 033e 5648 5fbe
000001d0: 0a69 f0bc 1132 d6bd 5195 863b 4ed5 23be
000001e0: a746 85be e473 883e 4793 033e d9e1 9ebe
000001f0: ec4c f4bc 3c98 ebbe d6b3 603d 55f1 3fbd
00000200: d754 de3b b0ae 233d cc30 293e 281a 00be
00000210: ce3f 02be 57d7 96bc bb90 233e a3c8 393e
00000220: b1a1 ddbd 8dbf 083e 1eaa 50bd c4c1 1ebe
00000230: 269a 253e 8e7a 18bd 9b3b 3b3e e27b 17be
00000240: ca2f 343e 57ef 263e 3f38 2bbe f27b bb3e
00000250: cf37 afbd f443 87bd cf91 ca3e b7de c7bd
00000260: 8ca7 db3c b324 1bbe e9ad d1bc d758 a03e
00000270: 57d7 8abb 9b50 9dbd d35d 8a3e c2b8 2a3d
00000280: 28e3 81bd ecec 083e 71fa 2a3e 4119 41bc
00000290: 6bd7 933d e610 83bc dfb6 d9bb 7fbf 973e
000002a0: ceba a43e 9796 873e 9246 00be f3cb cb3c
000002b0: ccd5 db3c 0180 3bbe 7a2f 85bd fc64 773e
000002c0: 6f33 fb3d 3549 3fbe 35fb c8be 9be2 ce3d
000002d0: b2db b7bc c0bd e6bd 5b12 05be 62c6 5abd
000002e0: a30c fcbd dd4a 93be b8ba 0ebe 685b 263e
000002f0: 33f7 8f3d 5e5f 1f39 9e8e 19be a465 4fbd
00000300: eff0 8dbe 9e72 6fbe cd05 5abe 6726 9dbd
00000310: 7d97 4b3e 184b 31bd faf2 b3bd 5830 473e
00000320: 4663 d63d f062 063e a181 e03d 09b9 a03d
00000330: 88e1 35be c990 923d 524d cb3d 3902 513e
00000340: 52a0 223e bc72 1dbe cdf6 b4bd 7d73 aebc
00000350: f248 263d 451e 213e 4796 8dbd 0e18 b23c
00000360: 768c 253e 3ea0 e7bd 81ba 5e3e 4a36 f33d
00000370: 46f3 833e 91d8 a1be 9f8c b2be 907b 2e3e
00000380: 1bed 613e d804 2f3c 004d 2bbe 5ce1 30be
00000390: 0ece e7bb 9b12 a2be 7945 44be cebf 073e
000003a0: a1bc 663e 87d8 79be 26f3 48bd abf2 b3be
000003b0: aa2a 2bbe 84bf 9ebd 6cd8 44be aa09 683e
000003c0: 26a7 fabd c76c 56bd 7197 52be ffed 53be
000003d0: c575 c93c 3ed7 b5bc da1c 3fbe 02fd c6bd
000003e0: fd0f 843d 6e5f 7a3d 6313 d73c 7a8b a0be
000003f0: 1214 0d3d 6106 28be 0883 123e d57e 503d
0.002772126 0.10560403 0.19858764 0.1941664 -0.11320194 0.19324729 0.17447075 -0.092847735
0.07251209 0.10973185 0.103771396 -0.23066762 -0.19350097 0.23730884 0.060763124 0.114347644
0.008729959 0.22825286 0.14310889 -0.10391755 0.012078734 -0.15000182 -0.071961254 -0.047995657
-0.25792873 0.2115715 -0.05770381 -0.1848281 -0.14436448 0.027847944 -0.19137955 -0.057602435
-0.004683947 -0.085982434 0.09320152 0.02903401 0.023044521 -0.35861987 0.10701101 -0.23944855
-0.20858993 0.21981396 -0.19356346 0.07933667 0.1432515 -0.014655706 -0.14463317 -0.04923655
0.07144782 -0.24748476 -0.016586708 -0.16140184 -0.21671788 -0.36445862 -0.20583458 0.10686588
0.0655159 -0.2828213 0.17055418 -0.110179976 0.16755259 -0.13023712 -0.19055597 -0.032785483
0.011161342 -0.059650686 -0.0057611554 0.040287204 0.25227284 0.10194769 0.14694887 0.09857617
-0.177223 0.16088858 0.10401394 0.33344585 0.21231624 -0.029066259 0.055407606 0.010046027
0.1817178 0.019286787 0.109202296 -0.045512524 0.33653384 -0.16186634 -0.116394274 0.07015754
-0.0886081 0.25300533 -0.007937209 -0.13689528 -0.058432736 -0.03822926 0.1853519 0.07557846
0.11297111 0.32255888 0.21198085 -0.17183091 0.055867504 0.036342885 -0.17969054 0.013015165
0.051774412 0.19433546 -0.017879851 -0.34283954 0.14845873 -0.14297998 0.1341568 -0.22677858
-0.060153306 -0.029406276 0.12836331 -0.21804938 -0.029346962 -0.10458768 0.0041071554 -0.15999338
-0.26030466 0.26650918 0.1284915 -0.31031683 -0.029821835 -0.46014583 0.054859005 -0.04686101
0.006785016 0.039961517 0.16522521 -0.12509978 -0.12719652 -0.018413229 0.15973179 0.18142943
-0.10821856 0.13354321 -0.050943486 -0.15503603 0.16172084 -0.037226252 0.18284456 -0.14793351
0.17596355 0.16302238 -0.16720675 0.36618 -0.085555665 -0.06604758 0.39564368 -0.09759276
0.026813291 -0.15150718 -0.025595622 0.3131778 -0.0042370963 -0.0768139 0.27024707 0.041680105
-0.06342155 0.13371629 0.16697098 -0.011785806 0.07218822 -0.015999269 -0.0066441144 0.29638287
0.3217377 0.26482078 -0.1252692 0.024877524 0.026835345 -0.18310548 -0.06503196 0.24159616
0.122656696 -0.1868027 -0.39254156 0.10101815 -0.022443626 -0.11266661 -0.12995283 -0.05341185
-0.12307098 -0.28768054 -0.13938415 0.16245806 0.070295714 0.00015198949 -0.1499581 -0.05063404
-0.2772288 -0.23383567 -0.21291275 -0.0767334 0.19882007 -0.043284506 -0.087865785 0.19452035
0.10468154 0.13123679 0.10962225 0.07847793 -0.17761815 0.07156522 0.09926857 0.20411004
0.1588147 -0.15375799 -0.08836136 -0.021295303 0.04059691 0.15734203 -0.06913429 0.021739986
0.16166863 -0.11309861 0.21750833 0.11875589 0.2577154 -0.3161054 -0.3487291 0.17039323
0.22063105 0.010682307 -0.16728592 -0.17273468 -0.007074124 -0.3165482 -0.19167127 0.13256761
0.22532894 -0.24399005 -0.04906001 -0.35146078 -0.16715494 -0.077513725 -0.19223183 0.22659937
-0.12238912 -0.052349832 -0.20565583 -0.20696257 0.02459229 -0.022197362 -0.1866335 -0.09716226
0.06448362 0.061126165 0.026254361 -0.31356412 0.03444297 -0.16408683 0.14307797 0.050902206

SpectralMeanEstNet.SpectralGenMean.layers.2.0.bias f4 [26]
00000000: b003 02bd b5d4 17be aede 033e becc 7cbd
00000010: ae30 393d 6640 1c3e 7dbe 7ebd a5cd b7bd
00000020: 52a5 3d3e 1686 e73d 13a8 703e cebe f43d
00000030: ac02 39bd 11cb b13d c31d 963d 12b0 5b3b
00000040: 622d 313e 0125 033d 2dd9 1ebe cd0a 993d
00000050: f4b8 9bbd 6ad9 c6bd e210 efbd 0d31 30ba
00000060: dddb 313d ee0f c9bc
-0.031741798 -0.14827235 0.12877914 -0.061718695 0.04521244 0.15258941 -0.062193383 -0.089747705
0.18520096 0.11304872 0.23501615 0.119504556 -0.045168564 0.0868131 0.07329895 0.0033521694
0.17302468 0.03201771 -0.15512533 0.07472763 -0.076036364 -0.09709437 -0.11673142 -0.00067211763
0.04342257 -0.024543729

SpectralMeanEstNet.SpectralGenMean.layers.3.0.weight f4 [30, 26]
00000000: b908 b3be 3593 ea3d 4405 4e3e 72c0 4dbd
00000010: 5ea6 04be 9894 2d3e b910 58be 1192 b9ba
00000020: 15a3 623e d8e7 20be 667f 3b3e 705a 26be
00000030: b414 e23c 3348 fc3c 7b53 60be 7065 0b3d
00000040: 23db bfbc 11ad a13d 3ccd dabc df20 063e
00000050: cd88 3fbc 1f51 11be a8f0 7bbd 3732 09be
00000060: 020d 533e c25e 203e 66b0 e53d 2623 823d
00000070: 8606 bfbd 5c13 a5bd eb49 b2bc 497b 7dbe
00000080: 3591 28be e3d0 b03d 0dbc 75be bfc0 f23d
00000090: f3f9 6a3d 42a1 95bd 1bb6 263e 28a5 12be
000000a0: ba75 d9bd 576c 1c3e 2f74 2e3e 7f8f e83d
000000b0: 2fcf 57be 4daa 2dbe 118f 10be 4dca cdbd
000000c0: 2890 663d 6daf dcbd 7ca4 2ebe f060 2dbe
000000d0: 29ac 383e 8dc1 c53d 6f45 063e 0ffd 2c3e
000000e0: 9038 ad3d b1cc 00bd 11fe bbbd 2f22 abbd
000000f0: 994b 0e3e 265d 873d 2ce8 1ebe b733 27be
00000100: fa55 1c3d c40a dc3d 4547 f9bd 8826 0f3e
00000110: 4038 7b3d 46e9 003e 45ae 88bd 2f9d 12be
00000120: e6ff bf3d d094 853d 3408 11be 6081 00be
00000130: efe6 fcbb 96a2 a3bd 9d94 2abe 5207 a03d
00000140: 7ed0 973d 9b10 ad3d 7e03 1fbe e9df e63d
00000150: 9ce4 9ebd c08e cb3d dfde c53d 11ad ef3d
00000160: c394 1cbe 72c8 313e 1fd2 a9bd 068b 883c
00000170: 8caa 30be 0416 213e 28ff 5cbe 2966 943d
00000180: 9f2e 88bc d659 33be 9e5a e33c 58d4 ddbd
00000190: f829 3c3e 978c 3fbb cae8 133e dc9d a4bd
000001a0: 0c24 d2bd df87 fd3d 38f0 783c 6d95 14be
000001b0: 869c 5a3d 3d3e d43d 36b8 25bd 1ab4 16be
000001c0: b192 133d afc8 30be 76ff 803d ee7f a13d
000001d0: 08e7 24bc 05c3 d73d 46f1 1a3e 0887 423e
000001e0: 0ef7 e4bd dec2 fe3c 7c11 a43d 7e04 e5bd
000001f0: e169 fd3c a6c5 76bd cf49 88bd 1827 42bd
00000200: 8c8d 4fbe 8a79 fc3d 559d 2d3e 7d96 55bd
00000210: f6c2 53be d4c3 78bc 7400 0f3e 7cb4 61bd
00000220: 6707 c23d 7b40 f8bd 3f7b 9abd 2bd9 203e
00000230: 34f1 5cbe f3fc 703c ca72 2ebb f244 38bd
00000240: 8121 963a 051c 2d3e 0f37 3cbc 05ec 0dbd
00000250: 23e9 213e 19ed b9bd a7d1 94bd e3eb 15bd
00000260: 8c4b 20be 0752 5ebe e679 1abe f243 0d3d
00000270: 6e70 debd 372a f83c 8a0e 8ebd 8a3b 583c
00000280: b84b 323d a1f5 24be aec9 55bc 89f9 583d
00000290: 96ac e0bd d813 3f3d cadb 113e 7649 a3bd
000002a0: fd81 f3bd 1bd6 193e d6d4 853d 4a6d 02be
000002b0: f4fa febc 69d4 253c a8e4 4bbe 8938 f6bd
000002c0: 5617 38be defe 8ebd 5cf0 f53d 0d93 7a3e
000002d0: 1e68 5a3d c1c2 58be 2ac5 aa3d fc61 0fbc
000002e0: bfae d4bb d16d c03d 1051 7a3e 1eeb 47bc
000002f0: 2e21 4e3e 100f 173e 1b45 143c 6d70 0a3e
00000300: 8016 31be c7b8 33be 59cd 3e3e 719b 06be
00000310: 1aba b33d 42b1 303e d532 b9bd 1d57 293c
00000320: 8d22 e6bd 27f7 423e bf33 fe3c a0dd 133e
00000330: 2468 90be 4178 9abd 3c31 d9bd af88 503d
00000340: 8da0 113e 568e 2b3e 8ec6 11be f26e 3c3e
00000350: de95 97bd ed2f c1bd 6b43 d0bb 65a4 823d
00000360: f60b ef3d e723 063d f6cb 99bd 8811 2bbd
00000370: 673c 063e ba78 2cbd 97f3 713d 9e75 3c3e
00000380: 11a3 cdbd d80f 8ebd 1e0c 39be 8235 e03d
00000390: b5e3 023d 581b b5bd d188 89be a032 fe3d
000003a0: 16f3 75be 259d 0e3e 842f 613e 6ee7 81bd
000003b0: 2f55 1fbe c22d 95bd c6f1 f2bd 98b7 6d3d
000003c0: 1be0 5bbd eb95 c2bd 6581 3dbe af6f 8c3d
000003d0: b8f0 3abe 02a4 dfbd 5e72 063e 8b3c debd
000003e0: f433 97bd c9da d53d 19da 67be efb6 49be
000003f0: 96d9 0cbe 99e2 18bd 7753 983d edd1 033e
-0.34967592 0.11453859 0.20119196 -0.05023236 -0.12954089 0.16951215 -0.21100129 -0.0014157911
0.22132523 -0.15713441 0.18310317 -0.16245437 0.027597763 0.030796146 -0.21906845 0.034032285
-0.023419922 0.07894338 -0.026709192 0.13098477 -0.011690331 -0.14191101 -0.061508805 -0.13398062
0.20610431 0.15661147 0.11215286 0.0635436 -0.09327416 -0.08060333 -0.021763762 -0.24754061
-0.16461642 0.08633592 -0.23997517 0.1185317 0.057367276 -0.07306148 0.16280405 -0.14320815
-0.10618158 0.15275703 0.17036508 0.11355495 -0.21075128 -0.16959496 -0.14117076 -0.100483514
0.056289822 -0.10775647 -0.17054933 -0.1693151 0.18034424 0.096560575 0.13112424 0.16893409
0.08458054 -0.03144521 -0.09179319 -0.083561294 0.13896026 0.066095635 -0.15518254 -0.16328321
0.03816793 0.10744241 -0.12171797 0.13979542 0.06133294 0.12588987 -0.06673864 -0.14317773
0.09374981 0.06522524 -0.14163285 -0.12549353 -0.007717959 -0.07989995 -0.16658254 0.07813896
0.074128136 0.08450433 -0.15528676 0.11273176 -0.077584475 0.09939337 0.0966165 0.11702932
-0.15291123 0.1736162 -0.082920305 0.016667854 -0.17252558 0.15731055 -0.2158171 0.07246048
-0.016623793 -0.17514738 0.02775317 -0.10831517 0.18375385 -0.0029228085 0.1444427 -0.08037922
-0.10260782 0.12379431 0.015193991 -0.14510126 0.05337193 0.103634335 -0.04045888 -0.14717141
0.036028568 -0.17264055 0.06298725 0.07885729 -0.010064848 0.10535244 0.15131101 0.18996823
-0.111799344 0.03109878 0.080111474 -0.111824974 0.030934276 -0.060247086 -0.06654703 -0.047400564
-0.2026884 0.12327869 0.16954549 -0.05214547 -0.2067984 -0.015183408 0.13965017 -0.055103764
0.09474068 -0.12121674 -0.075430386 0.15707843 -0.21576387 0.014708745 -0.0026618713 -0.044987626
0.0011454077 0.1690522 -0.011487736 -0.034648914 0.15811591 -0.09078426 -0.072665505 -0.036601912
-0.15653819 -0.21710978 -0.15085563 0.034488626 -0.10861288 0.030293567 -0.06936367 0.013197789
0.043529242 -0.16109325 -0.0130485725 0.05297235 -0.10970418 0.046649784 0.14243999 -0.07972996
-0.11890028 0.15023081 0.06534736 -0.12737003 -0.031125523 0.010121443 -0.19911444 -0.12022502
-0.17977652 -0.06982206 0.120087355 0.24470158 0.05332195 -0.21168043 0.08338387 -0.008751389
-0.006490558 0.09395946 0.24444985 -0.012202052 0.20129845 0.1475184 0.009049679 0.1351945
-0.1729374 -0.17550956 0.18633021 -0.13145234 0.087757304 0.17255118 -0.090428986 0.010335711
-0.11237059 0.19039594 0.031030534 0.14440012 -0.28204453 -0.07542468 -0.10605094 0.0509116
0.14221402 0.16753516 -0.14235899 0.18401697 -0.07401632 -0.09432969 -0.006355693 0.06379012
0.11672203 0.032749083 -0.075096056 -0.041764766 0.13108979 -0.04210732 0.059070196 0.18404242
-0.10040868 -0.06936616 -0.18071029 0.10947706 0.03195544 -0.08843106 -0.26862195 0.12412
-0.24018511 0.13927133 0.21990782 -0.0634297 -0.15559839 -0.07284118 -0.11862521 0.058036417
-0.05368052 -0.09501251 -0.18506391 0.068572395 -0.1825589 -0.10919954 0.13129565 -0.108513914
-0.07382956 0.104421206 -0.22641791 -0.1969869 -0.13754877 -0.037325475 0.07437795 0.12873049

SpectralMeanEstNet.SpectralGenMean.layers.3.0.bias f4 [30]
00000000: 80b0 0f3d b9d3 163e 4d96 49bd 8e0d 3bbc
00000010: a504 9b3b 47cd ce3d 6f59 89bd d860 49bc
00000020: 4364 8abe 3e2f f43d 6922 d6bd beb8 9e3a
00000030: b665 9b3c aa0a 42bd beeb 1f3e 5e10 1ebe
00000040: 18fe f63d e31d 723b ca3e 453d 4c41 303d
00000050: 0845 823b a2c6 14be c17c 05be 625a 2ebe
00000060: 3ea5 ab3d a29a a03d 0cc8 ca3d f357 c3bd
00000070: bc54 dabc 8e62 eb3c
0.035080433 0.14729203 -0.049215604 -0.011416806 0.0047307783 0.10097747 -0.06706511 -0.012291156
-0.2702962 0.11923073 -0.10455782 0.0012109501 0.018969398 -0.04737345 0.15617272 -0.15435931
0.12060183 0.0036944083 0.048155583 0.043031022 0.0039755143 -0.14528897 -0.13035871 -0.17026666
0.08381127 0.07841994 0.09901437 -0.09538259 -0.026651733 0.028733518
