pths/net9.pth (torch_old, 34322 bytes, 28 tensors)

AbundanceEstNet.Encoder_0.layers.0.0.conv2d.weight f4 [4, 3, 1, 1]
000000 02 6b 57 be cc 09 3b 3d de ca 86 be 13 ed 86 3e
       -0.21036914 0.04566364 -0.2632665 0.26352748
000010 54 49 e5 be d0 8a f0 3e ca 75 cb be 8d 29 e3 be
       -0.44782507 0.46980906 -0.39738303 -0.44367638
000020 c7 eb b4 be 71 94 8f 3e 83 cd 43 be 37 6f 77 3e
       -0.35336134 0.2804294 -0.19121365 0.24163519

AbundanceEstNet.Encoder_0.layers.0.0.conv2d.bias f4 [4]
000000 e5 5a fa be ea 40 b0 be be 27 35 be 4a 61 a9 bd
       -0.48897472 -0.34424525 -0.17690942 -0.082705095

AbundanceEstNet.Encoder_1.layers.0.0.conv2d.weight f4 [8, 7, 1, 1]
000000 bf 23 94 be 24 c6 7a 3e 90 5c ac bd 2b 7f cd 3d
       -0.28933522 0.24489647 -0.084160924 0.10034021
000010 e1 e4 84 3e 0e 7c 77 3d a1 d8 c5 3d 55 5d b3 3e
       0.2595587 0.060421042 0.09660459 0.35032144
000020 99 5c 4c be bc 9a f8 3d ae c8 39 be 7b ca 87 3e
       -0.19957198 0.12138888 -0.1814296 0.26521668
000030 03 13 94 3e 6a 76 b9 be ff 40 98 3e e2 0b 1c 3e
       0.28920755 -0.36223155 0.29737088 0.15238908
000040 05 3f 12 3e b8 b2 fc 3d 61 f3 a3 3e 9d 9f 1c bd
       0.14281853 0.123387754 0.3202162 -0.038238157
000050 6f 28 9b be 89 5b e0 bd 20 fd 93 be 9d f7 5d 3d
       -0.30304286 -0.10954959 -0.28904057 0.05419122
000060 56 a4 11 be 6d 0b 89 be 47 6e c7 bd 9f cf 99 3e
       -0.14222845 -0.2676653 -0.097378306 0.30041215
000070 91 fb 9a bc 78 5e c0 3c 2f 7f 5e bd a3 0b 4a 3d
       -0.018918784 0.023482546 -0.05432051 0.049327504
000080 7a a2 a5 3e 2e f2 67 3e e6 de 07 3e fa 1b 02 3e
       0.32350522 0.22650978 0.13268623 0.12705985
000090 81 7f 25 3e ea 7c 1a 3e 74 88 b9 3c aa 01 a3 be
       0.1616192 0.15086713 0.022648074 -0.31837207
0000a0 a0 0e 4c be dc 1e b5 3e c4 14 83 3d 9a 0f 7b be
       -0.19927454 0.35375106 0.06400445 -0.2451767
0000b0 51 2d 8a 3d 9f 63 b1 3e 1d 75 ac be 60 20 66 be
       0.06746925 0.34646317 -0.336831 -0.22473288
0000c0 21 04 00 be 87 c8 bb 3d c7 55 4b ba 8a a2 78 3c
       -0.12501575 0.09169107 -0.0007756617 0.015175471
0000d0 7b 96 a1 be 2e 7d 17 3e d0 ca 9d 3e e4 44 53 3e
       -0.3156012 0.14793846 0.30818796 0.20631748

AbundanceEstNet.Encoder_1.layers.0.0.conv2d.bias f4 [8]
000000 e2 53 87 be bc 4f 91 be 35 ab 3a 3e 1e 51 a5 3c
       -0.26431185 -0.28381145 0.18229373 0.020180281
000010 d4 8f 13 3e a2 16 da be ba 8d 96 bd a8 71 3c 3e
       0.14410335 -0.42595392 -0.07351251 0.18402731

AbundanceEstNet.Encoder_2.layers.0.0.conv2d.weight f4 [16, 11, 1, 1]
000000 8d a1 1d 3e 5a 72 97 3c a1 96 73 3d 58 52 75 bd
       0.15393658 0.018487144 0.059469823 -0.059892982
000010 63 9c 2f be b9 21 df bd ff 08 38 be a2 f9 77 3e
       -0.171495 -0.10895104 -0.17972182 0.24216321
000020 94 58 29 3e 7f 41 c2 3d ac d5 7c be 98 e1 97 3e
       0.16537696 0.09485149 -0.24690884 0.29664302
000030 8c bd 13 3e 07 2d 20 3e e7 79 23 be 76 6c 25 3d
       0.14427775 0.15642177 -0.15964471 0.04038664
000040 98 b8 ae 3e e8 44 48 3e 73 90 56 3e 6a 9e 0d bd
       0.3412521 0.19557536 0.2095354 -0.034574904
000050 5c 41 7e 3e 71 7c 69 be b8 0e ad 3d c0 88 f2 bd
       0.2482962 -0.22801377 0.08450073 -0.11842489
000060 fa d5 14 be ae 4f ae bd e3 cc 0b bb 36 30 a7 3e
       -0.1453475 -0.085112914 -0.0021331839 0.3265397
000070 8f 85 18 3e a2 02 ee bc c5 3e 5b 3e 06 aa 13 be
       0.14894699 -0.02905399 0.21410663 -0.14420328
000080 c2 11 2a 3e e9 a1 2c bc e8 57 6a bd 34 bb 7b 3c
       0.16608337 -0.010536649 -0.05721274 0.015364457
000090 b5 1f 4c be 37 d4 8c 3d ba a1 be 3d 72 48 61 3e
       -0.1993397 0.06876414 0.09308191 0.22000292
0000a0 ad 28 8b bd 10 25 1d 3e db f9 af 3e 2a 75 b1 bd
       -0.06794868 0.1534617 0.34370312 -0.086649254
0000b0 d7 43 be 3e b9 01 a5 bd 55 ca 5a 3d 18 1e 8a 3d
       0.37161133 -0.08056969 0.053415615 0.06744021
0000c0 19 6b 28 3d 22 14 9d 3e 4e b4 fb bd e2 ee ec 3c
       0.04111776 0.30679423 -0.1229025 0.028922502
0000d0 68 00 b1 3c 57 34 55 be 73 b9 8d bd d3 d7 ee bd
       0.021606639 -0.20820747 -0.06920137 -0.11662259
0000e0 d3 92 38 3e 6b f6 94 bc e5 37 cf bc 8d 9b e3 bd
       0.18024759 -0.018183907 -0.025295207 -0.11113653
0000f0 f8 5a 25 3d 16 b0 bc bd af 63 7a 3d 27 dc 97 3e
       0.040369958 -0.09213273 0.061130222 0.2966015
000100 00 1f 4f 3d a8 a7 03 be f7 44 24 be d7 45 1b 3d
       0.050566673 -0.12856925 -0.16041933 0.0379084
000110 32 dd 66 be ff 46 89 be 45 39 59 be c6 51 b5 bd
       -0.22545317 -0.26811978 -0.21213253 -0.08853488
000120 c4 e7 0d 3d 9e 0e 43 3e 2f 15 e8 3d 09 aa 62 3e
       0.034644857 0.19048545 0.113321654 0.22135176
000130 42 1a 51 be f8 42 82 3c 7f c1 86 be b4 da 21 3e
       -0.20420173 0.015901074 -0.263195 0.15806085
000140 61 dd ae 3d 06 17 95 3e dc 7b 55 be 93 4a 76 3e
       0.085383184 0.29119128 -0.2084803 0.24051885
000150 6c ac 82 3e 13 fd 6e 3e 17 ef 2d 3d 59 44 8f 3e
       0.25522172 0.23338728 0.042464342 0.27981833
000160 0b 89 1c 3e 9f 27 35 3e d6 f9 a5 3c 2e 82 3c be
       0.15286653 0.17690895 0.020260733 -0.18409035
000170 9d 6b 30 3d da 93 04 3c b4 56 6b be 1b dd fd bd
       0.043071378 0.008091891 -0.22982293 -0.12395688
000180 8e 53 88 be b1 fe ad bd 5e fc 95 3e a2 c4 3e bd
       -0.26626247 -0.08495844 0.29294103 -0.046574242
000190 2c d6 c4 bd 67 12 d1 3d 98 6b 63 3e 8f b7 5f be
       -0.096111625 0.10208588 0.22209013 -0.21847366
0001a0 71 14 9f be 0c be c9 bd 84 ca f4 bd bf c0 07 3e
       -0.31070283 -0.09850702 -0.11952689 0.1325712
0001b0 2d 11 3e 3e a2 d1 9f be 1b 1c 7b be 71 2a 97 be
       0.1856124 -0.31214625 -0.2452244 -0.29524568
0001c0 3f bb ea 3d 4a 14 6f 3e a5 9a 54 be 88 16 14 be
       0.114614956 0.23347583 -0.20762117 -0.1446172
0001d0 e2 ef 63 3d 39 60 35 be 98 78 99 3e 03 98 df 3d
       0.055648692 -0.17712487 0.29974818 0.10917666
0001e0 f5 22 4f bd aa 34 9b 3d 3f 0c de 3d 0a 02 04 be
       -0.050570447 0.07578404 0.108421795 -0.12891403
0001f0 a6 67 7a be 25 4a 9f 3c 47 69 1e 3c d3 0b 10 bd
       -0.24453601 0.019444535 0.009668655 -0.035167526
000200 ea 5d 0c bd 31 75 7a 3e 01 52 08 bd 03 de 48 3c
       -0.03426925 0.24458767 -0.03328133 0.012259963
000210 0f e8 0c 3e 15 5d 26 be 97 21 47 3d ba ab 8e bd
       0.13760398 -0.16246445 0.04861602 -0.06966348
000220 6c af f2 3d 41 2e 0c be 4f 0f 91 3c ee 05 b9 3a
       0.11849865 -0.1368952 0.017707495 0.0014116147
000230 b2 79 7b be 5f 1e 65 be 10 3f db 3d 3f 64 50 bc
       -0.24558142 -0.22374867 0.107053876 -0.012719213
000240 c5 42 77 3e 85 2f ba be 39 41 48 be 0e 03 94 be
       0.24146564 -0.3636438 -0.1955613 -0.2890858
000250 fc 60 38 3e 30 ac ae bb 3e 4f d6 bd b7 9e 13 bd
       0.18005747 -0.005330585 -0.10464333 -0.036040034
000260 67 0a 69 be 2a 4a a7 3d b6 96 3c 3d d6 c2 5d be
       -0.22757874 0.081684425 0.046042167 -0.21656355
000270 66 78 b0 3d 92 62 c9 3c 11 b3 81 be f3 f0 20 3e
       0.08616714 0.024583135 -0.2533193 0.15716915
000280 42 41 ee 3d 7a 53 d5 bc 34 f1 19 be 35 39 86 3d
       0.11633541 -0.026040781 -0.15033418 0.0655388
000290 1d 4e 8f 3e 3f a8 85 3e 74 ad 81 be 1d 37 df bd
       0.27989283 0.26104924 -0.25327647 -0.10899184
0002a0 f4 91 77 3e e3 4b 3a 3e 06 84 20 3e b9 53 2e be
       0.2417677 0.18193011 0.15675363 -0.17024125
0002b0 b9 95 96 3e dc 1f 6b be 44 63 3a 3b 49 d6 f0 3c
       0.29411104 -0.22961372 0.0028440515 0.029399054

AbundanceEstNet.Encoder_2.layers.0.0.conv2d.bias f4 [16]
000000 83 89 33 3d 8c 72 8e be 16 a0 64 3e f9 43 9a 3e
       0.043832313 -0.27821767 0.22326693 0.30129984
000010 81 06 8f be 85 4a 0a bd 93 cb 33 be ce 8e 91 3e
       -0.2793465 -0.033762474 -0.17558126 0.28429264
000020 e1 a6 5e 3e d6 54 83 3e a9 22 cb 3d 84 ac 2a bd
       0.21743347 0.25650662 0.0991872 -0.04166843
000030 39 2b 12 3e 7c e4 6c bd e8 7f d8 bd 2a e0 3b 3e
       0.142743 -0.057835087 -0.10571271 0.1834723

AbundanceEstNet.Encoder_3.layers.0.0.conv2d.weight f4 [24, 19, 1, 1]
000000 2b 87 d1 3d b9 ed b0 bd ff f2 2d bd 5d fc 38 be
       0.10230859 -0.08639092 -0.042468067 -0.18065019
000010 25 8e a9 bd 5f 07 b6 bd 5f 30 1e be 37 f4 47 be
       -0.08279065 -0.08888125 -0.1544814 -0.19526754
000020 bd 2d 54 3e 83 b6 25 be cb b6 89 3e c9 7f 0e be
       0.20720573 -0.16182904 0.26897272 -0.13915934
000030 6f 5e 64 3c c6 fd 30 3e 77 70 56 3d ca 69 32 bd
       0.01393853 0.17284307 0.05235335 -0.04355792
000040 6f 51 5d be 7c 2a 05 be da 05 19 3e 73 75 da bd
       -0.21613096 -0.13004488 0.14943638 -0.10666933
000050 51 a6 62 3e 7a e7 69 bd b9 38 37 bd 8d 90 e2 3d
       0.22133757 -0.05710552 -0.04473183 0.11062727
000060 8c 7d ba bc 71 5d d0 3c c1 1c 18 3e 32 29 60 3d
       -0.022764944 0.025435181 0.14854719 0.054726787
000070 4e ab 2c bd b5 c1 64 3d ab 6f 60 3e 2a f6 05 3d
       -0.042155556 0.055848796 0.21917598 0.032705463
000080 30 4a 49 bd 6d 4c b8 3d 6b 5f 34 bd 72 a9 2b be
       -0.049143016 0.08998952 -0.04403631 -0.16763857
000090 92 a2 94 bd da d3 f0 3d 54 01 64 bc c7 73 cd 3d
       -0.0725757 0.117591575 -0.013916332 0.100318484
0000a0 33 35 1e be c0 11 47 3e c4 a7 a2 bd b9 ab 94 3c
       -0.15449981 0.19440365 -0.07942155 0.01814829
0000b0 6e bb b8 bd 33 0a 02 be 54 b4 a7 3d d3 a2 ad bd
       -0.090201244 -0.12699203 0.08188692 -0.08478322
0000c0 ee 4b 27 be d4 5b e1 bd 66 9f 11 3e f8 e2 1b 3e
       -0.16337559 -0.11003843 0.14220962 0.152233
0000d0 5b 3c 1a 3e dd 68 58 be 77 b6 e0 3d 65 62 7d 3d
       0.15062086 -0.21133752 0.109723024 0.061861414
0000e0 54 2f 17 be 9e 1e a4 3c 1d bf 05 3d 40 29 fa bd
       -0.14764148 0.02003413 0.032652963 -0.12214899
0000f0 ee 80 c7 bd b4 82 3e 3e 1b db 47 bd 6f 6c 71 bc
       -0.09741388 0.18604547 -0.04879294 -0.014735325
000100 d7 2a 1d be e9 19 07 be 66 41 72 3e 38 33 e8 3d
       -0.15348373 -0.13193478 0.2365776 0.11337894
000110 fa 3c 73 bd 35 b1 1b 3e 35 60 dc bd d0 f2 5c be
       -0.059384324 0.15204318 -0.107605375 -0.21577
000120 49 9f 62 be 27 09 7a 3d e4 5f fd bd 32 5d d4 3d
       -0.22131075 0.061043885 -0.12371805 0.10369338
000130 31 9b 16 3e b9 ad 00 3e 09 60 1e 3e ff b2 c0 bd
       0.14707638 0.1256627 0.15466322 -0.09409141
000140 69 1e 75 3e a1 4a 09 be 90 97 a8 3c c1 79 f3 3d
       0.23937382 -0.13407375 0.020580083 0.11888457
000150 8c 61 2b be 51 b7 d9 3d 88 3f 1e bc fd 72 69 3c
       -0.1673643 0.10630668 -0.009658702 0.014248607
000160 cc bb 11 3e 55 f3 4f 3e d4 53 4a bd 4a 78 a6 bc
       0.14231795 0.20307668 -0.04939635 -0.02032103
000170 3f 2d 1f 3d e5 a1 50 3e 74 e8 09 3e c7 b6 69 3e
       0.03886151 0.20374258 0.1346758 0.2282363
000180 f0 d1 d0 3d 36 d8 21 be 97 11 49 3e c5 f1 cb bd
       0.101962924 -0.15805134 0.19635616 -0.09958223
000190 cd c7 67 3e 0d 82 d2 3d 71 ba c2 bd b8 a7 94 3c
       0.22634812 0.102787115 -0.09508217 0.01814638
0001a0 fd b6 99 3d f3 82 cd 3d c6 f4 50 be 09 7b 59 3d
       0.07505605 0.10034742 -0.20405874 0.05309585
0001b0 29 e5 aa 3d 56 9e bd 3d 09 11 18 3e e2 e9 50 3d
       0.0834449 0.09258716 0.14850248 0.051004298
0001c0 40 ba 5b be 3c cd 20 3e 16 95 21 be 4d d8 1f be
       -0.21457767 0.1570329 -0.15779528 -0.15609856
0001d0 67 41 e9 3c 74 63 cc 3d e3 d7 d6 3d f1 1b 09 bc
       0.02847357 0.09979907 0.10490396 -0.008368478
0001e0 4d 01 11 be 8d 95 10 3c 09 ab d5 3d 77 96 e6 bd
       -0.14160652 0.008824718 0.10433013 -0.11259168
0001f0 ea 00 40 be 61 c5 cf 3d 27 0c 02 be 4f fd 1e be
       -0.18750349 0.10145069 -0.12699948 -0.15526317
000200 5d ee 35 3e bb 75 00 be 4f 29 2e be 82 13 4a 3e
       0.1776671 -0.1254491 -0.17007945 0.19734004
000210 06 f0 ac bd 7a c2 63 3c a4 2d 6c 3e b5 ef c1 bd
       -0.08444218 0.013901347 0.23064286 -0.094695486
000220 14 89 56 3e ff 31 42 3e bd fd 40 3e 99 da 88 3d
       0.20950729 0.18964384 0.18846793 0.06682319
000230 da d5 e5 bd d2 27 0e 3e 6d d3 1c be c0 09 02 be
       -0.112224296 0.13882378 -0.15315028 -0.12699032
000240 95 aa c6 bd b4 25 ce 3d f2 a1 1a 3d 80 95 19 3e
       -0.09700505 0.10065785 0.0377521 0.14998436
000250 74 f8 13 3e fb 85 4c 3b a6 fd e7 3d a8 fe 3f be
       0.14450246 0.0031207788 0.113276765 -0.18749487
000260 a5 49 6a be b2 b6 1e be 97 bd eb 3d d1 aa 4f 3e
       -0.22879656 -0.1549938 0.11510771 0.20280005
000270 fe 4b 5c bd ed 2e 0b 3e 99 bc 0a be 94 d4 b1 ba
       -0.05378341 0.1359212 -0.13548507 -0.0013567382
000280 31 72 f0 bc cf 32 e9 bd a5 69 39 be 30 4f 08 3e
       -0.029351326 -0.11386644 -0.18106706 0.13311458
000290 92 b5 64 bd c0 b1 55 bd 56 c7 2a 3e 53 fd 42 be
       -0.05583722 -0.05217147 0.16677603 -0.19041948
0002a0 00 60 46 3e ea a1 7f 3e 97 84 cd bd f8 69 1b be
       0.19372559 0.24964109 -0.10035055 -0.15177143
0002b0 d9 a5 0f bd 62 ed f3 bd ed 28 1f 3e 92 b1 76 be
       -0.035070274 -0.119105116 0.15542956 -0.24091175
0002c0 d3 87 37 be 14 6c de bb 98 a3 76 bc 9d ce 04 be
       -0.17922907 -0.0067877863 -0.015053652 -0.12969442
0002d0 ea 22 34 3e bb 64 26 3e cb 37 90 bc db 61 65 3e
       0.17591444 0.16249363 -0.01760473 0.2240061
0002e0 4f 80 09 be 89 68 20 3e 98 24 ec bd 60 b2 33 3e
       -0.13427852 0.15664877 -0.11530417 0.17548513
0002f0 31 6d 12 3e 6c 5c 66 be 4a 9c f2 bc 4b 5a e9 bd
       0.14299466 -0.22496194 -0.02961554 -0.11394175
000300 65 53 59 3e da 24 cf bc 81 c4 1a 3e 78 d3 22 3e
       0.21223219 -0.025286127 0.15114023 0.15900981
000310 f6 8b 29 be a4 9d f6 3d 68 40 58 be 4f ba 86 bd
       -0.16557297 0.12041786 -0.21118319 -0.06578504
000320 1c e4 af bd 03 fe 5d be 72 4f 62 be 2a cb 49 be
       -0.0858843 -0.21678929 -0.22100618 -0.19706407
000330 97 53 25 be b4 e9 0d be 2c 29 f9 bd 5e 23 c0 3d
       -0.16145168 -0.13858682 -0.12166056 0.09381746
000340 ee 87 87 bd b1 a6 35 be a4 57 5f be fc 4c 54 3e
       -0.066177234 -0.17739369 -0.21810776 0.20732492
000350 99 a7 34 be 89 7b 23 be 1b ea 65 be 20 c9 93 3d
       -0.17642058 -0.15965094 -0.22452585 0.07216096
000360 05 bb 45 3e cc 18 a2 3d 63 08 47 bd fb 9d d2 3b
       0.19309624 0.07914886 -0.048591983 0.006427524
000370 52 1a 2e bd 71 0e 1a 3e 9c 4a e2 bc 0d 20 18 be
       -0.04250557 0.15044571 -0.027623467 -0.14855976
000380 f1 51 6e 3d 7c dd 54 bc dc 7b 23 bc 21 81 c4 3d
       0.058183614 -0.012992259 -0.009978261 0.09594942
000390 18 cd d6 bc 5c 88 53 bd fa 3a 87 3d 90 b3 2a 3e
       -0.026220843 -0.051643714 0.06603046 0.1667006
0003a0 39 72 55 be 79 4e 16 be 7e 66 82 be ac 8c 23 3e
       -0.20844354 -0.14678372 -0.2546882 0.15971631
0003b0 6f 9a 85 3e 20 7b 96 3e ab 69 0f 3e ce 92 a5 bd
       0.26094386 0.29390812 0.14005153 -0.080846414
0003c0 e4 99 e4 3d d3 6f 91 be ca b4 d8 bc d5 ea 34 bc
       0.11162165 -0.28405628 -0.026453394 -0.011042316
0003d0 dd ec 8d bb 2d a1 18 3e 1f 10 45 bd 93 fc 92 be
       -0.004331215 0.14905234 -0.048111077 -0.28708324
0003e0 47 c8 0a 3e f7 29 2d be 77 af 5f be 92 b3 2f 3d
       0.13552962 -0.1691054 -0.21844278 0.04289586
0003f0 75 6a 09 be 97 2e a4 3e 64 51 a3 bd dc c5 80 be
       -0.13419516 0.32066795 -0.079745084 -0.25150955

AbundanceEstNet.Encoder_3.layers.0.0.conv2d.bias f4 [24]
000000 ea 6c fc bd 7c 82 31 be ba 60 24 3e 7f 8e 91 3d
       -0.12325461 -0.17334932 0.16052523 0.07107257
000010 9f 5d 12 be f1 0c 3e be e8 22 ff 3d 51 c2 14 be
       -0.14293526 -0.18559624 0.1245783 -0.14527251
000020 c8 46 7e be 82 0c 22 be 74 51 81 3d d4 a6 c9 3d
       -0.24831688 -0.15825084 0.06314364 0.09846273
000030 3c b4 8e 3d e9 77 ad be 75 28 ec 3c 57 2e 64 be
       0.06967971 -0.33880547 0.028827885 -0.22283302
000040 41 13 a0 3d 3c 4d b3 bc 90 74 4a be 3d 43 69 bd
       0.078161724 -0.021887414 -0.19771028 -0.05694889
000050 f1 e7 31 be 01 87 37 3e c6 21 05 be b1 4e b9 3d
       -0.17373635 0.17922594 -0.13001165 0.09048212

AbundanceEstNet.Encoder_4.layers.0.0.conv2d.weight f4 [16, 27, 1, 1]
000000 b8 27 17 be 73 35 a8 3d 8a e8 53 be 43 a7 d0 bb
       -0.14761245 0.0821332 -0.20694175 -0.0063675954
000010 d4 ed e8 3c d7 b2 99 3b 76 e8 05 3e 24 2a 2c 3e
       0.028433718 0.004690509 0.13076958 0.1681295
000020 dc f3 14 be 54 2a 1f 3e 1a 7e 1d be 26 b9 0e be
       -0.1454615 0.1554349 -0.15380135 -0.13937816
000030 f4 56 67 bd 08 ed 45 3e 69 54 f6 3d e7 16 14 3b
       -0.05647941 0.19328701 0.12027819 0.0022596659
000040 f6 c6 b7 bd d6 68 81 bd 05 c9 69 bd b4 b9 b0 3d
       -0.08973496 -0.06318824 -0.057076473 0.0862917
000050 52 66 80 3c d7 31 dc bc 43 18 0f be e7 86 03 3d
       0.01567379 -0.026879234 -0.13974099 0.032111075
000060 a4 4f ce 3d c2 d2 d5 3d bc 00 c2 39 c7 0f 40 3e
       0.10073784 0.104405895 0.0003700311 0.18756019
000070 5d ba 21 bd 3f 46 12 3e 17 fa f5 3d 25 1a 21 3e
       -0.03948437 0.1428461 0.120105915 0.1573263
000080 3f 6b e0 3d 7b 10 3b be 50 94 d9 3d 04 6f 04 be
       0.109579556 -0.18268006 0.106239915 -0.12932974
000090 7d 82 f1 bd 9d ca 15 be 18 08 d3 bd da cb 3d be
       -0.11792467 -0.14628072 -0.10304278 -0.18534794
0000a0 e4 7b 33 3e 3f 26 c0 bd 84 e2 0d 3e a3 64 3c 3e
       0.1752773 -0.09382295 0.1385594 0.18397765
0000b0 fc 7e e6 3d 7b 22 1d 3e a0 33 f5 bb 11 f8 36 be
       0.11254689 0.15345185 -0.007482961 -0.17868067
0000c0 cf 8d e9 3d a0 f0 17 be 47 d6 41 3d 6b 5c c6 bd
       0.11404001 -0.14837885 0.04732349 -0.09685596
0000d0 e8 93 d9 3d f9 91 e2 3d 83 20 d2 bb 36 d2 88 bd
       0.10623914 0.11062998 -0.006412567 -0.066807196
0000e0 08 ba 12 3e 96 23 72 bd dc b1 1c be d8 60 fb bd
       0.14328778 -0.05911597 -0.15302223 -0.12274331
0000f0 1b f4 3c be ae 29 14 3e 3d 6e 0f 3e 06 64 41 bd
       -0.18452494 0.14469025 0.14006896 -0.04721453
000100 3c 48 ae 3d a0 91 d1 3d 1c 19 ae bd 74 8d 14 3d
       0.08509871 0.10232854 -0.08500883 0.036267713
000110 43 e2 1c bd 4e 3b b7 bd df 37 f4 bd ea 7a c6 bd
       -0.038301717 -0.08946858 -0.11924719 -0.09691413
000120 8a 75 4e bc 1b 67 dc bc 37 9f 13 be d4 7c 31 be
       -0.012601266 -0.026904633 -0.14416204 -0.17332774
000130 da 51 c7 bc 90 95 9c 3d b2 b5 5d 3d d3 f6 0e be
       -0.024331022 0.07645714 0.054128356 -0.13961343
000140 b6 63 c3 3d 6c 7e 67 bd 48 41 e8 bc e2 ca 86 3d
       0.09540503 -0.05651705 -0.028351441 0.065816656
000150 5e a7 00 3e fd a8 39 3d 2c fb e7 bd a4 42 82 be
       0.12563846 0.045327175 -0.11327204 -0.25441468
000160 6e 70 20 3d 57 1b 60 3e 85 28 e9 bd f8 04 9f 3d
       0.03916972 0.2188543 -0.113846816 0.077646196
000170 74 53 24 be e0 be 66 be 39 8e 72 3e 9f 8b 58 be
       -0.1604746 -0.2253375 0.23687066 -0.21147011
000180 60 c5 16 3e 2e 0d 99 3c 51 6f 86 3d 46 4a cf bd
       0.1472373 0.018683042 0.06564201 -0.101215884
000190 02 07 b0 3d df bd 4d 3e 53 88 0f 3d f5 3f 71 3e
       0.08595087 0.20091961 0.03504212 0.23559554
0001a0 42 d2 25 3e 0b fa b1 3d ad da f0 3d ff 44 11 3e
       0.16193488 0.0869027 0.11760459 0.14186476
0001b0 cf a5 3a 3e 82 c4 ca 3d b0 d7 31 be 06 e1 13 3e
       0.18227313 0.09900762 -0.17367435 0.14441308
0001c0 4b 37 ee bc 7e da de 3d 97 9c f5 bc a6 1c 14 3e
       -0.0290791 0.10881518 -0.029981894 0.14464054
0001d0 af a1 14 be ea e4 b7 bd b3 27 9b bd 4a 45 02 3e
       -0.14514802 -0.08979209 -0.075759314 0.12721744
0001e0 9e f6 28 be 58 03 ee 3c 16 18 cc bd 32 e3 11 be
       -0.16500327 0.029054329 -0.099655315 -0.14246824
0001f0 5e 02 0a be e3 5b 38 be f7 df 03 be 22 59 23 be
       -0.13477466 -0.18003802 -0.12878405 -0.1595197
000200 6d 66 f8 3b 30 18 3d 3e 60 78 88 bd 2c 0c 3a bd
       0.0075805695 0.18466258 -0.06663585 -0.045421764
000210 c5 59 db bd 90 9e 89 3c 1e 21 ae 3d b6 87 b4 bd
       -0.107104816 0.016799241 0.0850241 -0.08814947
000220 e9 46 b7 bd 6d 07 81 3d 8b 20 38 be 8d aa e9 3d
       -0.08949072 0.063002445 -0.17981164 0.11409483
000230 49 2d 98 bd 5e 71 b1 3d b8 79 18 3e 6b d4 2f 3d
       -0.074305125 0.08664201 0.14890182 0.042927187
000240 de 04 40 be 48 23 67 bd 5b 21 28 3e af cf 35 be
       -0.18751857 -0.05643013 0.16418974 -0.17755006
000250 22 7c 24 3e f2 e2 15 be 15 55 2b bd 5b b2 09 3e
       0.16062978 -0.14637354 -0.041829187 0.13446943
000260 23 06 3a be 11 d8 35 be fd 8b 1e bd 8b 0e 12 be
       -0.18166403 -0.17758204 -0.038707722 -0.1426336
000270 f9 30 80 bc 1f ab 00 3e 2b c6 c7 3d ed 5d 33 be
       -0.015648352 0.12565278 0.097545944 -0.17516299
000280 d2 a8 4e bd 0d 5f 15 be 7a 29 d6 bd 8f 8b d9 3d
       -0.05045397 -0.1458704 -0.1045713 0.10622322
000290 01 da bd 3c fd f5 4c 3e 6e 0b 68 3d 4e 3c f4 bd
       0.023175241 0.20015712 0.056651525 -0.11925565
0002a0 b8 fa 76 3d 5f 1a e1 bd a4 81 31 be 59 05 16 be
       0.060297698 -0.10991358 -0.1733461 -0.14650477
0002b0 03 2e 2c 3e b4 9a e5 bd c1 09 04 3e 4c 71 e0 bd
       0.16814427 -0.11211148 0.12894346 -0.1095911
0002c0 6d d0 1e 3e 95 f6 c3 bd 34 74 94 3d 10 67 4c be
       0.15509196 -0.09568516 0.072487265 -0.1996119
0002d0 f7 97 7e bd 9a 4a 85 bd ff 4c 43 3b a3 b3 86 bd
       -0.062156644 -0.0650837 0.0029800532 -0.06577232
0002e0 92 4d d7 bc b3 92 83 38 28 24 ed 3d bd 63 4d be
       -0.026282106 6.2738916e-05 0.11579162 -0.20057578
0002f0 3d f3 27 be df 37 c5 3d 42 9f 62 3c 2b b6 ae bd
       -0.16401382 0.09629797 0.013831915 -0.085308395
000300 e0 0e 85 3c e2 15 42 3e 2e 7b 1c be d4 8f c0 3d
       0.016242445 0.1895366 -0.15281364 0.09402433
000310 34 3f e8 3d 67 fa 88 bd 23 e4 19 bc 57 c1 56 bd
       0.1134018 -0.066883855 -0.009392771 -0.052430477
000320 38 92 b7 bd 45 c3 1b be fe 55 45 3e ad e0 23 3e
       -0.08963436 -0.15211208 0.19271085 0.16003676
000330 2f 45 90 3d c2 98 f5 3d 8a 59 e0 3d 28 c0 07 3e
       0.07044446 0.11992027 0.10954578 0.13256896
000340 57 3c 4d 3e 27 c8 ed 3d cd 03 55 be db 16 57 3e
       0.20042549 0.11610442 -0.20802231 0.21004812
000350 63 2e f1 3b 98 af 82 bd 21 00 6b 3d 67 c2 df bd
       0.007360266 -0.06381148 0.05737317 -0.10925751
000360 31 81 0b bd c6 30 da 3d ca 8d f6 bd 74 38 c4 bd
       -0.034058753 0.10653834 -0.12038763 -0.0958108
000370 53 50 10 3d aa 11 63 3e 11 12 9b bd 24 e2 92 3d
       0.035232853 0.22174707 -0.07571805 0.07172039
000380 4b 03 c0 3d 71 92 8e bd 24 fd f2 3c 4d 54 3c be
       0.09375628 -0.06961525 0.029661722 -0.18391533
000390 b1 d1 80 3c 1f 14 81 3e 0f e1 25 3e 7c ac d0 3b
       0.015724989 0.25210664 0.16199134 0.006368218
0003a0 9a 58 0c be 9e 29 3e 3c d1 e6 57 3e 05 db a8 3d
       -0.13705674 0.011606602 0.21084143 0.082449
0003b0 1d 4b ec bd af ee 18 3e ce 51 0f be 68 22 15 3d
       -0.11537764 0.149348 -0.1399605 0.036409765
0003c0 6a 1d 55 3e 0b 4b 9a bd 15 fa d9 bc 0f 64 b8 3d
       0.20812002 -0.075338446 -0.026608506 0.0900346
0003d0 6a 4c 49 bc fe e3 22 3d 37 5a d6 3d a3 ee 81 bd
       -0.012286285 0.03976821 0.10466426 -0.063443445
0003e0 77 1a 23 3d fb 6c f8 bd 96 85 e9 3c 36 6b 22 be
       0.03982016 -0.121301614 0.028506082 -0.1586121
0003f0 5b 93 76 3e 9b e5 41 bd 99 ec 20 3c 70 21 8e 3c
       0.24079649 -0.04733811 0.009822034 0.017349929

AbundanceEstNet.Encoder_4.layers.0.0.conv2d.bias f4 [16]
000000 12 fc 2b be 9b 48 d2 3c 7a 29 05 be 99 74 cc 3d
       -0.16795376 0.025669387 -0.13004103 0.09983177
000010 92 18 7c bb c6 69 25 be 45 a9 f2 bd 1b ef c3 3d
       -0.0038466793 -0.1615363 -0.11848692 0.0956709
000020 0f 94 84 3d db cd 05 be 37 ce 77 3d f0 d7 8e 3d
       0.064735524 -0.13066809 0.060499396 0.069747806
000030 da f8 30 be fa 8e 88 3d 9a b1 f2 bd 98 6f 76 bd
       -0.1728243 0.066678956 -0.11850281 -0.060165018

SpectralMeanEstNet.SpectralGenMean.layers.0.0.weight f4 [18, 16]
000000 52 61 a8 3d c3 02 46 3e e3 12 4f be 03 3c 15 3e
       0.082216874 0.19336991 -0.20222048 0.14573674
000010 87 7a 39 3e a4 0d 80 3e 05 22 72 bc 75 9d 91 bc
       0.18113147 0.25010407 -0.014778619 -0.017775277
000020 d1 d0 17 3e 4e 0d 94 be c3 74 2c be 84 12 0d be
       0.14825751 -0.289164 -0.16841416 -0.13776594
000030 e4 96 3d be b4 0e a5 bd 86 72 a5 be 39 f6 62 be
       -0.18514591 -0.08059445 -0.32313937 -0.22164239
000040 d3 b9 2d bd f5 bb 9a 3e 35 b4 a7 3d fd 94 88 be
       -0.042413544 0.30221525 0.08188669 -0.2667617
000050 c7 8b 92 3d 86 b2 4b 3e 5d 44 39 be fd 6d 0a 3e
       0.07155567 0.1989232 -0.18092485 0.1351852
000060 bf 33 db 3d e5 e8 bf 3d 5f d2 01 3d 9c 62 22 bd
       0.10703229 0.09370593 0.031694766 -0.039644822
000070 4a de c2 bd ac 3f 75 bd cc 37 38 3e 6a 83 75 3c
       -0.095150545 -0.059875175 0.17990035 0.014984945
000080 58 6f 05 bc bf e0 53 be bf 66 8b be 4d 90 1b 3c
       -0.008144222 -0.20691203 -0.27226827 0.009494853
000090 60 99 15 3e 7b ec 6c 3e 83 50 64 3b 1d 83 cb 3d
       0.14609289 0.23137085 0.0034838028 0.09937117
0000a0 29 22 58 be e2 6c 92 be bb a8 82 be 10 da 4c 3e
       -0.21106781 -0.28598696 -0.25519356 0.20005059
0000b0 2e b1 f9 bd 08 42 d5 bd 13 54 06 bc de ab 16 be
       -0.121919975 -0.10412985 -0.008198756 -0.14714
0000c0 48 f4 33 bd 47 a9 4e be e8 f2 34 be 58 ca 96 3e
       -0.043934137 -0.20181762 -0.17670786 0.2945125
0000d0 e1 6f 86 be af 88 98 bd 25 24 01 3e 7a 66 5d be
       -0.26257232 -0.07447945 0.12611444 -0.21621123
0000e0 04 8e 37 3e 7a d7 78 3c 52 09 89 3e 40 13 6e 3e
       0.17925268 0.015188092 0.26764923 0.23249531
0000f0 71 f6 f7 3d 1e 9c 38 be f1 1c 03 be 03 a4 08 3e
       0.12107552 -0.18028304 -0.12804009 0.13343816
000100 1f 61 3e 3e 58 d7 f6 bb 1c 82 d9 bd 07 1f 1b 3e
       0.18591736 -0.007532995 -0.106205195 0.15148555
000110 22 d2 69 be 48 b1 77 be 29 2a cb bd 2b df ae bd
       -0.22834066 -0.24188721 -0.09920151 -0.0853866
000120 c7 30 65 be 9c 89 da 3d b0 71 8a 3e 97 1f 8c bd
       -0.22381888 0.10670778 0.27039862 -0.06841963
000130 0e 2c bf 3c 1d 03 49 3e 79 9b 09 be f9 21 ca 3d
       0.023336437 0.19630094 -0.13438214 0.09869761
000140 30 25 57 be 8f e5 88 3c 4d 9c 98 3a 8d e6 78 bd
       -0.2101028 0.016711025 0.0011643261 -0.060766745
000150 de 0a 81 3e 20 f2 6d 3d d9 f7 8a be 13 7c a4 bc
       0.25203604 0.058092237 -0.27142218 -0.020078694
000160 72 e2 fd bd 69 a8 58 be 41 b6 c3 3d 77 b2 79 3c
       -0.12396707 -0.21157993 0.095562465 0.015240303
000170 df 90 4f be 8a 22 8b 3d d5 99 25 be c6 de 11 3e
       -0.20270108 0.06793697 -0.16171964 0.14245138
000180 ba 38 22 be df 27 a7 3e b7 ff b1 3d 37 e6 83 be
       -0.15841952 0.32647607 0.08691352 -0.25761577
000190 00 ba 43 be 22 c2 b9 3c dc 31 9a 3e b7 2f 15 3e
       -0.19113922 0.022675578 0.30116165 0.14568983
0001a0 07 3b b9 3d fe ee 3e 3e 31 a6 1e 3e 42 d0 55 3e
       0.09044462 0.18645856 0.15493084 0.20880225
0001b0 04 a5 4c be b6 19 e1 bc 9b 13 5c be 3d 51 e3 bd
       -0.19984823 -0.02747808 -0.21491854 -0.11099479
0001c0 38 e4 81 be c7 50 70 be 52 5e 52 3e 88 83 f2 bc
       -0.2536943 -0.23468314 0.20543793 -0.029603735
0001d0 bc 63 47 3e 6a 2c 9f be 92 74 07 3d 3d d5 76 3e
       0.1947164 -0.31088573 0.033070154 0.24104781
0001e0 28 6e 3a 3e d4 24 a0 3e 48 04 a3 3e c2 2f a5 be
       0.18206084 0.31278098 0.31839204 -0.32263
0001f0 7f e5 58 bd e6 7f 87 be 2c 94 21 3e eb 5d b7 bd
       -0.05295324 -0.26464766 0.1577918 -0.0895346
000200 d0 14 8b 3c 28 3d 16 3e 97 63 0e 3e 56 8b 48 3e
       0.016977698 0.14671767 0.13905178 0.19584402
000210 df 15 2a bd b1 fb 85 be cb 54 20 3e 33 8c 8b be
       -0.041524764 -0.26168588 0.15657346 -0.272554
000220 24 a9 32 3e 6a 10 c8 bd 72 d4 56 3e c2 14 94 be
       0.17447335 -0.09768756 0.20979479 -0.28922087
000230 97 21 19 be 5c df 15 be 1d 32 18 bd c1 ff c6 bd
       -0.1495422 -0.14635986 -0.037157167 -0.0971675
000240 18 38 79 3e 07 80 10 3e ad 3c 05 3e 19 0c 44 3e
       0.24337804 0.14111339 0.13011427 0.1914524
000250 5f c0 90 be 40 40 c0 3d f4 5a 37 be b6 d0 87 3e
       -0.28271767 0.09387255 -0.1790579 0.2652642
000260 97 a5 5c 3e da ba e1 3d b4 03 37 3e 6b 0b b4 bd
       0.21547543 0.11021967 0.17872506 -0.0879124
000270 8e 81 c7 bd 0a 59 17 3c 3f 05 10 3e 0d 6e 1d 3e
       -0.097415075 0.009237537 0.14064501 0.15374012
000280 f9 ab 8d be 39 ef 91 3c b1 e3 39 3b eb f7 00 be
       -0.27670267 0.017814266 0.0028364474 -0.12594573
000290 91 50 81 be 6b 0c 25 be 8c 03 1b 3d f1 b1 8d be
       -0.2525678 -0.16118018 0.03784518 -0.2767482
0002a0 8b 1e 25 3e b2 5d bb 3c fc 41 30 bd 78 33 e4 3d
       0.16124932 0.022871826 -0.043031678 0.111426294
0002b0 27 8c 19 3e f2 3b 29 3d 16 9d 94 3d 84 fa 8a 3e
       0.1499487 0.041316934 0.07256524 0.27144253
0002c0 6a 7f 82 3e 85 4e 2c bd 86 f3 86 3e 33 6e 91 be
       0.25487834 -0.04206707 0.2635767 -0.28404388
0002d0 0b d7 be bb 99 12 6e 3e 28 84 a8 3e 0f 2a 23 3e
       -0.005823975 0.23249282 0.32913327 0.15934013
0002e0 10 b1 37 3d 3c 4a 42 be 42 99 78 be 3a af 3f 3d
       0.044846594 -0.1897363 -0.24277213 0.04679797
0002f0 c3 da 8c 3e 16 d5 7c 3d ae c9 24 3e 91 83 84 3e
       0.27510652 0.061726652 0.1609256 0.25881627
000300 e7 cc 56 3e 94 30 18 be d2 c0 02 be 00 b6 56 3e
       0.20976602 -0.14862281 -0.12768868 0.20967865
000310 e1 c3 0f bd 1b 1f 92 3e 95 61 3d 3e 03 3c 53 be
       -0.035098914 0.28539357 0.18494256 -0.20628361
000320 fa 30 88 3e de 2c 27 bd 23 13 1e be f0 7b 82 3e
       0.26599866 -0.040814273 -0.15436988 0.25485182
000330 e0 e2 28 be 2b 52 8a bb a7 a9 2a 3e 31 81 8d 3e
       -0.16492796 -0.004221221 0.1666628 0.27637628
000340 b4 3c 3d be b0 75 d6 bd 05 0a b6 bd 44 1f 1f be
       -0.18480188 -0.10471666 -0.0888863 -0.1553927
000350 72 5c 9c 3d ca 62 bc 3d de 47 70 3d fd 25 47 3e
       0.0763482 0.0919853 0.058662288 0.19448085
000360 76 21 a9 bd 4f 58 14 3e 4d 92 8b 3d 55 7a 2c be
       -0.08258335 0.14486812 0.06815014 -0.16843541
000370 7d 0b 4c be 01 8a 05 be 9f 89 1a 3e fa 47 1a be
       -0.19926257 -0.13040926 0.15091561 -0.1506652
000380 37 95 66 be 23 b4 cd bb b3 59 4c be d2 89 37 be
       -0.22517858 -0.0062775775 -0.19956093 -0.17923668
000390 8c ca 67 be 93 72 8b 3e dd 30 9a 3e 1e 3b 83 be
       -0.22635859 0.2723585 0.30115405 -0.2563104
0003a0 de 81 4c be 69 29 bd bc 39 df 84 be 5b 78 09 be
       -0.19971415 -0.023091035 -0.25951555 -0.13424818
0003b0 5d 65 2a be 8c e7 a5 bd b6 7d 8e 3e fc f2 7e 3e
       -0.1664023 -0.08100805 0.27830285 0.24897379
0003c0 dd 62 7b be 3e fe 8d be bf 40 45 be 95 f2 3c 3e
       -0.24549432 -0.27733034 -0.1926298 0.18451913
0003d0 0e 71 5b be b1 5f 68 3e 1d 5a 63 3c 34 0a 13 3e
       -0.21429846 0.22692753 0.013876465 0.14359361
0003e0 18 12 18 3e e6 fc 59 3e 34 15 00 3e e0 dd 9b 3e
       0.14850652 0.2128788 0.12508088 0.30442715
0003f0 fd bc 34 3d 7e 58 18 be e0 f1 98 3d 5f ab 6f 3e
       0.044125546 -0.14877507 0.07468009 0.23405217

SpectralMeanEstNet.SpectralGenMean.layers.0.0.bias f4 [18]
000000 a8 5f d7 bc a6 db 16 bd ff 62 91 bc 41 6b b0 bb
       -0.02629073 -0.036830567 -0.0177474 -0.0053838794
000010 0b c1 52 3e 23 0d 8b be 68 8d 92 bd 5c 10 78 bd
       0.20581453 -0.2715846 -0.07155877 -0.060562477
000020 0d 05 03 bd d8 54 d3 bc 89 0d 8f bd 0c d9 c1 bc
       -0.03198724 -0.025797293 -0.069850035 -0.023663066
000030 00 e1 59 be 34 a4 d9 3d 00 e0 13 bd c4 21 c3 bc
       -0.21277237 0.106270224 -0.036102295 -0.023819812
000040 25 a1 3a bc f8 11 08 bc
       -0.011390959 -0.008305065

SpectralMeanEstNet.SpectralGenMean.layers.1.0.weight f4 [22, 18]
000000 c9 3a 26 be 8e 67 43 3d 73 84 a9 be 60 1c 44 be
       -0.16233362 0.04770618 -0.33108863 -0.19151449
000010 8c 55 f6 bd c7 38 73 bd 09 d3 91 be d2 56 f0 bd
       -0.120280355 -0.05938032 -0.2848132 -0.1173531
000020 d5 5e 2f be 88 38 5d be 02 7e 1a 3e 32 22 35 be
       -0.1712602 -0.21603596 0.1508713 -0.17688826
000030 4f 2e 01 3e 52 63 57 3e 25 fd 0b be 36 80 d0 bd
       0.12615322 0.21033981 -0.13670786 -0.10180704
000040 0d 11 e7 3d 3e a6 b1 bc df a2 b7 3e 32 04 23 3e
       0.11282549 -0.021685716 0.35866448 0.15919569
000050 60 5c 90 3e 95 5f 3b be 15 6c 45 bd fa e0 31 3e
       0.28195477 -0.1829818 -0.04819878 0.17370978
000060 1b 60 a5 3d 34 85 7a be 02 ef 02 3e 9b 9d c3 3d
       0.08074971 -0.24464875 0.12786487 0.09551545
000070 12 a8 b6 bc cb c6 8a 3e f2 a2 08 3e 7b b1 00 be
       -0.022296939 0.27104792 0.13343409 -0.12567703
000080 e2 ae 93 3d 94 18 d8 bd 63 64 66 3e 97 2d 9e bd
       0.072110906 -0.10551563 0.22499232 -0.07723539
000090 4a 1c dc 3b f3 ac 07 3e 60 89 9c 3e de 91 57 3e
       0.0067172395 0.13249569 0.3057356 0.21051738
0000a0 96 18 90 be 79 06 33 be e3 76 a9 3e 9e 97 66 bd
       -0.28143758 -0.17482938 0.33098516 -0.056296937
0000b0 bd af 54 bd ab 66 81 3c d9 ad 91 3e 3a 2c 1b 3e
       -0.05192541 0.015796026 0.28452948 0.1515359
0000c0 33 0e 3d 3e 1f fe 8e be 19 89 92 3e 3d 8a 84 3e
       0.18462448 -0.27928254 0.28620222 0.25886717
0000d0 a6 4a 8a 3e 90 1b 2a 3e 2c ff 89 3c 07 5f 11 be
       0.27010077 0.16612077 0.016845308 -0.14196406
0000e0 1a 81 01 3e 2e 61 55 3e 7b 70 b7 bd 41 cf 4c 3d
       0.12646905 0.20837852 -0.08957001 0.05000234
0000f0 77 a4 bf 3d 2b 09 0e 3b 38 17 29 3e 64 39 7e 3e
       0.09357541 0.0021672945 0.16512764 0.2482658
000100 2e a0 bb 3d 05 de bc 3d 5c b4 a3 3d b4 42 6b 3d
       0.09161411 0.09222034 0.07993385 0.05743666
000110 bd fd 3e 3c 31 33 88 3d 8a dc 27 3e 5c b4 d9 bd
       0.011657176 0.06650389 0.16392723 -0.10630104
000120 f4 9c 99 bd 0d b0 6d be 4a cb 83 be 11 99 93 bd
       -0.075006396 -0.2321169 -0.25741035 -0.072069295
000130 29 a8 32 bc 23 23 7b 3d 95 0f 06 be cb 18 98 bd
       -0.01090435 0.061312806 -0.13091882 -0.07426604
000140 a7 dc d6 bd 4d 6f 83 bd da f7 39 be f3 79 b9 bc
       -0.10491305 -0.06417713 -0.18160954 -0.022641158
000150 3c dc 90 3d ed 70 a1 bc 02 9c 9d bd 45 98 70 3d
       0.070732564 -0.019707168 -0.07695772 0.058738966
000160 68 16 95 3d 72 77 4e bd 04 fd 37 bd 33 8f 48 bd
       0.07279664 -0.05040688 -0.04491903 -0.04896469
000170 0f 62 04 3e 35 90 16 be 55 e5 4f be 8c 6f 0a bd
       0.12928031 -0.14703448 -0.20302327 -0.033797786
000180 70 7c 2d 3d 09 8f 43 3d db bc 3d 3e 3b b6 77 3e
       0.042355 0.04774383 0.18529074 0.24190609
000190 43 7f 94 3e 6d 2a b8 3b 10 1b 32 be ff 4e 2e 3e
       0.29003343 0.005620292 -0.17393136 0.17022322
0001a0 d7 99 9c 3e 13 66 ad 3e d7 4b 49 3e ea 92 76 3e
       0.3058612 0.3386694 0.19657837 0.24079481
0001b0 f5 84 98 bc ec 06 4a be 7a c5 4f be 1f b9 51 be
       -0.018618086 -0.19729203 -0.20290175 -0.20480774
0001c0 3e 16 c6 bc 5c cf da bc ef 23 1d 3d 91 98 53 3d
       -0.024180528 -0.026710205 0.038364347 0.05165917
0001d0 cc 46 50 be 46 58 57 bd 84 b6 51 3e 48 47 f4 3d
       -0.20339507 -0.05257442 0.2047978 0.11927658
0001e0 df fb 1a 3c e2 16 45 bd 08 c3 a7 bd 14 aa b5 3c
       0.009459465 -0.048117526 -0.08191496 0.022175826
0001f0 13 e9 67 be bf f8 12 3e 92 b7 06 3e e0 03 99 bd
       -0.22647505 0.14352702 0.13155964 -0.07471442
000200 6a 7a 7e 3c a8 34 85 bd e3 ae 2d be 96 5a ea bd
       0.0155321155 -0.06504184 -0.16961245 -0.11443059
000210 5e 61 2e be 2a 00 f9 3d 80 a1 e6 3c 39 f1 dd 3d
       -0.1702933 0.121582344 0.028153181 0.10837025
000220 ac 69 43 be ba bb 19 3b 29 5e 2d be 4c 1a 9f 3d
       -0.1908328 0.002345784 -0.1693045 0.077686876
000230 4a 58 06 be 2f ca 58 be 15 7c 63 3e b5 69 03 be
       -0.13119617 -0.21170877 0.22215302 -0.12833293
000240 b1 5d b7 3e df e7 4e 3e 28 dd 99 3e 57 6f 8d 3e
       0.35813668 0.2020564 0.3005154 0.27624008
000250 96 bf 92 bd f4 1f 33 bd 7b c0 3f 3e 6e b6 68 3e
       -0.07165448 -0.043731645 0.18725769 0.22725841
000260 0b ce a7 bd 34 d9 e4 bc be 6f e3 3d a9 d2 73 3e
       -0.081935965 -0.027935602 0.111052975 0.23810829
000270 3c 1b 70 be 77 82 9e 3e 53 4b 99 3e ae 67 a7 3e
       -0.23447889 0.30958912 0.2994028 0.3269629
000280 cb 39 25 3d a9 67 4a bd 8d 55 66 3e 07 a7 89 3e
       0.04033832 -0.049415264 0.22493573 0.26885244
000290 4c 8f ae 3e 10 df b1 bd 6b 0e 61 3e ca 75 b7 bd
       0.34093702 -0.08685124 0.21978156 -0.08958013
0002a0 ef 60 1f bc 31 76 3d 3e ab 9e 87 3e 20 91 23 3e
       -0.009727701 0.18502118 0.26488242 0.1597333
0002b0 ee 2e 1f be 75 0b cd 3e 89 a5 8f bd 6f 2e 7d 3d
       -0.15545246 0.40047804 -0.07013995 0.06181186
0002c0 1b 54 18 3d d5 e9 fa bd 82 8a c7 3d 81 e8 01 3e
       0.037189584 -0.12251631 0.09743215 0.1268635
0002d0 02 1b 30 3e c3 29 99 3c b9 09 9c 3e fe 79 3b 3d
       0.17197803 0.018696671 0.30476168 0.045770638
0002e0 c8 17 26 be f0 47 8f bd b6 e1 85 3d 27 70 63 3e
       -0.1622001 -0.06996143 0.065371916 0.22210751
0002f0 19 ac af 3e 7b d4 1a 3e ac 1d 8d 3e ec 80 b2 3e
       0.34310988 0.15120117 0.275617 0.34863985
000300 f7 a2 c5 3d 54 50 25 3e 2b 7d 3b 3e 64 a6 10 3e
       0.09650224 0.16143924 0.18309467 0.14125973
000310 bb 21 b4 3e 76 bc a4 3c 98 84 a8 be 5c bb 85 be
       0.35181984 0.020109396 -0.3291366 -0.26119506
000320 50 2b be 3c 46 94 78 be ec f6 45 3d 56 af 89 3b
       0.023214012 -0.24275312 0.048331186 0.00420181
000330 bd 00 9e be c1 9d fd bd 7d 1a 82 bd 85 50 9c bd
       -0.30859938 -0.12383605 -0.063527085 -0.076325454
000340 97 89 89 3d c4 d1 46 be d7 8e d1 bd 2e 0e 10 bd
       0.06715696 -0.19415957 -0.10232323 -0.035169773
000350 ac 25 8b be d4 09 02 be 09 3f fc bd 8c dd ea 3b
       -0.2717718 -0.12699062 -0.123167105 0.0071675237
000360 ce 85 fb bd c1 0f f6 3d 6a f0 23 bd 1b ba c0 bd
       -0.122813806 0.120147236 -0.0400242 -0.09410497
000370 e6 1f 97 bd 1e 6e 01 3e 58 d3 97 bc 49 e2 4d be
       -0.07379131 0.12639663 -0.018533394 -0.20105852
000380 21 75 51 be 1c a4 74 bc 7b 5a c2 b9 80 d8 52 be
       -0.20454837 -0.014931705 -0.00037069977 -0.205904
000390 4b e7 5b be ea 05 de 3d 95 62 20 3d 0a e0 24 be
       -0.2147495 0.10840972 0.039156515 -0.16101089
0003a0 c1 a1 42 be 43 f8 19 3e 4b 64 cb bd 93 80 85 3e
       -0.19007017 0.1503611 -0.09931239 0.26074657
0003b0 bc 88 bf bd 37 51 29 3e 2a 12 15 3d 81 dd 65 3d
       -0.09352252 0.16534887 0.036394276 0.056119446
0003c0 45 ec 72 3e 05 53 81 bc 05 6a e2 bd 79 47 9f 3d
       0.23722942 -0.015786657 -0.11055378 0.07777304
0003d0 86 d0 ae 3d 4a 09 1f 3d 53 26 b4 3d e1 e9 86 3e
       0.085358664 0.038827218 0.08796372 0.2635031
0003e0 ae 5f ae bc 57 aa 2e 3e 53 cc 37 3e 4c d3 5a 3e
       -0.021285858 0.17057167 0.17949037 0.21369666
0003f0 44 83 69 bc 39 b6 52 be fc b8 7e bd 33 ef ab 3c
       -0.014252488 -0.20577325 -0.062188134 0.020988083

SpectralMeanEstNet.SpectralGenMean.layers.1.0.bias f4 [22]
000000 29 d0 32 3e 39 4b 76 3c 22 63 37 3d 8c ea 30 3e
       0.1746222 0.015032583 0.044772275 0.17276973
000010 5b be f7 3d b7 c8 88 3c 75 67 37 bd cd 40 70 3b
       0.12096854 0.01669727 -0.0447764 0.0036659718
000020 b8 a3 79 bd cb d7 d1 bd 0d 78 55 3e 30 74 80 bd
       -0.06094715 -0.10246237 0.20846577 -0.06272161
000030 89 75 03 3e ef 00 d9 bc 92 28 22 3e 98 4c 1d bd
       0.12837805 -0.026489703 0.15835789 -0.038403124
000040 c9 fd 22 be bd 0b d1 3d b7 72 7a bd 08 aa 02 3e
       -0.15917124 0.10207317 -0.061144557 0.12760174
000050 69 90 93 bd d2 86 3a 3e
       -0.072052784 0.18215492

SpectralMeanEstNet.SpectralGenMean.layers.2.0.weight f4 [26, 22]
000000 33 57 00 bd a1 b7 0e 3e 35 57 88 3e 11 b0 4f 3e
       -0.03133316 0.13937236 0.26629034 0.20282008
000010 5d 39 11 be e5 99 79 3e 5a f0 17 3e 59 3e 8b bd
       -0.14182039 0.24375112 0.1483778 -0.06799001
000020 d0 5b f1 3d c6 07 90 3d 6b a8 f5 3d 2e a3 80 be
       0.1178509 0.07032733 0.11995014 -0.25124496
000030 bc cc 66 be 9e 67 69 3e 4c cd f4 3c a8 09 f1 3d
       -0.22539037 0.22793433 0.02988305 0.1176942
000040 f0 fb 58 3d 4a e7 81 3e 91 8b 11 3e 6c 2d e3 bd
       0.05297464 0.25371772 0.14213397 -0.11092648
000050 f7 c1 e0 bb de c2 24 be 7d c1 88 bd c3 18 cd bd
       -0.00685906 -0.16089961 -0.0667753 -0.100144885
000060 10 11 93 be 1f dc 41 3e a7 45 5e bd ff db 78 be
       -0.28723955 0.18931626 -0.054265644 -0.24302672
000070 7c 49 9f bd ec af 0d bd 9d de 70 be 31 58 a9 bc
       -0.07777688 -0.0345916 -0.2352242 -0.020671936
000080 46 54 0e bd c1 ed 3f bd c0 b1 b6 3d f8 63 2b 3d
       -0.03474834 -0.0468576 0.08920622 0.041843385
000090 71 e5 27 3d 58 31 cf be 2c d5 b6 3d aa 60 90 be
       0.040990297 -0.40467334 0.08927378 -0.2819875
0000a0 65 60 48 be 84 89 47 3e 67 ab 0a be 0d 06 89 3d
       -0.19568022 0.19486052 -0.13541947 0.06690607
0000b0 5f e3 1f 3e ac 12 1a 3d 6a d0 98 bd 7d 7e 25 bd
       0.15614079 0.037615463 -0.07461627 -0.04040383
0000c0 fa f3 93 3d c2 4a 53 be 81 36 93 3b 89 85 1d be
       0.07224269 -0.20633987 0.0044925814 -0.15382971
0000d0 c3 4e 3b be 68 ba 89 be 62 88 3b be cc 2f 93 3d
       -0.18291764 -0.2690003 -0.18313745 0.07186851
0000e0 e2 9c 9b 3d 5e 65 69 be 1e 1d 52 3e 5f 61 62 bd
       0.075982824 -0.22792575 0.2051892 -0.05526864
0000f0 1a b7 3d 3e e6 ff a8 bd 45 96 1e be e6 e6 77 bd
       0.18526879 -0.08251934 -0.15487011 -0.060522936
000100 80 dd 00 bc 71 fa 36 bd f7 b2 ae bc ef 76 c1 3d
       -0.00786531 -0.044672433 -0.021325571 0.09446513
000110 52 11 a8 3e 72 52 06 3e fc 9e 0d 3e a8 5d 1c 3e
       0.32825714 0.13117388 0.13830179 0.15270102
000120 cc 44 5d be f3 39 52 3e 44 f6 15 3e ef dd a2 3e
       -0.21608275 0.20529918 0.14644724 0.31809947
000130 1c af 80 3e a8 24 8e bd 87 c9 10 3d b0 78 d1 ba
       0.25133598 -0.069405854 0.03534844 -0.0015981402
000140 cc 89 1f 3e 78 24 0e 3d f3 14 17 3e bf dd 4e bc
       0.15579909 0.034702748 0.14754085 -0.012626111
000150 3e 97 ba 3e b6 a1 1a be cd 25 22 be d8 69 a5 3d
       0.36443514 -0.1510075 -0.15834732 0.08076829
000160 99 90 cc bd 3a 79 9b 3e ab 54 e0 3c 89 b2 e7 bd
       -0.09988517 0.30365926 0.027384123 -0.1131335
000170 a2 33 75 bd 7e 4e 14 bb 35 03 08 3e a1 5f 07 3e
       -0.059863694 -0.0022629793 0.13282473 0.13220073
000180 49 79 11 3e b8 15 91 3e 1f d8 75 3e 36 a9 4e be
       0.14206423 0.28336883 0.24008225 -0.20181736
000190 9c 1e 37 3d 27 14 60 ba e3 0d 53 be 4b 86 27 3d
       0.044706926 -0.0008547925 -0.20610766 0.040899556
0001a0 2c 5e 89 3d a6 7a 5e 3e 8f a6 89 bc b9 08 a4 be
       0.06707415 0.21726474 -0.016803054 -0.32037905
0001b0 ec 66 cd 3d 26 b5 0d be 81 38 26 3e f6 48 42 be
       0.100293964 -0.13838634 0.16232492 -0.18973145
0001c0 1d 0a 8c 38 2e 75 c9 bb 16 1b 11 3e bb 31 2c be
       6.677604e-05 -0.006148002 0.14170489 -0.16815846
0001d0 c7 26 b3 bc 9b b8 c9 bd 9d 09 30 3d 6e 81 5d bd
       -0.021869076 -0.09849664 0.042977918 -0.054078512
0001e0 10 e0 65 be 1a 28 65 3e 46 c2 20 3e 68 d3 7b be
       -0.22448754 0.22378579 0.1569911 -0.24592364
0001f0 b8 61 70 3c 7c f3 cd be c8 ce 65 3d b9 65 0b 3b
       0.014671735 -0.40224826 0.056105405 0.0021270348
000200 13 ce 55 3d 3f 67 04 3d f0 c6 0d 3e 6a 4f c6 bd
       0.05219848 0.032325026 0.1384542 -0.09683116
000210 ec a1 11 be 39 fe b9 39 c6 cc 33 3e e8 05 4b 3e
       -0.14221925 0.0003547536 0.17558584 0.19826472
000220 25 bd e0 bd 79 80 25 3e 9a 7f dd bd 25 78 ba bd
       -0.109735765 0.1616229 -0.10815354 -0.09104947
000230 ca b5 36 3e 61 2e c1 bd e2 15 4c 3e aa 5d 2c be
       0.17842785 -0.09432674 0.19930223 -0.16832605
000240 cb c9 1f 3e 46 d3 e1 3d 68 4c 49 be c3 f1 cc 3e
       0.15604322 0.11026625 -0.19658053 0.400282
000250 3b a3 95 bd 9a fe 77 bd 29 b0 d0 3e e2 b4 a4 bd
       -0.07306524 -0.06054554 0.407594 -0.08042313
000260 a5 3d 1a bc bb c3 13 be ec 08 ad bd 57 fa b2 3e
       -0.009414111 -0.14430134 -0.08448967 0.3495662
000270 3c ee ca 3c 17 ab aa bd f7 a6 59 3e 1d cb c1 3d
       0.024771802 -0.08333414 0.21255098 0.09462569
000280 5c db d2 bd 1f c4 3b 3e 39 e1 59 3e 6a b5 02 bd
       -0.10295746 0.18336533 0.21277322 -0.03191129
000290 fb 53 98 3d ed 56 26 bd f9 94 61 bd 1e f8 94 3e
       0.07437893 -0.040610243 -0.055073712 0.29095548
0002a0 77 ec 8a 3e 25 89 ad 3e d6 55 90 bd 56 29 4c 3d
       0.27133533 0.33893695 -0.07047622 0.04984411
0002b0 91 b1 05 3d a5 c5 69 be c5 2c e8 bd b0 2f 62 3e
       0.032640044 -0.22829302 -0.11336664 0.22088504
0002c0 b6 26 0b 3e 1c 66 07 be 9c 3d 9b be a9 77 cd 3d
       0.13588986 -0.13222545 -0.30320442 0.10032589
0002d0 6b 06 ff bc 78 ec 02 bd 3f 6d b2 bd 68 97 f3 bc
       -0.03113099 -0.031963795 -0.08712243 -0.029735282
0002e0 75 00 b6 bd 97 27 16 be 46 ae ea bd 4b bc 06 3e
       -0.08886806 -0.1466354 -0.11459021 0.13157766
0002f0 97 f2 a7 3d 79 3b 53 3d 5e 58 07 be 75 88 1c 3c
       0.08200567 0.05157039 -0.13217303 0.009554018
000300 c8 ee 58 be b9 70 48 be e9 c2 39 be 57 59 d7 bd
       -0.21184838 -0.1957425 -0.18140759 -0.10515087
000310 90 a4 35 3e 9f c3 0e bd c8 03 c7 bd e1 6f 88 3e
       0.17738557 -0.034854528 -0.09717518 0.26647857
000320 c4 46 25 3e a2 03 2e 3e 03 b2 d9 3d b6 9c 0b 3e
       0.16140276 0.16993573 0.10629656 0.13633999
000330 4c 8a 78 be b3 43 11 3e 86 08 1b 3e fe d9 3a 3e
       -0.24271506 0.14185981 0.1513997 0.1824722
000340 59 ed 51 3e cc bf 4c be bd f9 ca bd 56 7a 42 bd
       0.20500697 -0.1999504 -0.09910915 -0.04747995
000350 b0 88 e9 3c 60 3f 55 3e 8d 01 37 bd 35 09 8b 3d
       0.02850756 0.20824957 -0.044679213 0.067888655
000360 58 a9 38 3e 66 30 c6 bd 93 a5 20 3e 66 bb 0b 3e
       0.1803335 -0.096772 0.15688162 0.13645706
000370 1b 27 90 3e 3c d3 9e be 83 d4 a5 be ca 58 2a 3e
       0.28154835 -0.31020534 -0.32388696 0.16635433
000380 87 d9 64 3e 12 1b 93 3d d1 fd 0b be 75 16 29 be
       0.22348605 0.071828976 -0.13671042 -0.16512473
000390 5c 59 b5 3c 33 ea 80 be 68 f8 37 be 13 a2 ec 3d
       0.022137336 -0.2517868 -0.17965853 0.11554351
0003a0 67 58 82 3e 97 45 44 be 0b 55 6b bc f7 f6 a3 be
       0.2545807 -0.19167171 -0.014363538 -0.32024357
0003b0 61 71 0e be e8 f8 1c bd 0b 98 51 be c1 9c 67 3e
       -0.13910438 -0.038323313 -0.20468156 0.2261839
0003c0 3f 93 04 be 51 12 1e bd a7 05 37 be 7e 39 7b be
       -0.12946795 -0.038591687 -0.1787325 -0.2453365
0003d0 79 e4 5e 3b 31 c4 12 bd 08 50 3a be 2e 13 66 bd
       0.0034010692 -0.035831634 -0.18194592 -0.056170635
0003e0 02 a8 b4 3d 76 0a a4 3d 43 a5 ee 3c 59 3b 88 be
       0.088211074 0.08009808 0.029131537 -0.2660778
0003f0 fa 54 11 3d ef 60 27 be 1f e3 39 3e ca 0e a4 3d
       0.03548143 -0.16345571 0.18153046 0.08010633

SpectralMeanEstNet.SpectralGenMean.layers.2.0.bias f4 [26]
000000 ed 30 2b bd 8e d1 20 be ff bd 12 3e c5 f8 48 bd
       -0.041794706 -0.15704939 0.1433029 -0.04906537
000010 21 fd 59 3d fb 95 3a 3e 28 50 7f bd 2b b1 ef bd
       0.05321992 0.18221276 -0.062332302 -0.11703714
000020 67 dc 46 3e ee aa 05 3e 6e 97 78 3e 72 43 ff 3d
       0.19420014 0.13053486 0.24276516 0.12464036
000030 20 4a 36 bd a6 b5 da 3d 34 00 ae 3d 05 18 14 3c
       -0.044504285 0.10679178 0.084961325 0.00903893
000040 09 5f 37 3e 6d e8 91 3d 15 ad 2a be 4a 00 12 3e
       0.17907347 0.0712441 -0.16667588 0.14257923
000050 e6 78 b5 bd 04 5f b9 bd cb 92 09 be 29 71 96 3c
       -0.0886095 -0.09051326 -0.13434903 0.018364506
000060 22 b5 66 3d 8a 2a d4 bc
       0.056325085 -0.02589919
